ppo_checkpoint_after_random.pth (torch, 664698 bytes, 55 tensors)

actor.0.weight f4 [64, 121]
0.040164687 0.24407856 -0.099693425 0.24919745 0.33194998 -0.20100594 0.020687526 -0.3241341
-0.23340765 0.25782993 0.022920402 0.34744492 0.13826634 0.05737813 -0.11612794 -0.08027504
0.40344346 -0.058909062 -0.4328547 0.05455762 0.25079876 -0.08662581 -0.17985985 0.112025
0.19435112 0.05426738 0.10578264 -0.4311539 0.46658438 -0.10407519 -0.23552996 0.37505853
-0.23543097 0.47858796 0.32774943 -0.35889524 0.36188078 0.37091818 -0.04301916 0.10663174
0.11540094 0.51342374 0.032633517 0.07543856 -0.13603115 0.16833943 0.10306158 0.22641528
0.21438561 0.030998519 0.42168313 0.03457468 0.49548027 0.05063654 -0.12547706 -0.073814176
-0.43360478 0.1612897 -0.09924641 0.018698022 -0.1507468 0.19702323 -0.2846396 -0.042407047
-0.11899243 -0.16693518 0.27427873 -0.16792874 -0.19213557 0.03809806 -0.077384554 -0.19665964
-0.1080774 0.42211986 -0.31408033 0.09198516 0.27475983 0.19662146 0.074284524 -0.10657024
0.06575259 0.26223704 0.13986519 -0.029708005 -0.36953852 -0.20439273 0.4045374 0.12796362
-0.026785644 -0.17187874 0.39607906 0.2742102 -0.038114138 -0.3251647 -0.12414014 0.19076058
-0.11632658 -0.057170164 -0.13979666 -0.19796276 0.3085145 -0.2078384 -0.2590788 0.42405978
0.0758367 -0.12777291 0.14470841 -0.03991486 -0.5411186 -0.20639963 -0.052816935 -0.1533375
0.25307128 -0.0017554639 0.047869697 0.6014565 0.20600304 -0.007786077 -0.767399 -0.009978757
-0.1033433 0.3198618 0.06837708 0.37834513 0.28440762 -0.21554717 -0.26188162 0.14690676
-0.39745307 -0.042287566 0.21237126 -0.06655922 0.14861809 0.3624958 -0.34166017 0.09475255
-0.20479201 0.2732031 0.01133186 -0.38653013 -0.106227584 -0.02353595 0.14590119 0.4213455
0.23618148 0.15633601 0.0073264744 -0.1114695 -0.03961366 0.1274616 0.16588236 0.2016624
-0.3685867 0.84313834 0.1630499 0.41947493 0.0151343215 0.022075035 0.5862689 -0.22040126
0.15880413 0.42032462 0.31651285 0.16173236 0.30594006 0.26575813 0.38784558 -0.27645928
-0.1181872 0.37567782 -0.20275135 0.098435916 -0.34183803 0.26157025 0.19080937 0.36279193
0.15719783 0.34495655 -0.13237797 -0.45577052 -0.5115191 -0.064618975 -0.2019668 -0.18734273
0.23313868 -0.15766174 0.27422702 0.14731777 -0.4407938 -0.14908922 0.10938622 -0.14098363
0.27673715 0.022041151 0.20394437 -0.15412414 -0.061680406 -0.07033288 0.35886836 0.0220967
-0.20275211 0.01775853 0.25699016 0.14667408 0.010201136 -0.38991457 0.121353 0.17565206
-0.12603801 -0.027562683 -0.13332051 -0.25089723 0.29115602 0.2657661 -0.187974 -0.16493222
-0.018139154 -0.07864278 -0.10693878 0.39375922 -0.54889023 0.05054832 0.22376494 0.28687584
-0.13721724 -0.5511019 0.36615124 0.122828916 0.17329438 -0.077652276 -0.064983144 0.19738917
-0.06905161 -0.09203234 -0.31856337 -0.11782995 -0.09468441 0.04228705 -0.09848523 -0.2852386
-0.15481499 -0.15199015 0.17869511 0.17768164 -0.30146092 0.1689006 -0.0910421 0.009114923
0.20825411 0.12290617 -0.30445352 -0.16825572 0.3190016 0.11065098 0.08759163 -0.03547596
00000000: ba83 243d bbef 793e 112c ccbd 9e2d 7f3e
00000010: 59f5 a93e 80d4 4dbe e378 a93c e8f4 a5be
00000020: 6a02 6fbe 4902 843e 91c3 bb3c 4de4 b13e
00000030: b195 0d3e 5405 6b3d 7cd4 edbd 3d67 a4bd
00000040: 2490 ce3e a14a 71bd 229f ddbe d077 5f3d
00000050: b268 803e df68 b1bd 2e2d 38be 5d6d e53d
00000060: fb03 473e 7947 5e3d 92a4 d83d 34c0 dcbe
00000070: 26e4 ee3e 6025 d5bd c42e 71be ac07 c03e
00000080: d114 71be 7b09 f53e c6ce a73e 1ec1 b7be
00000090: 7048 b93e fde8 bd3e dc34 30bd be61 da3d
000000a0: 5457 ec3d bd6f 033f b9aa 053d 887f 9a3d
000000b0: c04b 0bbe 2c61 2c3e f311 d33d 68d9 673e
000000c0: e787 5b3e 9bf0 fd3c dae6 d73e 2e9e 0d3d
000000d0: 97af fd3e 4368 4f3d 0f7d 00be e32b 97bd
000000e0: 7201 debe 2129 253e b441 cbbd 982c 993c
000000f0: 5e5d 1abe 75c0 493e 48bc 91be 03b3 2dbd
00000100: 4eb2 f3bd 0ef1 2abe 436e 8c3e 83f5 2bbe
00000110: 30bf 44be b60c 1c3d cb7b 9ebd 2561 49be
00000120: af57 ddbd 1820 d83e 23cf a0be b762 bc3d
00000130: 52ad 8c3e 2357 493e 7c22 983d 7f41 dabd
00000140: 4ba9 863d ef43 863e d238 0f3e 345e f3bc
00000150: 2734 bdbe 544c 51be 871f cf3e e508 033e
00000160: 916d dbbc fb00 30be e0ca ca3e 4865 8c3e
00000170: 921d 1cbd fd7b a6be 303d febd be56 433e
00000180: a13c eebd 432b 6abd db26 0fbe c0b6 4abe
00000190: 9df5 9d3e 97d3 54be faa5 84be 5d1e d93e
000001a0: 4650 9b3d e7d6 02be 712e 143e c47d 23bd
000001b0: c086 0abf 6d5a 53be 9256 58bd 8104 1dbe
000001c0: 8f92 813e 9817 e6ba 0413 443d 0ef9 193f
000001d0: 76f2 523e 5922 ffbb 4374 44bf f17d 23bc
000001e0: a7a5 d3bd edc4 a33e 4809 8c3d 74b6 c13e
000001f0: e09d 913e 66b8 5cbe 5915 86be ba6e 163e
00000200: f87e cbbe ba35 2dbd da77 593e 3350 88bd
00000210: 572f 183e 0d99 b93e 15ee aebe a00d c23d
00000220: ffb4 51be 47e1 8b3e 44a9 393c 47e7 c5be
00000230: d98d d9bd 77ce c0bc 1f67 153e 99ba d73e
00000240: 8fd9 713e 8c16 203e ec12 f03b 1f4a e4bd
00000250: ef41 22bd 4b85 023e 11dd 293e 9780 4e3e
00000260: 65b7 bcbe ead7 573f 8ef6 263e 6bc5 d63e
00000270: f2f5 773c b4d6 b43c b815 163f deb0 61be
00000280: 8d9d 223e ca34 d73e f90d a23e 2b9d 253e
00000290: 2da4 9c3e 7311 883e b293 c63e 128c 8dbe
000002a0: 210c f2bd d858 c03e 0d9e 4fbe c598 c93d
000002b0: 6505 afbe 89ec 853e 8863 433e ddbf b93e
000002c0: 78f8 203e 259e b03e 178e 07be c15a e9be
000002d0: eaf2 02bf f456 84bd 63d0 4ebe c6d6 3fbe
000002e0: e8bb 6e3e 1472 21be 7c67 8c3e 78da 163e
000002f0: baaf e1be d8aa 18be e205 e03d 035e 10be
00000300: 7eb0 8d3e a58f b43c cbd6 503e b8d2 1dbe
00000310: 98a4 7cbd af0a 90bd 98bd b73e 2304 b53c
00000320: 409e 4fbe 567a 913c 3794 833e bb31 163e
00000330: aa22 273c e2a2 c7be ec87 f83d 22de 333e
00000340: 1c10 01be 23cb e1bc 2c85 08be 9a75 80be
00000350: 6712 953e 7f12 883e 427c 40be fee3 28be
00000360: 9098 94bc 770f a1bd b802 dbbd cf9a c93e
00000370: 1284 0cbf c10b 4f3d a322 653e 64e1 923e
00000380: ad82 0cbe 0415 0dbf 2d78 bb3e ba8d fb3d
00000390: 1574 313e 2808 9fbd e215 85bd 6320 4a3e
000003a0: ee6a 8dbd 747b bcbd bd1a a3be d450 f1bd
000003b0: e6e9 c1bd 3035 2d3d a0b2 c9bd cb0a 92be
000003c0: d287 1ebe 4ea3 1bbe dafb 363e 2df2 353e
000003d0: 1659 9abe 47f4 2c3e 4874 babd c256 153c
000003e0: 9140 553e 3bb6 fb3d 55e1 9bbe 3a4b 2cbe
000003f0: 2d54 a33e fb9c e23d 3e63 b33d 3d4f 11bd

actor.0.bias f4 [64]
-0.3711819 0.12206328 -0.5334855 -1.5927651 1.250918 0.54879826 -0.86606884 -0.65797514
-0.7001237 0.8438345 -0.45739076 -0.58695346 0.8498036 -0.40598875 0.55363697 -1.4569552
0.34742534 1.0811006 -0.474889 0.67514163 0.87574106 0.69419247 -0.6627279 1.7747427
0.98751247 0.10902137 -0.13163269 0.5208853 -0.7762181 0.20127946 0.9987724 1.375281
0.98074573 0.4410359 -0.7951936 0.8595212 -0.19076005 0.29980227 0.54451793 0.5088923
0.71307343 0.38025165 0.5120221 0.16416176 0.43654865 0.5005444 -0.4250641 0.78452224
-0.69063526 0.3771973 0.40845913 -0.5183551 0.08233243 -0.45947737 -0.5230058 0.3700456
-0.62468714 0.39061695 -0.6387765 -0.25259104 -0.7154178 0.70729333 0.71632344 0.07748406
00000000: 8e0b bebe 50fc f93d 8192 08bf badf cbbf
00000010: 151e a03f 0b7e 0c3f b0b6 5dbf 0f71 28bf
00000020: 4f3b 33bf 8a05 583f 1f2f eabe 9542 16bf
00000030: bb8c 593f c2dd cfbe 27bb 0d3f 827d babf
00000040: bce1 b13e 8161 8a3f a724 f3be 15d6 2c3f
00000050: 9130 603f 99b6 313f 89a8 29bf c52a e33f
00000060: 9ecd 7c3f 9946 df3d b8ca 06be bd58 053f
00000070: 3bb6 46bf 341c 4e3e 8caf 7f3f 3509 b03f
00000080: 2712 7b3f 75cf e13e cf91 4bbf 9509 5c3f
00000090: 9a56 43be af7f 993e 8765 0b3f c446 023f
000000a0: fb8b 363f 58b0 c23e e113 033f 051a 283e
000000b0: 4e83 df3e ae23 003f 00a2 d9be 73d6 483f
000000c0: 79cd 30bf 0120 c13e 8e21 d13e ebb2 04bf
000000d0: e89d a83d 9e40 ebbe b5e3 05bf 9e76 bd3e
000000e0: 7feb 1fbf f2fe c73e db86 23bf 9d53 81be
000000f0: 9f25 37bf 2d11 353f f960 373f f6af 9e3d

actor.2.weight f4 [64, 64]
-0.012721878 -0.1420403 -0.0728068 -0.10496003 -0.050938595 0.16178575 -0.08306189 0.008769797
0.05642081 -0.069532566 0.20993255 0.10731093 -0.24998137 0.061998874 0.20360538 0.15014161
0.017288508 0.040923417 -0.053475514 -0.20968463 0.19662285 -0.060822666 -0.21062131 -0.10016106
0.18032388 -0.14051518 0.21789226 -0.007562709 0.16361919 0.13648583 -0.020020278 -0.026421849
0.024821362 -0.040265933 -0.20018746 -0.20436679 0.18667066 -0.105911866 -0.053366985 0.24107595
0.1471772 -0.06547472 0.042614385 0.054596707 -0.12724851 -0.017824648 0.04565879 -0.005887255
0.17777455 -0.01959683 -0.1401231 0.084192835 0.06183759 0.00090096507 0.30616426 -0.14624289
0.3586535 0.02196722 0.067521244 -0.16342211 -0.2522617 -0.21795285 -0.17884226 0.1972314
-0.1424534 0.096120276 0.29337466 0.018657265 0.10788332 0.12316037 -0.087387614 0.12802759
-0.07457633 0.10162937 0.15195614 -0.16683505 0.1083122 -0.36055398 -0.011963752 0.24821962
0.020131323 0.14271927 -0.14444903 0.06023054 -0.04407413 -0.0909297 -0.0069611724 0.13852823
-0.030648392 -0.051103976 0.124255836 -0.0765217 -0.16002539 -0.12813716 -0.06668288 -0.19248272
0.12694338 0.21689382 -0.068655126 0.0414434 -0.17933972 0.034141142 -0.29175496 0.061856642
0.17767465 0.12643324 0.10061404 0.0704473 0.12541205 0.13000506 -0.11933001 0.01276877
-0.060176436 -0.17416202 -0.031985287 0.07122829 0.067939505 0.03282001 0.06399546 -0.071762085
0.39584833 -0.21289702 0.03541626 -0.17831734 -0.124816045 -0.068870984 0.4680697 -0.137452
0.18862455 -0.061604086 0.18603401 -0.01631638 0.15578058 0.09018712 -0.1754336 0.050971042
0.32651883 -0.038816024 0.16170552 0.1672321 0.020151973 -0.32348797 0.11177498 0.010534092
0.07866397 0.023818525 0.11886284 -0.081134565 0.019048229 0.081874155 -0.11686496 0.05544159
-0.3523203 0.1292107 -0.095329285 -0.31657004 0.007182902 -0.04641873 -0.058104154 -0.08019994
-0.008099659 -0.20390946 0.1779024 -0.035778508 -0.103875466 0.011332649 -0.00184384 0.06759049
-0.0031044963 -0.074145675 -0.1536901 0.02690715 -0.21416481 0.121362336 0.09157992 0.034663357
-0.071566716 -0.033231027 -0.018771356 0.10135214 -0.2072378 0.15283586 -0.12945923 -0.15258174
-0.121886805 -0.18965863 0.07619652 0.07622207 -0.06465398 0.095249414 -0.07515415 -0.049981017
0.16152252 0.37018257 0.014185201 0.022735497 -0.04730215 0.10300724 -0.16700976 0.055048782
0.05465977 0.005294815 -0.181065 -0.13633259 -0.07379961 -0.10135948 0.016260047 0.04378405
-0.063135706 -0.05452096 0.25534478 -0.23967157 -0.034809854 0.049360696 -0.29288912 -0.023984857
-0.14393206 0.23276271 0.0060578645 -0.09955246 0.12180361 0.052532654 0.0163163 0.24519213
-0.0969907 0.13859281 0.19824259 -0.14799291 0.06351785 -0.005720003 0.07747437 0.074662246
-0.09096547 -0.15226081 -0.034510992 -0.1642257 0.23983261 0.039083663 0.04981487 -0.14224014
-0.1449824 -0.03281357 0.0385961 -0.111975655 -0.14173001 0.10444804 0.06823798 0.054258026
-0.10575713 0.115595914 0.20227818 -0.035551473 0.1976396 -0.048159245 0.23727576 0.050817624
00000000: 6c6f 50bc 0373 11be bb1b 95bd 49f5 d6bd
00000010: fda4 50bd 2aab 253e 5a1c aabd 32af 0f3c
00000020: 8219 673d 1767 8ebd 8ff8 563e d5c5 db3d
00000030: 1efb 7fbe 88f2 7d3d ee7d 503e b9be 193e
00000040: a1a0 8d3c 509f 273d 2409 5bbd 91b7 56be
00000050: 8057 493e 3021 79bd 1dad 57be 3e21 cdbd
00000060: d3a6 383e 36e3 0fbe 261f 5f3e 9ad0 f7bb
00000070: ca8b 273e f1c2 0b3e 9101 a4bc a272 d8bc
00000080: 2b56 cb3c e4ed 24bd f1fd 4cbe 8745 51be
00000090: 9826 3f3e 52e8 d8bd 5797 5abd 9ddc 763e
000000a0: 9fb5 163e 9c17 86bd 6c8c 2e3d cca0 5f3d
000000b0: 6f4d 02be ff04 92bc b604 3b3d e0e9 c0bb
000000c0: 880a 363e 8889 a0bc 6e7c 0fbe 4b6d ac3d
000000d0: 6a49 7d3d be2e 6c3a 90c1 9c3e b2c0 15be
000000e0: 6ea1 b73e 99f4 b33c 9448 8a3d 2058 27be
000000f0: 7228 81be 082f 5fbe 6d22 37be 07f7 493e
00000100: 4edf 11be b5da c43d 3435 963e 1fd7 983c
00000110: eef1 dc3d 813b fc3d 47f8 b2bd aa19 033e
00000120: 7abb 98bd 0f23 d03d 649a 1b3e cfd6 2abe
00000130: c9d2 dd3d 889a b8be 9d03 44bc 492d 7e3e
00000140: 72ea a43c 0025 123e 72ea 13be 4cb4 763d
00000150: 1387 34bd 5a39 babd 8c1a e4bb 58da 0d3e
00000160: 5612 fbbc 6752 51bd d879 fe3d 69b7 9cbd
00000170: b2dd 23be 6336 03be 0991 88bd 311a 45be
00000180: 72fd 013e 6a19 5e3e 0f9b 8cbd 8ec0 293d
00000190: d5a4 37be 95d7 0b3d e860 95be 645d 7d3d
000001a0: 58f0 353e b777 013e bc0e ce3d ad46 903d
000001b0: 046c 003e 0c20 053e 4b63 f4bd 1a34 513c
000001c0: 917b 76bd 8757 32be 0103 03bd 23e0 913d
000001d0: de23 8b3d 466e 063d 0d10 833d 00f8 92bd
000001e0: a2ac ca3e ad01 5abe a410 113d d298 36be
000001f0: 8e9f ffbd 3b0c 8dbd d5a6 ef3e 38c0 0cbe
00000200: cb26 413e 9154 7cbd b37f 3e3e eea9 85bc
00000210: f284 1f3e 06b4 b83d dea4 33be 03c7 503d
00000220: 7a2d a73e 8dfd 1ebd 2296 253e e43e 2b3e
00000230: c015 a53c 37a0 a5be 48ea e43d 2f97 2c3c
00000240: 931a a13d 111f c33c 5c6e f33d e129 a6bd
00000250: 080b 9c3c a3ad a73d e556 efbd b816 633d
00000260: 5463 b4be cf4f 043e 003c c3bd 7815 a2be
00000270: 8d5e eb3b 9121 3ebd 9ffe 6dbd de3f a4bd
00000280: 6fb4 04bc a4cd 50be 0c2c 363e 7c8c 12bd
00000290: a9bc d4bd 93ac 393c 01ad f1ba e26c 8a3d
000002a0: ce74 4bbb b0d9 97bd f060 1dbe 626c dc3c
000002b0: 054e 5bbe d18c f83d 418e bb3d 2afb 0d3d
000002c0: 9291 92bd 421d 08bd 63c6 99bc b691 cf3d
000002d0: 2536 54be 0181 1c3e f690 04be 633e 1cbe
000002e0: ca9f f9bd df35 42be ec0c 9c3d 511a 9c3d
000002f0: 4e69 84bd 2012 c33d 6bea 99bd e5b8 4cbd
00000300: 2966 253e 9288 bd3e 0c69 683c cb3f ba3c
00000310: e6bf 41bd 76f5 d23d 9b04 2bbe d57a 613d
00000320: ece2 5f3d 2180 ad3b 1a69 39be c59a 0bbe
00000330: 4024 97bd 8f95 cfbd ca33 853c e756 333d
00000340: 4b4d 81bd 5f51 5fbd 8dbc 823e 776c 75be
00000350: c794 0ebd 712e 4a3d 90f5 95be e47b c4bc
00000360: ed62 13be 5959 6e3e 0d81 c63b 29e2 cbbd
00000370: 2c74 f93d 7b2c 573d c3a9 853c a513 7b3e
00000380: 0fa3 c6bd 46eb 0d3e 1b00 4b3e 748b 17be
00000390: a615 823d dd6e bbbb e2aa 9e3d 85e8 983d
000003a0: 1b4c babd 42ea 1bbe 665b 0dbd c82a 28be
000003b0: ae96 753e 3116 203d ad0a 4c3d 66a7 11be
000003c0: 4476 14be 8667 06bd f216 1e3d 7e53 e5bd
000003d0: ac21 11be dbe8 d53d 5bc0 8b3d aa3d 5e3d
000003e0: 3297 d8bd 8dbd ec3d 0322 4f3e 6c9e 11bd
000003f0: 0962 4a3e a142 45bd 6bf8 723e 2426 503d

actor.2.bias f4 [64]
0.16019164 -0.059611853 -0.1590517 -0.0022453212 -0.07898072 0.05948979 0.045603864 0.011116801
0.2095457 -0.012110503 0.06576614 0.047079884 -0.022939425 -0.096899986 0.019690143 -0.052948628
0.09346761 0.038104672 -0.19536452 -0.16553017 0.0030839618 0.11261536 0.086676665 0.03842612
0.054311868 0.085274294 -0.20732102 0.008331877 0.09645836 -0.097933695 -0.049126733 0.13279614
0.17035188 0.08550165 0.13532357 -0.0066169696 -0.007486912 0.03731517 0.2025105 0.026799684
-0.043575857 0.14432715 -0.21313258 -0.104884274 -0.09417143 -0.26013833 0.04211889 0.05872545
-0.088097714 0.003990408 -0.05640023 0.074488215 0.042548317 0.044338614 0.13929392 -0.08115721
-0.2452321 0.049479276 -0.052252114 0.026166586 0.19296952 0.06963932 0.083713986 -0.010000721
00000000: 4709 243e 8f2b 74bd 73de 22be 3d26 13bb
00000010: a5c0 a1bd 91ab 733d 1ecb 3a3d 3e23 363c
00000020: 2693 563e 226b 46bc 66b0 863d d6d6 403d
00000030: 76eb bbbc 8073 c6bd 394d a13c a9e0 58bd
00000040: f26b bf3d a513 1c3d a30d 48be be80 29be
00000050: 4b1c 4a3b e2a2 e63d 8983 b13d b564 1d3d
00000060: 1f76 5e3d 4aa4 ae3d f64b 54be 6d82 083c
00000070: f68b c53d 7691 c8bd 1d39 49bd b6fb 073e
00000080: b970 2e3e 7d1b af3d 4392 0a3e 2ad3 d8bb
00000090: c554 f5bb cbd7 183d ea5e 4f3e 038b db3c
000000a0: 997c 32bd 7fca 133e 6d3f 5abe 91cd d6bd
000000b0: f3dc c0bd da30 85be db84 2c3d 198a 703d
000000c0: 936c b4bd f8c1 823b ed03 67bd 478d 983d
000000d0: 2547 2e3d 689c 353d 11a3 0e3e c035 a6bd
000000e0: 201e 7bbe c8aa 4a3d 5006 56bd 4f5b d63c
000000f0: cd99 453e 0f9f 8e3d 3d72 ab3d 10da 23bc

actor.4.weight f4 [122, 64]
-1.1941763 -0.5266124 -0.3808673 -0.39893287 0.47280407 -1.21217 1.3673655 0.542226
-0.1713104 0.04944381 0.7433264 0.15319115 0.6844286 0.30875385 0.34370074 -0.2103857
0.35147554 -0.21156304 0.5496249 0.049007248 0.6055805 -1.558444 -0.4336145 -0.059966158
-0.61024296 -0.021414848 0.76119745 0.41178486 0.3198886 0.0344154 1.0749072 0.70381427
-0.99529284 0.22484036 -0.3895731 -0.73208714 0.6119046 -0.70823014 -1.3180231 0.91588706
0.5691282 -0.30810684 1.7216687 0.47276002 0.5513356 1.6224259 0.7762072 -0.9216597
1.3250201 0.39264634 0.1410356 -0.7768937 0.31566986 -0.01239079 0.29123688 0.29341096
1.438582 -0.36564273 0.40857324 -0.19185986 0.11167811 -0.13314824 -0.4304186 -0.31640595
-0.19431818 -0.6444364 0.058805026 0.08952045 0.40519285 -0.69000506 0.28673717 -0.12879571
-0.40546772 -0.41129908 0.45955923 -0.19925055 0.41545573 -0.01990461 -0.24702115 -0.63841033
0.13309479 0.49292758 0.25962618 0.06326745 0.55367583 -0.5991005 -0.06822087 -0.4807785
-0.38005915 -0.01618307 0.11377167 0.11921355 -0.1464587 0.027841633 0.34796792 -0.025713246
-0.32694283 -0.14544858 0.018136099 0.16452911 0.29214075 -0.09683926 -0.6270293 0.41217113
0.21126898 -0.07849483 0.46945906 -0.117678136 0.30455825 0.46344122 0.019974736 -0.1983497
0.10141787 0.06371252 0.18243448 -0.23966095 -0.009418899 -0.00970024 -0.010928571 -0.04678257
0.6767136 -0.29885748 -0.018684963 -0.09501852 0.03490471 -0.1310839 -0.024951382 -0.003428549
-1.09049 -0.41267964 -0.27699453 -0.408047 0.5927943 -1.3201294 1.5949786 0.4494957
-0.05401397 0.03239788 0.88245237 0.062364165 0.55020624 0.17337316 0.31098297 -0.054796617
0.30808833 -0.10824089 0.6477588 0.036140945 0.5640569 -1.6143218 -0.30720076 -0.005386267
-0.48156574 -0.25022718 0.91105634 0.33688655 0.2923075 0.015360021 0.9050007 0.8129962
-1.0230775 0.1884646 -0.45670706 -0.6045322 0.7224869 -0.7646008 -1.3178725 0.96308243
0.48724893 -0.43321615 1.7209442 0.5963892 0.70974386 1.6192243 0.91806835 -0.85937184
1.4841862 0.57619286 0.12500899 -0.84215444 0.32405072 0.025966624 0.30007422 0.2053498
1.527717 -0.28589025 0.39613312 -0.2491453 0.042714793 -0.20334263 -0.47547993 -0.18246105
-0.61633253 -0.48891187 -0.006060827 -0.19038382 0.50570846 -1.2583287 0.63002956 0.08233859
-0.19486527 -0.10138039 0.4975468 0.12914507 0.78739136 0.45663956 0.15458499 -0.57873774
0.20041575 0.12941138 0.5901867 0.15359429 0.5198082 -0.85934216 -0.053303167 -0.27751336
-0.26068136 0.24607556 0.584417 0.5244123 0.03161315 0.01169875 1.2182293 0.32949597
-0.8443811 -0.05799256 -0.008856207 -0.4016882 0.6899152 -0.19191803 -1.2837453 1.2490242
0.28692862 -0.4705116 1.0039635 -0.0031004273 0.33717152 1.1171428 0.5990188 -1.0840292
0.63130414 -0.018907797 0.2701531 -0.5757841 0.30963442 0.35647017 -0.02449534 0.08470129
1.1514012 -0.52880037 0.03277132 0.18960863 0.06916584 0.18696988 -0.4500661 -0.3077373
00000000: c5da 98bf 12d0 06bf 0a01 c3be ee40 ccbe
00000010: 6013 f23e 6328 9bbf d505 af3f 53cf 0a3f
00000020: fe6b 2fbe 9885 4a3d a44a 3e3f 24de 1c3e
00000030: b636 2f3f fc14 9e3e 8bf9 af3e 596f 57be
00000040: 9af4 b33e fba3 58be 38b4 0c3f d3bb 483d
00000050: 5307 1b3f 187b c7bf b802 debe 139f 75bd
00000060: e238 1cbf 316e afbc d6dd 423f 77d5 d23e
00000070: 70c8 a33e 2af7 0c3d 8f96 893f 2c2d 343f
00000080: 83cb 7ebf 8d3c 663e 2076 c7be 106a 3bbf
00000090: c8a5 1c3f 924e 35bf fbb4 a8bf 9377 6a3f
000000a0: 63b2 113f 2ec0 9dbe a45f dc3f 9a0d f23e
000000b0: 5424 0d3f a7ab cf3f 84b5 463f e4f1 6bbf
000000c0: 429a a93f f108 c93e a36b 103e 81e2 46bf
000000d0: 7b9f a13e bd02 4bbc 001d 953e f639 963e
000000e0: 7423 b83f 8635 bbbe 8330 d13e e976 44be
000000f0: 7eb7 e43d 0358 08be d45f dcbe f6ff a1be
00000100: 58fb 46be c9f9 24bf 8add 703d 7f56 b73d
00000110: 7075 cf3e 2ca4 30bf 37cf 923e 06e3 03be
00000120: 7799 cfbe cb95 d2be 594b eb3e 5608 4cbe
00000130: 9db6 d43e fe0e a3bc 1df3 7cbe dc6e 23bf
00000140: 004a 083e 0161 fc3e b9ed 843e 5d92 813d
00000150: b3bd 0d3f a65e 19bf 62b7 8bbd 9928 f6be
00000160: 1d97 c2be 5c92 84bc 1f01 e93d 3c26 f43d
00000170: 45f9 15be 2314 e43c da28 b23e 96a4 d2bc
00000180: 0d65 a7be 79f0 14be 2892 943c 527a 283e
00000190: 7993 953e a953 c6bd fe84 20bf 1808 d33e
000001a0: e556 583e e6c1 a0bd f05c f03e 3c01 f1bd
000001b0: 0fef 9b3e 2b48 ed3e 0fa2 a33c 2f1c 4bbe
000001c0: 2cb4 cf3d b67b 823d 1bd0 3a3e ae69 75be
000001d0: ba51 1abc c1ed 1ebc c00d 33bc 159f 3fbd
000001e0: 1a3d 2d3f d903 99be 3511 99bc 1299 c2bd
000001f0: 3ef8 0e3d dc3a 06be d766 ccbc 82b1 60bb
00000200: 2d95 8bbf bf4a d3be 3ad2 8dbe 89eb d0be
00000210: 5ec1 173f 00fa a8bf 4228 cc3f 4d24 e63e
00000220: c13d 5dbd a4b3 043d 66e8 613f 9171 7f3d
00000230: 51da 0c3f bc88 313e 2939 9f3e 6b72 60bd
00000240: c1bd 9d3e 66ad ddbd 85d3 253f 8708 143d
00000250: 0866 103f 19a2 cebf 6b49 9dbe 487f b0bb
00000260: c98f f6be c71d 80be fd3a 693f 657c ac3e
00000270: 54a9 953e 99a8 7b3c 20ae 673f 8520 503f
00000280: 34f4 82bf ddfc 403e 82d5 e9be 9fc2 1abf
00000290: e7f4 383f e1bc 43bf 0cb0 a8bf 928c 763f
000002a0: b178 f93e 82ce ddbe e647 dc3f f6ac 183f
000002b0: c6b1 353f be42 cf3f 8706 6b3f cbff 5bbf
000002c0: d0f9 bd3f 6081 133f 5b02 003e 6f97 57bf
000002d0: fae9 a53e f5b7 d43c 54a3 993e 3847 523e
000002e0: 3b8c c33f 3560 92be f6d1 ca3e f21f 7fbe
000002f0: b5f5 2e3d 0d39 50be 1b72 f3be 12d7 3abe
00000300: f8c7 1dbf a852 fabe e799 c6bb faf3 42be
00000310: 1c76 013f ea10 a1bf 9e49 213f 22a1 a83d
00000320: c38a 47be 86a0 cfbd 74be fe3e 9b3e 043e
00000330: 7b92 493f a9cc e93e 874b 1e3e 2828 14bf
00000340: c939 4d3e 6b84 043e 7a16 173f d247 1d3e
00000350: 2612 053f d9fd 5bbf 6c54 5abd 3b16 8ebe
00000360: 0778 85be 3bfb 7b3e 5a9c 153f e23f 063f
00000370: ca7c 013d 1dac 3f3c f0ee 9b3f b2b3 a83e
00000380: 5c29 58bf 9b89 6dbd a019 11bc 13aa cdbe
00000390: 489e 303f 2986 44be c451 a4bf 06e0 9f3f
000003a0: 4fe8 923e e5e6 f0be e081 803f 8a30 4bbb
000003b0: bfa1 ac3e 89fe 8e3f 4c59 193f 78c1 8abf
000003c0: 269d 213f 86e4 9abc 8251 8a3e 9666 13bf
000003d0: 6788 9e3e 4283 b63e 74aa c8bc df77 ad3d
000003e0: 1d61 933f 765f 07bf 383b 063d c428 423e
000003f0: d2a6 8d3d 0875 3f3e 106f e6be be8f 9dbe

actor.4.bias f4 [122]
-2.1464992 -0.6120909 -2.1265495 -1.2062222 0.36804557 -2.096381 -1.1567794 0.24035415
-2.1008554 -1.7224094 0.2636255 -1.8475668 -1.5120926 -0.80051893 -1.3752671 -1.5885323
-0.97842586 0.2243322 -1.6889826 -0.22547467 0.08682901 -1.682775 0.18837506 -1.9338448
-2.514036 -1.778966 0.26069656 0.16699459 0.1764647 0.10861212 0.18562576 0.17616506
-1.8248498 0.1301858 -1.8061638 -2.4329538 0.17875761 0.14655776 -0.33993083 0.15418413
0.26604056 -1.7809616 0.28444177 -0.45473048 -1.4558893 -0.6208569 0.21722019 -2.3414755
0.28736797 0.20101824 0.19961655 -1.8124468 0.20322013 0.3150748 -0.32125184 0.07016694
-1.2924751 0.25520712 0.27269632 -2.2721555 -1.836911 0.097753316 0.047919787 0.33317044
-0.086975716 -0.46505082 -0.03273273 -2.1090083 0.40138233 0.15593886 -0.3457461 -1.0533754
0.17840405 -0.017767658 -0.46172512 -1.5008016 -1.5053787 -1.3009359 -0.82625234 0.19023895
-2.1669347 0.31153184 -0.026124524 0.30224836 -0.0890277 -1.4419303 0.23509532 -0.24113253
0.10065462 0.12710857 0.11560779 0.1752277 -0.6322431 0.13471274 0.038077686 0.3284916
-1.411237 0.108777225 0.20576495 -1.5759493 0.081954375 -2.1231167 -1.9279171 -1.4403702
0.036777668 -0.015592976 0.13379589 0.16699238 -1.0065444 -1.7570016 -1.8283234 0.19345498
0.22156702 -0.84603804 -0.35935336 0.040230975 0.13355751 0.246732 -1.5886627 -0.5107289
-1.6180406 -2.5144248
00000000: 3e60 09c0 fdb1 1cbf 6319 08c0 7d65 9abf
00000010: 7870 bc3e 1b2b 06c0 5911 94bf 661f 763e
00000020: 6a74 06c0 e977 dcbf ecf9 863e 127d ecbf
00000030: 408c c1bf cfee 4cbf c108 b0bf 0755 cbbf
00000040: 1e7a 7abf 57b7 653e 9530 d8bf d5e2 66be
00000050: 68d3 b13d 2c65 d7bf 64e5 403e 3a88 f7bf
00000060: f7e5 20c0 28b5 e3bf 057a 853e a100 2b3e
00000070: 2ab3 343e 0870 de3d ae14 3e3e 9d64 343e
00000080: ae94 e9bf 6d4f 053e 6030 e7bf 84b5 1bc0
00000090: 3c0c 373e 3d13 163e 6a0b aebe 72e2 1d3e
000000a0: 7836 883e 8df6 e3bf 5aa2 913e 6fd2 e8be
000000b0: 955a babf 7af0 1ebf f86e 5e3e bcda 15c0
000000c0: e521 933e bad7 4d3e 4868 4c3e 42fe e7bf
000000d0: f018 503e 7c51 a13e 1f7b a4be afb3 8f3d
000000e0: d36f a5bf 82aa 823e da9e 8b3e ff6a 11c0
000000f0: e61f ebbf e432 c83d 8a47 443d 5195 aa3e
00000100: 5320 b2bd 241b eebe c112 06bd fef9 06c0
00000110: fc81 cd3e 70ae 1f3e a205 b1be 01d5 86bf
00000120: 8daf 363e 7b8d 91bc 3c67 ecbe 441a c0bf
00000130: 40b0 c0bf 1185 a6bf 4685 53bf 00ce 423e
00000140: 0faf 0ac0 1a81 9f3e 1903 d6bc 4cc0 9a3e
00000150: 2854 b6bd 2c91 b8bf d4bc 703e 72eb 76be
00000160: 0224 ce3d c028 023e c7c3 ec3d e46e 333e
00000170: afda 21bf 23f2 093e 59f7 1b3d 0d30 a83e
00000180: 6aa3 b4bf 98c6 de3d 0cb4 523e b5b8 c9bf
00000190: b2d7 a73d 25e1 07c0 fdc5 f6bf 0d5e b8bf
000001a0: 2ea4 163d ae79 7fbc ca01 093e 0d00 2b3e
000001b0: 72d6 80bf 6ee5 e0bf 8006 eabf 1019 463e
000001c0: 77e2 623e f395 58bf 2afd b7be 3cc9 243d
000001d0: 4dc3 083e 50a7 7c3e 4d59 cbbf 21bf 02bf
000001e0: f41b cfbf 56ec 20c0

critic.0.weight f4 [64, 121]
-0.0043079033 0.022218613 -0.16919318 0.22585633 -0.20490722 0.05621578 -0.123859674 -0.4253157
0.3168997 -0.050734773 -0.8699235 0.20244963 -0.095197774 0.45862198 0.05869599 0.6038767
0.057919584 -0.10809972 -0.14943397 0.40911618 -0.3447137 -0.01606266 -0.2340561 -0.21929945
0.33696428 -0.015602616 -0.071810804 -0.04496369 -0.20469028 -0.57085896 0.29172745 0.18516028
-0.3971624 0.26694775 -0.12553924 0.18117332 -0.15021819 -0.2815631 -0.14237276 0.24971768
0.08000531 0.19572356 0.27806523 -0.24863482 -0.38142368 0.30547747 -0.16344781 0.22591409
0.11318295 -0.20467342 -0.0042822696 0.14905453 -0.7782166 0.018411322 -0.12887636 0.054423865
-0.022460835 -0.4279123 0.09886521 0.2114516 0.3887519 0.10853125 0.018911747 0.1880404
0.39143604 0.07784214 0.12538084 0.13890626 -0.21876386 0.1452748 0.083027154 -0.008424591
-0.10645058 -0.30488628 -0.43386117 0.377182 -0.50462526 -0.13004667 -0.0060664993 0.017567707
-0.1920791 0.43212268 0.23073342 -0.30792582 0.09687331 0.052369967 -0.4246161 0.124987446
-0.30180797 -0.2035664 -0.03038495 -0.14329717 -0.2046999 -0.21249124 0.058701187 -0.24200693
0.22833863 -0.1635286 -0.27030218 0.8609118 0.07386496 -0.0022142755 0.06011889 -0.11996211
-0.1880394 -0.10453577 0.2390459 0.14239855 -0.3347445 0.1837881 -0.3651588 -0.37669677
0.0266674 -0.057296887 -0.21470402 -0.37614554 -0.016329335 -0.34131253 0.04093577 0.09831711
-0.14066178 0.3749568 0.46162575 -0.12542087 0.59469706 0.14937212 -0.11012323 -0.17805566
0.089117 0.186337 -0.054067124 0.21696591 -0.356033 -0.09677603 -0.16697228 0.2587923
0.6828736 0.48147392 0.18723224 -0.18411982 0.65969664 0.29769278 0.59531736 -0.023255724
0.8412442 0.4275121 0.09997089 1.0838383 0.16422544 0.14864482 -0.14399557 0.67151755
0.21309625 0.44588158 0.2781672 0.38370964 0.094293445 -0.23032105 0.21287747 0.37879744
-0.024856439 0.7523259 0.10117493 -0.77505517 1.1322396 0.21825704 0.9319207 0.10746528
-0.35275686 -0.61970186 0.6016528 0.40597996 0.08669744 -0.47286624 -0.22903429 0.41791326
-0.28084904 0.40581104 -0.060904708 0.06815009 -0.044760667 0.07750019 0.61899155 -0.2734019
0.7499859 0.54514706 0.921364 -0.22078243 0.20608799 0.3822121 0.3461036 1.1347905
0.42487288 0.16399862 1.128661 0.5165891 -0.08973267 0.45509177 -0.012189137 0.59012717
0.8021717 0.3522247 0.17089571 0.23245838 0.67714274 0.51161605 -0.06401663 0.9599685
-0.04487579 0.12663133 -0.36183363 -0.024634693 -0.34123406 0.38397205 0.9907918 0.026987055
0.3911197 -0.13213821 0.2051881 -0.15748672 0.085017525 -0.6142145 -0.06166143 0.32154906
-0.4331095 0.3384992 0.1692544 0.113918595 -0.42836273 0.48162445 0.50204164 0.19211334
0.0798105 -0.20257376 0.3690815 0.5506315 -0.16679269 -0.28016093 0.28975597 -0.07419685
-0.29535592 0.29683667 0.5061394 0.21214497 -0.16970918 0.2955242 -0.052137814 -0.34974495
0.6500555 -0.19705962 0.08035177 0.015821036 0.1347402 0.35807192 0.23659313 0.25780937
00000000: 5029 8dbb cf03 b63c fa40 2dbe e246 673e
00000010: 33d3 51be 8542 663d 24aa fdbd fbc2 d9be
00000020: ad40 a23e 44cf 4fbd 4eb3 5ebf f54e 4f3e
00000030: 0df7 c2bd 80d0 ea3e 356b 703d aa97 1a3f
00000040: 163d 6d3d 6363 ddbd 3805 19be ad77 d13e
00000050: 507e b0be d795 83bc 67ac 6fbe 0990 60be
00000060: 9586 ac3e 1da2 7fbc 8b11 93bd d92b 38bd
00000070: 549a 51be d023 12bf 4d5d 953e a89a 3d3e
00000080: df58 cbbe 60ad 883e 5c8d 00be 8085 393e
00000090: ccd2 19be 0a29 90be 2aca 11be feb5 7f3e
000000a0: d3d9 a33d c26b 483e 915e 8e3e 209a 7ebe
000000b0: f749 c3be 8b67 9c3e dd5e 27be 0656 673e
000000c0: 76cc e73d e995 51be 4852 8cbb c0a1 183e
000000d0: 3439 47bf 57d3 963c 2af8 03be 8feb 5e3d
000000e0: c9ff b7bc 5217 dbbe d879 ca3d c586 583e
000000f0: 7d0a c73e a245 de3d cfec 9a3c aa8d 403e
00000100: 4e6a c83e b36b 9f3d d663 003e 713d 0e3e
00000110: a203 60be ebc2 143e 240a aa3d 4c07 0abc
00000120: c302 dabd 0e1a 9cbe 0d23 debe 001e c13e
00000130: 1f2f 01bf f42a 05be 7cc9 c6bb 27ea 8f3c
00000140: 62b0 44be 2f3f dd3e 6245 6c3e 74a8 9dbe
00000150: 8465 c63d e481 563d 4867 d9be 6bf9 ff3d
00000160: 9386 9abe b673 50be dce9 f8bc 7ebc 12be
00000170: da9c 51be 4e97 59be a870 703d aad0 77be
00000180: 9ad1 693e 0b74 27be 0c65 8abe b764 5c3f
00000190: 8346 973d 611d 11bb 3a3f 763d b2ae f5bd
000001a0: 678d 40be da16 d6bd 73c8 743e edd0 113e
000001b0: a263 abbe f332 3c3e 18f6 babe 66de c0be
000001c0: 9775 da3c 24b0 6abd 5fdb 5bbe 2696 c0be
000001d0: 19c5 85bc 84c0 aebe 44ac 273d 7b5a c93d
000001e0: a409 10be 56fa bf3e 365a ec3e 546e 00be
000001f0: 113e 183f 01f5 183e 4a88 e1bd 3954 36be
00000200: f982 b63d 20cf 3e3e 7d75 5dbd 502c 5e3e
00000210: f549 b6be 8332 c6bd c8fa 2abe 6d80 843e
00000220: ced0 2e3f c083 f63e cfb9 3f3e e889 3cbe
00000230: e1e1 283f 306b 983e b866 183f ca82 bebc
00000240: c85b 573f dee2 da3e 8abd cc3d 37bb 8a3f
00000250: b72a 283e 5936 183e 9373 13be 93e8 2b3f
00000260: e735 5a3e 974a e43e ee6b 8e3e 9775 c43e
00000270: ec1c c13d 48d9 6bbe 8dfc 593e bdf1 c13e
00000280: bb9f cbbc 6e98 403f cd34 cf3d 046a 46bf
00000290: 3aed 903f c67e 5f3e 5b92 6e3f c216 dc3d
000002a0: 8c9c b4be c8a4 1ebf eb05 1a3f 9bdc cf3e
000002b0: 6d8e b13d 861b f2be f787 6abe baf8 d53e
000002c0: 72cb 8fbe 77c6 cf3e 3777 79bd 4692 8b3d
000002d0: f656 37bd 6bb8 9e3d 3b76 1e3f 55fb 8bbe
000002e0: 13ff 3f3f c28e 0b3f 83de 6b3f ca14 62be
000002f0: bb08 533e 4eb1 c33e 7e34 b13e d140 913f
00000300: f088 d93e 41ef 273e f777 903f 2f3f 043f
00000310: c3c5 b7bd ca01 e93e f2b4 47bc 9312 173f
00000320: 205b 4d3f cc56 b43e 49ff 2e3e 9209 6e3e
00000330: 3a59 2d3f 45f9 023f 271b 83bd 7fc0 753f
00000340: adcf 37bd a5ab 013e 4242 b9be b2ce c9bc
00000350: 3bb6 aebe fc97 c43e 88a4 7d3f f513 dd3c
00000360: d740 c83e 3d4f 07be d41c 523e 3344 21be
00000370: ab1d ae3d 293d 1dbf b290 7cbd 14a2 a43e
00000380: 87c0 ddbe c44f ad3e 0751 2d3e 274e e93d
00000390: 5c52 dbbe 7b97 f63e cd85 003f 5cb9 443e
000003a0: b073 a33d 7f6f 4fbe 40f8 bc3e 30f6 0c3f
000003b0: b4cb 2abe 4171 8fbe e55a 943e 85f4 97bd
000003c0: e438 97be fafa 973e 5a92 013f 883c 593e
000003d0: 3ec8 2dbe f34e 973e 768e 55bd c511 b3be
000003e0: 0a6a 263f ffc9 49be 788f a43d 1e9b 813c
000003f0: 56f9 093e 3455 b73e 7845 723e 97ff 833e

critic.0.bias f4 [64]
-1.8514776 -0.23827368 -0.21889241 0.83369595 0.41552714 -0.15362641 0.16693567 -0.46567634
-0.69378465 -1.3343558 -0.7712424 1.0440685 0.64439416 1.2850914 -1.0552384 0.7353584
0.68416435 0.47089484 0.9230653 0.041319072 0.63010365 -1.4231821 0.33700365 -1.025069
-1.1781145 1.0463556 1.0779226 0.9107732 -1.1223931 1.6391228 0.39279246 0.34906375
-0.18457839 -1.8596137 -0.65943813 0.85356665 0.32111984 -1.2612714 -0.92453444 -0.8314377
-0.46047738 -1.0999238 2.1702929 0.6506162 1.2324804 1.2147716 -2.3558888 1.4921782
-0.30091825 0.4289613 -0.7285668 0.73552996 1.1425006 0.97799146 0.29907656 1.0671729
-1.1739799 -0.22273971 -1.0673858 0.58056283 -0.9222597 -1.822722 1.4064415 1.3322781
00000000: 38fd ecbf 04fe 73be 5525 60be 196d 553f
00000010: f9bf d43e 3e50 1dbe 2ff1 2a3e 216d eebe
00000020: df9b 31bf 2ccc aabf 2470 45bf 09a4 853f
00000030: 04f7 243f e07d a43f 0d12 87bf 7340 3c3f
00000040: 6525 2f3f 2119 f13e 024e 6c3f 303e 293d
00000050: 794e 213f d52a b6bf be8b ac3e 7635 83bf
00000060: 75cc 96bf fbee 853f 5ef9 893f 6f28 693f
00000070: 94aa 8fbf c7ce d13f 181c c93e 7cb8 b23e
00000080: 1e02 3dbe d207 eebf f0d0 28bf 5883 5a3f
00000090: d269 a43e 5771 a1bf 4aae 6cbf 1ad9 54bf
000000a0: b1c3 ebbe 4eca 8cbf 14e6 0a40 c98e 263f
000000b0: ebc1 9d3f a37d 9b3f e2c6 16c0 b2ff be3f
000000c0: f511 9abe d1a0 db3e 5b83 3abf b14b 3c3f
000000d0: 763d 923f a65d 7a3f 9020 993e 1f99 883f
000000e0: f944 96bf e115 64be 19a0 88bf c49f 143f
000000f0: 3619 6cbf f44e e9bf 4606 b43f 1788 aa3f

critic.2.weight f4 [64, 64]
-0.12720184 -0.028540054 0.48086664 -0.00798087 0.3836579 -0.6060862 -0.16826989 0.10455364
0.11552846 -0.1350316 0.24307069 0.06358744 0.06683563 -0.26816693 -0.18550767 -0.55536467
0.33437428 -0.4030422 -0.08134939 0.4713503 0.061723072 0.17388494 -0.00078211713 -0.14383315
-0.1353549 0.13201545 0.031560984 -0.2888732 0.35280037 -0.2707805 -0.14271848 -0.27193025
-0.27550474 0.5137204 0.18647867 -0.47381082 -0.047717463 0.15112276 0.3744102 0.3098898
-0.5546856 0.0756809 -0.1096833 -0.059118893 -0.40719733 -0.051980376 0.07691677 0.0065596486
0.10374883 0.077948734 0.34860742 0.48895466 0.17252941 0.15749522 0.041732356 -0.03743114
-0.15681061 -0.368555 -0.047130425 0.26560172 0.23405607 0.9017555 0.050560284 -0.23411338
0.50911427 -0.16552073 0.20939808 -0.05339883 0.54153466 0.4545523 0.28320262 -0.23024233
0.36377606 0.5787791 0.1052026 -0.0857798 -0.51191205 -0.24874957 0.52970725 0.13370886
-0.13789405 -0.33304396 0.23604102 0.045812245 0.24104585 -0.013032632 -0.44890636 0.4152201
0.1094588 -0.11860364 -0.18659891 -1.114135 -0.36227426 -0.21480782 -0.5810287 -0.015549279
0.086247526 0.016349427 -0.107575975 0.07352589 -0.16321631 -0.31326702 0.38333115 0.20799206
0.3082258 0.3459469 -0.13707654 -0.20000653 -0.17937899 -0.36505124 0.078015804 0.048461545
0.0021824837 -0.07199468 -0.024847537 0.10837335 -0.4628397 0.0098131765 -0.21604836 0.22081105
-0.12422374 0.61119723 -0.47223276 -0.56628466 0.3215714 0.14911936 0.109611414 -0.31591436
-0.13074449 -0.22098058 0.16771588 -0.34167027 0.14279471 0.08132076 0.03021438 -0.3511612
0.2188062 -0.019143874 0.14145683 -0.24321252 -0.025307557 0.12306236 0.43560717 -0.20362902
0.18475914 0.18926775 -0.3903514 -0.3667588 0.43438128 0.18977161 -0.1746925 0.33567
0.07607113 -0.025966216 -0.31190237 -0.058830507 0.29752553 -0.17926621 -0.29182184 -0.16384919
-0.24079439 -0.04967876 -0.053122316 -0.03224967 -0.17774642 -0.2227157 0.14804295 0.24044445
0.0705088 0.3718517 -0.31485882 -0.49320862 -0.012791671 -0.459331 0.25209442 -0.079000354
-0.12217737 0.011345005 0.15899894 0.24230413 -0.11482672 -0.36047092 -0.18489875 -0.37169075
0.0573649 0.09192383 -0.10572556 0.06734852 -0.055779673 0.42493832 -0.45624304 -0.020114241
-0.23429555 -0.07076254 0.24436994 -0.08172163 -0.39553565 0.04812528 -0.00074451335 -0.12809856
0.06369108 0.25203532 -0.011197747 -0.19745031 -0.13807888 0.8396584 -0.9304338 0.19311905
0.2891205 0.43318614 0.014044699 0.41553384 -0.26637772 -0.069305025 0.074206725 -0.19766997
-0.13797571 0.3731163 -0.013041831 0.40661028 0.23296896 -0.064575024 0.079416335 0.58515865
-0.3090211 -0.29691678 0.4374443 0.0030282883 0.035026006 -0.2362754 0.1846317 -0.16845767
0.16570508 -0.09622156 0.16129224 0.017059209 0.51194686 -0.034261335 0.0014278777 0.12382239
-0.45360795 0.19482222 -0.029139187 0.40740877 0.27058077 0.27431524 -0.14640531 0.084272526
-0.17228957 0.12649481 0.19934091 -0.0280699 0.10701211 0.30795094 0.08663478 -0.076537214
00000000: 3341 02be d5cc e9bc 2734 f63e 32c2 02bc
00000010: cf6e c43e 7728 1bbf f14e 2cbe 3820 d63d
00000020: 2f9a ec3d b945 0abe 86e7 783e 223a 823d
00000030: 1ee1 883d 2d4d 89be b9f5 3dbe 612c 0ebf
00000040: 1b33 ab3e 8c5b cebe 829a a6bd d454 f13e
00000050: 55d1 7c3d e50e 323e fe06 4dba ff48 13be
00000060: 7a9a 0abe 0f2f 073e 1746 013d 30e7 93be
00000070: 40a2 b43e bea3 8abe cb24 12be 713a 8bbe
00000080: f50e 8dbe 2e83 033f 44f4 3e3e 5597 f2be
00000090: 6373 43bd edbf 1a3e b2b2 bf3e e0a9 9e3e
000000a0: e0ff 0dbf 96fe 9a3d a3a1 e0bd a726 72bd
000000b0: 2b7c d0be 60e9 54bd 8a86 9d3d 52f2 d63b
000000c0: 447a d43d 96a3 9f3d ac7c b23e 4458 fa3e
000000d0: 8dab 303e 6d46 213e 8cef 2a3d 6551 19bd
000000e0: f692 20be 3eb3 bcbe d50b 41bd f3fc 873e
000000f0: 65ac 6f3e 73d9 663f 4d18 4f3d 6bbb 6fbe
00000100: 5055 023f 447e 29be 736c 563e bbb8 5abd
00000110: 04a2 0a3f 14bb e83e efff 903e a5c4 6bbe
00000120: db40 ba3e de2a 143f 7674 d73d 52ad afbd
00000130: ab0c 03bf 35b8 7ebe e59a 073f faea 083e
00000140: 1934 0dbe bd84 aabe bdb4 713e 9fa5 3b3d
00000150: b9d4 763e d286 55bc 0ed7 e5be bb97 d43e
00000160: ef2b e03d 77e6 f2bd c913 3fbe fa9b 8ebf
00000170: 037c b9be 95f6 5bbe 4cbe 14bf 67c2 7ebc
00000180: 8ba2 b03d 3cef 853c cb50 dcbd be94 963d
00000190: 2d22 27be 8964 a0be fb43 c43e dffb 543e
000001a0: c6cf 9d3e f41f b13e cb5d 0cbe 83ce 4cbe
000001b0: 20af 37be ffe7 babe c0c6 9f3d 9d7f 463d
000001c0: 0008 0f3b f271 93bd 108d cbbc d9f2 dd3d
000001d0: 53f9 ecbe 72c7 203c c83b 5dbe 4b1c 623e
000001e0: 0469 febd 6c77 1c3f 7ec8 f1be 08f8 10bf
000001f0: 02a5 a43e bfb2 183e f37b e03d 87bf a1be
00000200: e2e1 05be bc48 62be b6bd 2b3e 68ef aebe
00000210: c738 123e 808b a63d 2684 f73c 67cb b3be
00000220: bc0e 603e 9dd3 9cbc 0fda 103e b40c 79be
00000230: cb51 cfbc 1e08 fc3d e707 df3e 2084 50be
00000240: 8031 3d3e 68cf 413e 24dc c7be cfc7 bbbe
00000250: 3967 de3e 7d53 423e 97e2 32be f0dc ab3e
00000260: 2ecb 9b3d 1ab7 d4bc abb1 9fbe 42f8 70bd
00000270: 4455 983e 9091 37be ac69 95be 15c8 27be
00000280: ce92 76be f57b 4bbd c996 59bd 3b18 04bd
00000290: 2803 36be 960f 64be 9298 173e 1237 763e
000002a0: eb66 903d 5963 be3e 2d35 a1be d785 fcbe
000002b0: 2894 51bc 6f2d ebbe 8512 813e f0ca a1bd
000002c0: 2138 fabd 66e0 393c 9ed0 223e 931e 783e
000002d0: 452a ebbd a58f b8be 1956 3dbe 404e bebe
000002e0: 75f7 6a3d 9042 bc3d a486 d8bd 05ee 893d
000002f0: 3a79 64bd 8491 d93e b098 e9be 9fc6 a4bc
00000300: 2ceb 6fbe f3eb 90bd 1d3c 7a3e ac5d a7bd
00000310: a683 cabe 031f 453d 722b 43ba 452c 03be
00000320: 7870 823d c60a 813e c176 37bc 6a30 4abe
00000330: 8d64 0dbe daf3 563f e930 6ebf 00c1 453e
00000340: 9a07 943e 93ca dd3e bd1b 663c dac0 d43e
00000350: a962 88be cbef 8dbd b2f9 973d ff69 4abe
00000360: 8149 0dbe 1a09 bf3e 67ad 55bc 392f d03e
00000370: 6a8f 6e3e e93f 84bd 08a5 a23d f5cc 153f
00000380: 0338 9ebe 7a05 98be b3f8 df3e 3f76 463b
00000390: 6e77 0f3d 2ef2 71be 1810 3d3e 2b80 2cbe
000003a0: 98ae 293e cf0f c5bd cb29 253e c1bf 8b3c
000003b0: f30e 033f 9d55 0cbd a027 bb3a 9896 fd3d
000003c0: 4d3f e8be 7a7f 473e 4eb5 eebc e297 d03e
000003d0: 9089 8a3e 0c73 8c3e 46eb 15be 1397 ac3d
000003e0: ad6c 30be db87 013e 0620 4c3e d9f2 e5bc
000003f0: 2a29 db3d bfab 9d3e 936d b13d 8bbf 9cbd

critic.2.bias f4 [64]
-0.01428275 -0.33441237 -0.43425566 -0.2534485 -0.103019685 -0.2603002 0.17817262 -0.15086576
0.024603926 -0.049492083 0.09731588 -0.036912996 -0.027120776 0.08339778 0.025392054 -0.23017962
0.10394253 -0.025945626 -0.011224398 0.21038654 -0.32327035 -0.11416396 -0.20131512 -0.018056095
0.031700663 0.19209874 -0.12135399 -0.1229477 0.12593995 -0.2552991 0.23314914 -0.042330798
-0.03251295 0.09111964 0.1377492 0.054273695 -0.005884495 0.13254222 -0.03433522 -0.05346175
0.012090082 -0.039570782 0.263813 0.05835893 0.026325874 0.29239464 -0.034338243 0.053503852
-0.19189145 -0.0777316 -0.10962323 -0.116755955 -0.09445924 -0.062261064 -0.1864697 0.14397499
0.05304476 0.04837472 0.08843096 -0.030215787 -0.05897943 -0.6213483 -0.22300634 0.110231
00000000: 3202 6abc 1938 abbe c256 debe 00c4 81be
00000010: fcfb d2bd 1146 85be e272 363e 8e7c 1abe
00000020: 2c8e c93c 36b8 4abd 8c4d c73d 1532 17bd
00000030: 642c debc 75cc aa3d ff02 d03c 35b4 6bbe
00000040: d2df d43d ec8b d4bc 8ae6 37bc 926f 573e
00000050: b183 a5be cbce e9bd 8d25 4ebe 60ea 93bc
00000060: 8ed8 013d 88b5 443e 7188 f8bd 01cc fbbd
00000070: 67f6 003e 90b6 82be a6be 6e3e 0f63 2dbd
00000080: 4d2c 05bd ef9c ba3d 200e 0d3e 184e 5e3d
00000090: b9d2 c0bb 26b9 073e 16a3 0cbd b5fa 5abd
000000a0: 7b15 463c f914 22bd 7f12 873e c609 6f3d
000000b0: 5ca9 d73c c0b4 953e 42a6 0cbd db26 5b3d
000000c0: 317f 44be bf31 9fbd 2582 e0bd bf1d efbd
000000d0: d973 c1bd 7505 7fbd eaf1 3ebe 2e6e 133e
000000e0: 7645 593d 9224 463d 4b1b b53d 1987 f7bc
000000f0: 6a94 71bd af10 1fbf c65b 64be cac0 e13d

critic.4.weight f4 [1, 64]
0.0133943185 0.054164495 -0.5502055 -0.16870497 0.09299656 -0.0065055895 0.23525935 -0.49529397
-0.24735442 -0.21675825 -0.06444112 0.09364266 -0.10146706 -0.030711269 -0.30803365 0.040013112
0.03062711 -0.15142126 -0.05003636 -0.08404083 0.08071593 0.32204878 0.18018095 0.18549712
-0.12364477 0.2547603 0.13281173 -0.16728945 0.31543833 -0.14314276 -0.031183517 -0.031473976
-0.11355667 0.30768114 -0.029292984 0.015677268 -0.037991952 0.24607593 -0.0002544031 -0.18572077
0.048584767 -0.09335381 0.6391283 0.37530318 0.009231209 0.11192159 0.13160838 -0.2870617
0.028029617 -0.048789147 0.19814593 0.15971138 -0.01341152 -0.055120632 0.027555257 -0.17377815
0.005155968 -0.20629549 0.022328017 -0.05351562 0.15468484 -0.7354818 0.00885989 0.16098632
00000000: d873 5b3c 97db 5d3d 45da 0cbf ffc0 2cbe
00000010: fb74 be3d d72c d5bb d4e7 703e 2c97 fdbe
00000020: 7a4a 7dbe e0f5 5dbe b5f9 83bd b9c7 bf3d
00000030: f6cd cfbd 3396 fbbc 96b6 9dbe cae4 233d
00000040: b4e5 fa3c 2d0e 1bbe edf2 4cbd 991d acbd
00000050: 654e a53d 94e3 a43e 5b81 383e f5f2 3d3e
00000060: 7839 fdbd f16f 823e ccff 073e ed4d 2bbe
00000070: 2281 a13e 0494 12be 9374 ffbc dbea 00bd
00000080: 6690 e8bd 6288 9d3e d7f7 efbc 9d6d 803c
00000090: 739d 1bbd 54fb 7b3e 6861 85b9 962d 3ebe
000000a0: d200 473d 4830 bfbd ea9d 233f bd27 c03e
000000b0: 7f3e 173c 2637 e53d 59c4 063e c0f9 92be
000000c0: 5e9e e53c 21d7 47bd c4e6 4a3e 618b 233e
000000d0: febb 5bbc 2cc6 61bd 90bb e13c e6f2 31be
000000e0: 65f3 a83b 203f 53be 3fe9 b63c 3233 5bbd
000000f0: b465 1e3e 8948 3cbf 1229 113c 99d9 243e

exp_avg f4 [64, 121]
4.498795e-13 1.26863e-14 -4.8799302e-09 1.6677578e-09 -7.330554e-10 -2.1647199e-07 -3.0586331e-09 -8.1027065e-07
-1.6890328e-07 3.8115763e-10 -3.9883406e-07 1.4251327e-09 1.3752179e-09 -8.2117263e-10 -5.4838433e-15 -2.231307e-07
-3.4493358e-13 6.3902127e-07 -2.3116256e-07 -3.6652114e-07 -4.6124654e-07 -7.378512e-07 -7.467124e-10 -4.0342168e-10
1.0401168e-13 6.1901265e-13 -1.9278767e-07 -3.6170943e-07 -2.0726125e-09 -5.451294e-09 -1.001234e-06 8.3636614e-08
2.7605064e-18 1.5834608e-08 3.2871458e-10 -9.809838e-09 -4.1150278e-07 -3.877934e-07 3.3880235e-07 -4.2882804e-09
1.7333288e-06 5.2443407e-11 2.0105947e-06 -2.005483e-07 6.901529e-08 -6.005155e-10 6.235345e-07 -2.4123272e-08
4.703698e-06 -1.0524004e-06 -7.8954905e-09 3.5339465e-10 -2.4644208e-08 1.6689344e-06 -5.3837766e-07 -2.7959965e-09
-6.7439637e-15 -4.5021807e-08 3.4873005e-07 -5.373876e-08 3.4365423e-06 -5.462315e-07 -2.9254057e-09 -1.0205674e-09
-8.197076e-10 -3.753662e-09 -8.612885e-10 -6.2812395e-09 -1.1722439e-06 1.404116e-08 -1.9671864e-08 7.13892e-13
-4.4057788e-07 -3.393638e-11 2.3599137e-06 5.3214207e-11 -2.5777562e-09 3.3567062e-06 -5.4113736e-09 1.3624373e-09
-1.7865582e-07 -1.42498635e-08 -1.6784027e-08 7.4416295e-09 -4.2667267e-08 1.4035308e-09 4.9529344e-08 -5.0039523e-07
-1.4689423e-06 1.2877715e-06 -1.9647585e-07 6.8907734e-06 -1.6100248e-09 -3.540082e-10 -3.1063692e-09 -1.2080899e-06
1.4310066e-09 -1.7770301e-09 -1.1837579e-08 4.2726458e-10 8.6115296e-07 -9.162888e-08 1.2148382e-10 -1.4728601e-09
-4.4970415e-07 1.5594122e-10 -7.573858e-07 -4.733108e-08 -1.4458739e-09 8.59725e-07 9.660164e-07 -6.6224324e-09
-7.52246e-07 2.0457893e-09 -3.961478e-09 -1.4721812e-09 3.781503e-06 1.8148968e-06 -8.07833e-10 1.479132e-09
-8.3336616e-15 -1.7296845e-10 1.3480648e-11 -3.647853e-06 6.4634623e-06 1.0371018e-05 2.987815e-06 3.517662e-06
1.0245471e-05 -3.5703822e-06 -1.7475201e-09 7.740214e-06 5.8595906e-06 6.586302e-06 -1.0388889e-06 -5.602178e-11
3.6037939e-06 4.4091173e-08 1.6160593e-06 3.1276575e-06 4.4103044e-06 4.543785e-06 -2.4110143e-06 8.17278e-06
-8.765559e-08 -2.9584507e-10 -2.756742e-10 1.0907462e-05 1.4737549e-07 5.971941e-06 3.827833e-06 -4.439633e-06
1.42488225e-05 -7.132947e-15 1.4914834e-06 -1.193572e-09 -3.2922821e-06 5.0171307e-06 6.9496755e-06 5.4633056e-06
9.8890805e-06 1.35956725e-05 1.1812979e-07 6.4788924e-06 -3.5292433e-06 7.6068854e-06 -3.4040278e-07 1.0182832e-05
-2.3977982e-06 1.4042063e-05 9.558606e-06 5.050246e-06 3.7724606e-06 6.072499e-06 1.5092866e-05 4.0664668e-06
4.6560144e-06 3.938565e-11 6.2470403e-06 1.6243862e-06 -3.4727952e-06 6.8083036e-06 8.982914e-06 -5.3999765e-06
7.886635e-06 -2.696331e-07 -3.5690357e-06 4.251386e-06 4.82625e-06 7.722334e-06 4.2098895e-06 -3.4060324e-06
4.438438e-08 7.553701e-06 1.4978833e-07 8.842179e-06 -1.9421635e-09 -3.3986905e-06 7.897569e-06 -3.2934418e-06
7.356669e-06 -3.5442288e-06 8.196934e-06 5.056442e-06 9.395894e-06 3.898294e-06 7.3750984e-06 8.453835e-06
-2.220669e-06 8.659618e-06 1.0313107e-05 1.09282755e-05 1.37756815e-05 -3.0370616e-06 6.544829e-06 -3.4168085e-07
9.73399e-06 5.789071e-06 1.0697592e-05 7.743653e-06 -1.1042746e-09 6.6166353e-06 3.8479334e-06 -1.1616156e-09
-2.9475148e-06 -7.150495e-06 5.089657e-06 8.3581705e-07 1.0794558e-06 -2.7218227e-06 6.3275875e-06 8.751195e-06
-1.6888846e-06 6.7011715e-06 4.311257e-06 3.3873569e-06 -1.490776e-06 1.7684944e-05 1.0516922e-05 -4.2371443e-07
7.4391287e-06 4.0892272e-11 1.1990903e-11 1.6166558e-11 -3.4262998e-06 -0.00027758392 -0.0005552277 -0.00027999748
-0.00027914825 -0.0005592909 -4.0276523e-06 9.527968e-10 -0.0005597586 -0.00027539974 -0.00027575577 -4.06297e-08
00000000: 7842 fd2a 3b89 6428 52ac a7b1 0337 e530
00000010: 3080 49b0 5e6f 68b4 0b30 52b1 6081 59b5
00000020: c85b 35b4 2b8b d12f 561f d6b4 66de c330
00000030: 2e02 bd30 e3b8 61b0 8793 c5a7 b395 6fb4
00000040: 2b2e c2aa 3589 2b35 7b35 78b4 48c6 c4b4
00000050: 3ea1 f7b4 c010 46b5 3741 4db0 8ec8 ddaf
00000060: a736 ea29 903c 2e2b 1201 4fb4 f730 c2b4
00000070: c96d 0eb1 174e bbb1 2362 86b5 b79b b333
00000080: 7eb0 4b22 ac04 8832 77b6 b42f 2088 28b2
00000090: 83ec dcb4 eb31 d0b4 a4e4 b534 1d58 93b1
000000a0: b9a4 e835 07a6 662e c1ed 0636 4c56 57b4
000000b0: 8f35 9433 8611 25b0 f760 2735 a337 cfb2
000000c0: 75d4 9d36 3440 8db5 bca4 07b2 e047 c22f
000000d0: 30b1 d3b2 2600 e035 0885 10b5 b123 40b1
000000e0: 16fa f2a7 005e 41b3 1839 bb34 64ce 66b3
000000f0: 599f 6636 bea0 12b5 4808 49b1 0644 8cb0
00000100: cb51 61b0 8ff9 80b1 cabf 6cb0 5ed2 d7b1
00000110: fe55 9db5 ad39 7132 e3fa a8b2 57f1 482b
00000120: 9088 ecb4 f840 15ae 025f 1e36 df09 6a2e
00000130: 5e24 31b1 c643 6136 f2ee b9b1 8040 bb30
00000140: 8ad4 3fb4 90cf 74b2 772c 90b2 44b1 ff31
00000150: 2841 37b3 5ae6 c030 17ba 5433 e652 06b5
00000160: 7928 c5b5 7ed7 ac35 dff6 52b4 4b37 e736
00000170: b647 ddb0 3a9e c2af d377 55b1 a725 a2b5
00000180: 12ad c430 b03b f4b0 395e 4bb2 25e4 ea2f
00000190: fb29 6735 82c5 c4b3 a892 052f a86d cab0
000001a0: de6e f1b4 8d75 2b2f 284f 4bb5 1349 4bb3
000001b0: 2ab8 c6b0 dac7 6635 12a8 8135 888b e3b1
000001c0: f4ed 49b5 e895 0c31 871d 88b1 c555 cab0
000001d0: bac5 7d36 6197 f335 320e 5eb0 554a cb30
000001e0: 3b20 16a8 4a2e 3eaf 7127 6d2d a3cd 74b6
000001f0: b8e0 d836 2fff 2d37 4582 4836 f910 6c36
00000200: f6e3 2b37 b39a 6fb6 662d f0b0 f7db 0137
00000210: 809d c436 e7ff dc36 f36f 8bb5 eb62 76ae
00000220: b5d8 7136 c25e 3d33 60e7 d835 bfe4 5136
00000230: 3afc 9336 d176 9836 e9cc 21b6 d31d 0937
00000240: 2c3d bcb3 7ea4 a2af b28d 97af 31ff 3637
00000250: 443e 1e34 9562 c836 d670 8036 28f8 94b6
00000260: 3a0e 6f37 e97e 00a8 fb2e c835 150b a4b0
00000270: faf0 5cb6 d358 a836 4231 e936 7051 b736
00000280: 47e9 2537 f818 6437 8aae fd33 4365 d936
00000290: f0d7 6cb6 a63e ff36 9ac0 b6b4 eed6 2a37
000002a0: dce9 20b6 3496 6b37 e65d 2037 4875 a936
000002b0: 612a 7d36 5fc2 cb36 5e37 7d37 af72 8836
000002c0: dc3a 9c36 4d38 2d2e ab9d d136 7c05 da35
000002d0: 2b0e 69b6 e272 e436 52b5 1637 7231 b5b6
000002e0: d750 0437 17c2 90b4 9183 6fb6 21a7 8e36
000002f0: 2cf1 a136 2c8f 0137 ad42 8d36 3193 64b6
00000300: 24a1 3e33 cc75 fd36 81d5 2034 df58 1437
00000310: e776 05b1 0f15 64b6 cd7f 0437 e604 5db6
00000320: 4ed9 f636 63d9 6db6 9085 0937 82aa a936
00000330: 0fa3 1d37 17ce 8236 9d77 f736 f2d4 0d37
00000340: ce06 15b6 c748 1137 7506 2d37 9658 3737
00000350: 1a1e 6737 52d0 4bb6 a79b db36 4270 b7b4
00000360: 2b4f 2337 be3f c236 cf79 3337 bdea 0137
00000370: 35c5 97b0 7704 de36 7f1d 8136 b7a6 9fb0
00000380: ebcd 45b6 49ee efb6 d2c7 aa36 e95c 6035
00000390: d2e1 9035 8fa8 36b6 9051 d436 19d2 1237
000003a0: a2ad e2b5 a0da e036 6aa9 9036 5952 6336
000003b0: ac16 c8b5 215a 9437 d671 3037 de7a e3b4
000003c0: a19d f936 9bd8 332e 3af2 522d da33 8e2d
000003d0: 62ef 65b6 af88 91b9 b38c 11ba a0cc 92b9
000003e0: a55a 92b9 609d 12ba 4525 87b6 8ff3 8230
000003f0: c4bc 12ba 8763 90b9 5093 90b9 d480 2eb3
