ppo_checkpoint_after_bitsmart.pth (torch, 664874 bytes, 55 tensors)

actor.0.weight f4 [64, 121]
000000 18 b7 3b 3e 9b 20 b4 3e 0f f9 2f be 7a e9 24 3e
       0.18331563 0.35181126 -0.17184852 0.16104689
000010 48 45 c8 be 37 0b 20 be 7c f7 ab 3d 87 b5 d7 be
       -0.39115357 -0.15629278 0.08396813 -0.42130682
000020 3d 85 6b be 46 88 f3 3e 13 c6 f0 bd a7 1e dc 3e
       -0.23000045 0.47564906 -0.1175653 0.42992136
000030 20 19 0b 3d 82 1f 0d be 55 1a b5 bd 7c 6c 96 3c
       0.033959508 -0.1378155 -0.08842913 0.018362276
000040 0d 59 d2 3e ce fe 17 bf fe ff 71 be a7 31 50 be
       0.41083565 -0.59373176 -0.2363281 -0.20331441
000050 8f 2a 00 3e cc 90 a6 3d 9a f3 92 be 90 d2 e4 bd
       0.12516235 0.081330866 -0.28701478 -0.11172974
000060 81 20 37 be 03 d9 0f be a7 9a 4b bf 25 9c 96 bf
       -0.17883493 -0.14047627 -0.79532856 -1.1766402
000070 83 62 20 3e a5 da d7 be 93 40 33 be 99 4c 25 3e
       0.15662579 -0.42159 -0.17505102 0.16142501
000080 a8 2a 04 bf 2c 40 de 3e 74 b7 36 3f e7 26 19 bf
       -0.5162759 0.43408334 0.7137368 -0.59824985
000090 25 bd c3 3e f2 d4 be 3e ce 46 2f bf cb af 06 3f
       0.38230243 0.3727184 -0.68467414 0.5261199
0000a0 47 69 cd be 05 ae c8 3e 2d 36 15 be bb 58 ec 3e
       -0.40119383 0.39195266 -0.14571448 0.46161446
0000b0 fc c6 b0 bd a8 5e 2c bd 47 6d ac 3b 38 2f eb bd
       -0.08631703 -0.04208246 0.0052620503 -0.11483616
0000c0 de 90 09 be 2c 1e b3 bd 8d a0 3b be 95 d8 11 be
       -0.13434169 -0.08745989 -0.18322964 -0.14242776
0000d0 6a 9d 55 3e d1 19 79 be e8 1e 55 be 8d 2c 8c be
       0.2086083 -0.24326254 -0.20812571 -0.2737774
0000e0 e8 9b f0 be 25 af f5 3d bf 05 65 be 8f fd bc be
       -0.46993947 0.11996297 -0.22365473 -0.369122
0000f0 f1 6c 36 bf 03 44 e7 be f9 3e ed be e9 02 9b be
       -0.7125998 -0.45169076 -0.46337107 -0.30275658
000100 d0 6d f0 be 39 0d 04 bd a3 0b f4 3e 8b 5d 82 be
       -0.4695878 -0.032239173 0.47665128 -0.25461993
000110 32 1b 99 be 74 6e 4e be 30 0c 92 bc 17 90 09 bf
       -0.2990356 -0.20159322 -0.017828077 -0.5373549
000120 04 18 27 bb 04 e0 0f be 64 60 e7 be d9 82 8c be
       -0.0025496492 -0.14050299 -0.45190728 -0.2744358
000130 75 98 0c 3f 8d bc 08 3d 33 7e 5c 3e 9d 4e 91 bc
       0.5492013 0.03338294 0.21532516 -0.017737681
000140 f0 35 db be 1c 48 3e 3e 5b 67 93 3d 00 8f 6e be
       -0.4281459 0.18582195 0.07197448 -0.23296738
000150 e2 c6 3a bf 64 ac 0a bf 1a f1 9a 3e 71 7c 6d 3e
       -0.7295972 -0.541693 0.3026207 0.23192002
000160 2d 6c c4 bc 9f e0 bf be 6c c7 d5 3e 28 f2 48 3e
       -0.023977363 -0.3747606 0.4175371 0.19623625
000170 d9 fd ea be e0 cc 28 be 53 4b 2f be 0e 10 c2 3e
       -0.45896795 -0.16484404 -0.17118578 0.37902874
000180 52 47 c8 be 5d de 0c be d7 dd d6 be 7c cd 63 be
       -0.39116913 -0.137567 -0.41966125 -0.22246355
000190 f3 8c f8 3e 1b 19 76 be 0f ee 39 be 43 7a c1 3e
       0.48545036 -0.24033014 -0.18157218 0.3778859
0001a0 0a 2f 4d 3c 03 2c dd bd 14 a5 12 bd 84 2e 38 be
       0.012523422 -0.1079941 -0.035801962 -0.17986494
0001b0 ea 83 55 bf 2f 3c 86 be 24 e7 08 be 23 9d 81 be
       -0.8340441 -0.2621779 -0.13369423 -0.25315198
0001c0 1d 9c 58 bd b0 88 2c bb aa 6c 3d bd 1a 12 b8 3e
       -0.052883256 -0.002632659 -0.04624621 0.3595131
0001d0 9c 79 bc be e2 46 12 bf 5c 0a 47 bf ff 07 24 3d
       -0.3681153 -0.5713941 -0.7775018 0.04004669
0001e0 78 a7 2f bc a6 5c 59 3e dc a4 2a be 4a 39 d7 3e
       -0.01072108 0.21226749 -0.16664451 0.42035896
0001f0 d0 51 9c 3c ae 7c e0 be 42 f1 be be f1 4a 3b be
       0.01908198 -0.43845123 -0.3729344 -0.18290307
000200 42 3c 12 bf a3 96 b3 bd a2 47 ae be 7c d4 0b 3e
       -0.57123196 -0.08768966 -0.34039026 0.13655275
000210 db 5b 79 be 55 cc 8f be b3 36 0c bf c2 c2 3c bd
       -0.24351446 -0.2808558 -0.54770964 -0.046084173
000220 3b b8 f1 be a7 ed bd 3e 77 aa a8 3e 9e 29 d8 bd
       -0.4721087 0.37095377 0.32942554 -0.10554813
000230 12 1a 00 3e f1 3f 72 3e 48 3e a1 bc 61 a5 fd 3e
       0.12509945 0.23657204 -0.019683018 0.49540237
000240 ba f5 a0 bd 13 9e 3b 3f 32 6d bf bd d5 71 fe 3d
       -0.078593686 0.7328808 -0.09346999 0.124240555
000250 9c 17 ba be b8 05 31 be 48 ef e2 bd ae 53 04 be
       -0.36346138 -0.17287338 -0.110807955 -0.12922546
000260 db f6 83 bf bc 3c 27 3f 0d d0 26 3e 25 83 04 3e
       -1.0309709 0.6532705 0.16290303 0.12940653
000270 a6 3c 97 3c e6 9d fe be ca 39 e4 3e d8 ba c7 be
       0.018461537 -0.49729842 0.4457534 -0.39009738
000280 31 b9 1d 3f 78 ea fe 3d a3 a7 73 3f 21 f8 8a 3e
       0.61610705 0.12447065 0.9517767 0.27142432
000290 af 9b d6 3d 67 23 8c be 8e 7c 9d 3e 01 8b 11 be
       0.10478913 -0.2737076 0.3075909 -0.14213182
0002a0 a9 99 d1 be 79 b5 32 3f 31 a9 d1 be 8d af e8 3d
       -0.40937546 0.69808155 -0.40949395 0.11361609
0002b0 8f 3c 64 bf 8a ce d2 3e 52 cd 84 be 4e 8d a8 3e
       -0.89154905 0.41173202 -0.25937897 0.32920307
0002c0 42 de 38 3e aa fd 2b 3e 4f 19 ed be 3d 2c 2c bf
       0.18053535 0.16795984 -0.4630837 -0.67255
0002d0 b6 16 49 bf 51 6a 6f be 4b ef c1 3d 0a fe 43 bd
       -0.7855028 -0.233804 0.0946947 -0.047849692
0002e0 d3 0e 83 3e e6 26 2e 3d f2 6b 4f 3e e6 5f 54 bd
       0.25597247 0.042517565 0.20256022 -0.05184927
0002f0 b1 44 7b be 12 60 fc be f9 58 0a 3f 7f 47 79 bd
       -0.24537922 -0.49292046 0.5404201 -0.0608592
000300 7f 35 ec 3e 5c aa 97 3e 70 15 96 3e e2 92 2e be
       0.46134564 0.2962216 0.2931323 -0.17048219
000310 2a 98 13 3e 8f c8 a3 be 78 9e de bd 1f 8f 35 be
       0.14413515 -0.31988952 -0.10870069 -0.17730378
000320 a4 47 9e be 76 ef dc 3d 68 86 28 3d ea 53 3b be
       -0.30914032 0.10787861 0.041143805 -0.1829373
000330 84 b6 37 3e 8c 92 fb be de 4f fe bd 27 a9 93 3e
       0.17940718 -0.49135244 -0.12417577 0.2883999
000340 99 ae 03 bf 75 64 06 3e e4 0b 59 be 4f 8e 17 bf
       -0.5143829 0.13124259 -0.21195942 -0.5920152
000350 a8 73 06 3f 24 1d 0d 3f f9 a0 06 be 9b ff f0 bd
       0.5252023 0.5512259 -0.13147344 -0.11767503
000360 bb e5 67 3f 6f 34 14 bf da 33 9c bd b3 ac aa 3e
       0.90584916 -0.5789251 -0.076270774 0.33334884
000370 68 c0 48 bf d6 70 4c be 83 e5 7f be 91 82 fe 3c
       -0.7841859 -0.19964918 -0.24989896 0.031068118
000380 ca 08 31 be a2 3b 69 bf d9 2f 22 3e d2 fb 9c 3e
       -0.17288509 -0.9110662 0.15838565 0.30660874
000390 09 18 9b be 03 30 35 be ef fd ac be a6 02 ee bd
       -0.30291775 -0.17694096 -0.33787486 -0.11621599
0003a0 be 9c 5c be 86 24 ed be 65 18 c9 be dc ef 0f bf
       -0.21544167 -0.46316928 -0.39276424 -0.5622537
0003b0 bf 95 60 3e 43 45 2f 3f 06 ab 77 be 2f f9 ae be
       0.21932124 0.6846506 -0.24186334 -0.34174487
0003c0 36 b3 79 be 3a ce 9f bd 3e 72 48 3e bf 5d 26 3d
       -0.2438477 -0.078030065 0.1957483 0.040616747
0003d0 19 6a 10 3d 18 8d a3 3c 46 03 6a 3e 89 21 63 3d
       0.035257433 0.01996474 0.22852811 0.055451903
0003e0 37 24 0d bd 75 57 d5 bb 77 d7 23 3e 52 08 81 be
       -0.034458365 -0.00651067 0.16000162 -0.2520166
0003f0 d8 0c 1b 3f ac 14 d8 3e dc d8 7f 3e c9 95 52 3e
       0.60566473 0.4220327 0.24985069 0.20564951

actor.0.bias f4 [64]
000000 3a bb db be f2 25 47 be 0d 79 11 bf c9 d9 dd bf
       -0.4291628 -0.19448069 -0.56825334 -1.7332088
000010 05 8f d0 3f 0b 45 03 bf 18 69 2e bf 72 a1 8d bf
       1.6293646 -0.51277226 -0.6812911 -1.1064894
000020 bd 48 99 bf 1a 8c 43 3f cc c9 a6 bf 46 d4 a1 bf
       -1.1975323 0.76385653 -1.3030334 -1.2642906
000030 9b c9 d2 3e 2c 78 5f 3d 6a 40 00 3f 02 9c b9 be
       0.41169438 0.054557964 0.5009829 -0.36251837
000040 0a e9 17 3f 5e 38 1f 3f 0c b0 a7 be 13 e5 1f 3f
       0.59339964 0.62195385 -0.327515 0.62458915
000050 7e 63 27 3f 0c ad 5a bf c3 23 b2 bb 65 5b 9e 3f
       0.6538619 -0.854203 -0.005436392 1.2371641
000060 a4 58 b2 3f f4 58 61 be 46 b8 58 3f 21 f8 db 3e
       1.3933301 -0.22006589 0.8465618 0.42962745
000070 73 ea 6b be fa 90 ab bf 85 c4 6c 3f 80 59 cc 3f
       -0.23038654 -1.3403618 0.92487365 1.5964813
000080 00 df ce 3f e6 86 9e 3e 86 8b fa 3e 3d d9 55 3f
       1.6161804 0.30962294 0.48934573 0.83534604
000090 0f b6 d3 3c cb 9a 57 3d f4 49 a4 3e 43 30 a6 bf
       0.025843648 0.052637856 0.32087672 -1.2983478
0000a0 3f c4 6d 3f 02 30 6f 3f b1 f5 c5 3e f6 43 90 be
       0.9287757 0.9343263 0.3866401 -0.2817685
0000b0 6c c3 46 bf 2c bc 24 3f 22 45 af be 60 6b 16 3f
       -0.7764194 0.6434963 -0.34232432 0.5875759
0000c0 af ab 88 bf 90 42 d6 bd 32 e2 44 bf a9 cc 90 bf
       -1.0677394 -0.104619145 -0.76907647 -1.1312457
0000d0 2a 20 a6 bd f4 0f f5 be 26 82 7f 3e cc ba b4 3c
       -0.081116036 -0.47863734 0.24951991 0.022061728
0000e0 47 58 a0 bf 21 1d 57 bf 66 42 56 be 16 2b ea 3e
       -1.252694 -0.8402882 -0.20923766 0.45735997
0000f0 02 0f ee be 4d 82 1d 3d f8 b7 e9 3f 3d b8 82 bf
       -0.46495825 0.038454343 1.8259268 -1.0212475

actor.2.weight f4 [64, 64]
000000 df e6 85 bc 95 2a 22 bd ca 1d 5d bf 5f d9 6a be
       -0.01634544 -0.03959139 -0.8637358 -0.22934483
000010 a7 a5 60 3d a7 f7 56 bc 8e f3 22 bb 90 fb d1 bd
       0.05484548 -0.013120568 -0.0024864408 -0.1025306
000020 21 08 32 3e d4 5f 5c be fe ae 9a 3e 8d 38 07 3f
       0.17385913 -0.2152093 0.30211633 0.52820665
000030 42 68 10 bf 27 f0 f8 be 9d 88 78 3e e1 9a 02 be
       -0.56409085 -0.48620722 0.24270864 -0.12754394
000040 9d ec 8d 3e 3f 98 2a 3f 51 6c 42 3f 21 1e 5a 3e
       0.27719584 0.6663856 0.7594653 0.21300556
000050 fd e9 cb bd 7f 70 bc 3d 78 14 86 be 01 60 ab bd
       -0.09956739 0.092011444 -0.2618749 -0.08367921
000060 b9 78 fc bd e7 7e 42 bd f0 0f 2a 3e c7 4a 76 3e
       -0.123277135 -0.047484305 0.16607642 0.24051963
000070 d5 03 0c 3f ef eb d2 3e 04 3c 15 3e 9a 31 fa be
       0.5469335 0.41195628 0.14573675 -0.48865968
000080 4c 40 e9 be b3 cd cf be a1 4e 3f be ff 34 31 be
       -0.45556867 -0.40586624 -0.18682338 -0.17305373
000090 ce 49 8b 3e 1f cb f4 3b 9f 72 e3 bd 2d 39 f6 3e
       0.27204746 0.007470503 -0.111058466 0.48090497
0000a0 5a e2 43 3e 0b f5 90 bd ba fe d2 bc d1 56 8c 3e
       0.19129315 -0.07077988 -0.025756229 0.27409986
0000b0 da d7 1d be 80 4d 13 be de cd 59 3e d6 b0 9c bc
       -0.15414372 -0.14385033 0.21269938 -0.01912729
0000c0 37 81 47 3d 9a d0 73 3e f9 c4 2c bd 79 f1 b7 be
       0.048707213 0.23810044 -0.042180035 -0.35926417
0000d0 28 55 12 3f ab a6 88 3e 95 a6 24 bc 09 94 70 be
       0.5716119 0.26689658 -0.010049482 -0.23493971
0000e0 56 f5 08 3f c3 87 0d 3e 31 0d de bd 08 88 b2 be
       0.5349935 0.1382132 -0.1084236 -0.3486941
0000f0 31 e7 86 be 39 77 a1 bd 00 b8 14 be 34 a4 72 3e
       -0.2634826 -0.07884068 -0.14523315 0.23695451
000100 8e 54 23 be ef 82 3f 3d ba e7 5a 3e 57 4c e0 bd
       -0.15950224 0.046755727 0.21377459 -0.10952061
000110 e6 44 10 3f 2e f0 ca ba 2a 51 8d bd e9 c4 33 3e
       0.5635513 -0.0015482956 -0.069002464 0.17555584
000120 0e 87 49 3e 28 ae c1 3e c0 8c cc 3e d4 ba 16 bf
       0.19680426 0.37828183 0.39951134 -0.5887883
000130 73 0e 3a bd 67 be af be 30 56 6c bd 0b 93 8b 3e
       -0.045423936 -0.34324953 -0.057699382 0.27260622
000140 e3 15 2f 3e ad be 5a 3e cd d2 f3 3e a7 52 6b be
       0.17098193 0.213618 0.47621766 -0.22980748
000150 94 a9 7d 3d 12 79 d0 be 43 0b f4 bd 5d b4 04 bd
       0.0619293 -0.4071737 -0.119162105 -0.03239857
000160 de 78 a0 bd 10 73 63 be 45 03 49 3f c5 62 00 3e
       -0.078355536 -0.22211862 0.78520614 0.12537678
000170 ac 97 11 be da d2 5c be b6 1d 45 3e a7 0c 23 bf
       -0.14218014 -0.21564808 0.19249615 -0.6369118
000180 3c 3e 44 3e b5 75 39 3e 53 e6 c0 be d7 69 8f be
       0.19164366 0.18111308 -0.37675723 -0.28010437
000190 0e 60 9c be 45 ea 81 be 42 af 5b 3d e1 35 98 3d
       -0.30542034 -0.25374046 0.053633936 0.074321516
0001a0 86 82 e2 3d c9 14 a2 3e 06 31 ae be ab 9e 7f be
       0.110600516 0.31656483 -0.34021777 -0.24962871
0001b0 76 96 aa 3e d8 2c 3a 3e 16 fc 11 be 39 f3 9a 3d
       0.33317918 0.18181169 -0.1425632 0.07565922
0001c0 ed 6d 11 3e 29 7d 4a be f8 a7 97 bc bc fa 95 3e
       0.1420209 -0.19774307 -0.01851271 0.29292858
0001d0 ae 3a 06 be c9 96 0b bf 55 0c 8b 3e f9 6f 52 be
       -0.13108322 -0.54526955 0.27157846 -0.20550527
0001e0 b9 e7 1b 3e 9e fd eb be 1e 93 1d 3c 33 79 05 bc
       0.15225114 -0.46091932 0.009617595 -0.008146572
0001f0 8b a7 4a be d8 76 fb be b9 a0 28 3f 3d a1 44 be
       -0.19790475 -0.49114108 0.65870243 -0.19202133
000200 59 00 31 3e d0 34 d9 bc b5 c3 26 3e 5e 01 5a be
       0.17285289 -0.02651444 0.16285594 -0.21289584
000210 c4 ea 6b 3e d0 17 a5 3c 75 62 e0 be 0c c1 c7 bd
       0.23038775 0.020152956 -0.43825117 -0.09753618
000220 3e c9 96 3d 2a b7 0f 3e 1a c5 fe bd 02 e9 0c be
       0.07362603 0.14034715 -0.12439938 -0.1376076
000230 e5 48 2e 3e e3 26 4c 3d ab b7 2b 3e 7d 66 92 3e
       0.17019995 0.049841773 0.16769283 0.28593817
000240 15 75 df 3d ff 06 c2 3e af 53 93 3e 23 4c 0f 3e
       0.109110035 0.37895963 0.28774783 0.13993888
000250 5e 0e 6e be e8 7a 12 be 56 37 ce be 5d 4d 32 bd
       -0.23247668 -0.14304698 -0.40276593 -0.04353081
000260 4a 4f b9 be 60 17 2d 3d f1 0b 85 3e ff e8 03 3f
       -0.36193305 0.04225862 0.25985673 0.515274
000270 b8 ee 01 bf ee 78 63 3e a5 fd d4 3d 68 c1 a0 3e
       -0.5075488 0.222141 0.10399941 0.31397557
000280 e3 32 80 3e e9 23 17 bf ad 36 cd be e8 49 0b 3f
       0.25038823 -0.5903917 -0.40080777 0.54409647
000290 e3 ae 3d bf 67 e5 da bd a0 66 39 3d d6 31 f2 bd
       -0.7409498 -0.10688286 0.045263886 -0.11825912
0002a0 99 b6 b3 3e 99 9f 21 be 9a b5 cc 3e 92 ba 54 be
       0.35100248 -0.15783538 0.399823 -0.20774296
0002b0 7b 0c 54 3c a0 84 12 be 34 38 21 3c ef aa 8b 3d
       0.012942429 -0.14308405 0.00984006 0.06819712
0002c0 ef 51 41 b9 c7 ff 09 3e 87 d3 06 be 3c e4 a9 3e
       -0.00018436437 0.13476478 -0.13166629 0.33181942
0002d0 d9 67 17 bf ca 9d e2 3e 43 f3 63 be b4 e1 4f 3e
       -0.59142834 0.44261009 -0.22260766 0.20300943
0002e0 a2 7f 16 3d fc cc 93 bd 92 61 ae bd 58 c0 98 3a
       0.036742814 -0.07216832 -0.08514704 0.0011654003
0002f0 1a 42 64 bc 62 35 e8 be cb 7f 62 3e 80 b6 38 bd
       -0.013931775 -0.45353228 0.22119062 -0.04509592
000300 51 cc 6c 3e 6f 8e 22 3e a6 e2 c9 bd b0 5e e6 3c
       0.23124816 0.15874647 -0.09857683 0.028121322
000310 23 dc da bc 7d 19 a2 be ae 14 09 bf e1 3c 1c 3d
       -0.026716297 -0.3166007 -0.5354718 0.038143996
000320 11 2d 16 be 98 47 63 3d 0a 43 ee be db 13 59 3e
       -0.14665629 0.0554882 -0.46535522 0.2119898
000330 5c 5b af be 4e 09 9d be ef 61 26 3e 46 02 bf 3e
       -0.3424939 -0.3067116 0.16248296 0.37306422
000340 4d 5d 3f be 4f b9 c1 3e 8e 29 8a 3e 70 61 16 bf
       -0.18687935 0.37836692 0.2698483 -0.5874243
000350 77 71 f4 bd 23 87 f4 3d 73 2c 06 bf af 6f 09 3f
       -0.11935704 0.11939838 -0.52411574 0.5368604
000360 1e 7c 06 3e 6c 19 60 3e c1 d3 cd bc c6 fa 66 3e
       0.13133284 0.21884698 -0.025125386 0.225566
000370 e7 64 5b bd 1d e2 64 be 13 04 b7 be 8a fd 21 3f
       -0.053563025 -0.2235188 -0.35745296 0.63277495
000380 db 48 6a be 82 ef 21 3e 69 17 49 3e 65 32 d5 bd
       -0.22879355 0.15814021 0.19637837 -0.104100026
000390 e2 74 6c 3f f0 91 0e 3e cd 3d 08 3f 02 29 b6 be
       0.9236585 0.13922858 0.532193 -0.3557816
0003a0 53 0c 10 3d 33 27 b5 3d ef 9a 27 3e a6 d3 64 bf
       0.035168003 0.08845367 0.16367696 -0.8938545
0003b0 7a e5 bb be c8 aa 45 3d ae 0e 0f bf a7 db c3 3c
       -0.36698514 0.048258573 -0.55881774 0.02390845
0003c0 1d 98 e1 be c1 cb 0b be ac d4 8e bc a2 f1 c6 be
       -0.44061366 -0.13651945 -0.017435394 -0.38856226
0003d0 bb b0 00 bf 43 10 a4 3e 73 c5 8c 3e b6 38 f4 b9
       -0.5026967 0.32043657 0.27494392 -0.0004658156
0003e0 63 39 c3 be c3 a7 83 3e bd b2 54 3e 70 b0 d6 be
       -0.3812972 0.2571393 0.20771308 -0.41931486
0003f0 bb 79 9d 3e 30 ce c7 3e d9 b2 03 3e 07 92 d5 3e
       0.30756935 0.39024496 0.12861194 0.41712973

actor.2.bias f4 [64]
000000 0b 88 fb 3d 2f 26 ab 3c 44 22 44 bc 84 00 13 3e
       0.122818075 0.02089223 -0.01197106 0.14355665
000010 66 00 22 be 36 0c 0b be 98 ea 7d bb 67 10 f2 3d
       -0.15820464 -0.13578877 -0.0038744565 0.11819535
000020 cf d5 65 3d 8b d2 82 3b 1f 2e 01 be 6f 6e 3e bd
       0.056112107 0.003992384 -0.1261525 -0.046492036
000030 b9 6f da bc 94 4a 12 3e d6 22 0b be 23 5b 74 bc
       -0.026664602 0.14286262 -0.13587508 -0.014914307
000040 a2 5a 8b 3e fb 5b a2 3e 96 ef c6 bd e2 8c 42 bd
       0.27217585 0.317108 -0.09713666 -0.047497638
000050 39 2c 7e 3e 93 84 e7 3c 97 2d 4a 3d 13 6f a9 3e
       0.24821557 0.028261459 0.049359884 0.33092555
000060 20 1a d7 3d 58 ee 31 3e 43 47 b6 be 29 73 ba bd
       0.1050303 0.17376077 -0.35601243 -0.09103996
000070 85 6f ad be 08 87 51 be b2 56 e9 bd 3e eb 08 3e
       -0.33874145 -0.20461667 -0.11393489 0.13370988
000080 4f 00 aa 3e 1c f0 81 3e 20 f2 33 3e 30 47 68 be
       0.3320336 0.253785 0.17572832 -0.22683406
000090 34 fb 1e bd 87 a6 a5 3e 80 52 29 3e d3 82 d1 3d
       -0.038813785 0.32353613 0.16535378 0.10230031
0000a0 59 05 b0 bd be f6 de bc 5b 7f bd be 1a dd 01 bf
       -0.0859477 -0.027217265 -0.37011227 -0.50728
0000b0 94 31 ad be 6b 4c 1d 3d 42 c9 2c 3e b4 97 28 be
       -0.33826888 0.038402956 0.16873649 -0.1646412
0000c0 15 2b 4d be 9d a8 14 be ba ff 87 3e 6d 24 ab 3e
       -0.20035966 -0.14517446 0.2656229 0.33426228
0000d0 fa 4e d8 bd 0a 5a fc 3c dc a6 dd 3e 52 4e 14 be
       -0.105619386 0.030804653 0.43291366 -0.14483002
0000e0 11 63 88 3d bc 3c 52 be 64 22 82 3e 17 f1 73 be
       0.066595204 -0.20530981 0.25416863 -0.23822437
0000f0 7e de 69 bd 37 81 5e be af 3a 68 bd 53 63 42 3d
       -0.05709695 -0.21728979 -0.05669659 0.047458004

actor.4.weight f4 [122, 64]
000000 14 cd a6 bf fb d2 18 be f0 f1 3a be 34 cd 8d be
       -1.3031335 -0.14924233 -0.18256354 -0.2769562
000010 fa 88 ff 3e e6 80 4b bf 0d 9b b1 3f e3 69 86 3e
       0.49909192 -0.7949356 1.3875443 0.2625266
000020 4b 11 ca 3e 2e c8 0f 3e e5 26 bb 3f 61 1f d1 be
       0.39466318 0.14041206 1.4621245 -0.40844253
000030 b4 2f 49 3f e6 16 47 3f 34 a1 34 3e 59 33 5a be
       0.78588414 0.77769315 0.17639619 -0.2130865
000040 e5 95 8b 3d 81 21 3e bf 6d f4 80 3f 65 31 9a 3d
       0.068156995 -0.7426987 1.0074593 0.075289525
000050 ca 57 90 3f b4 67 b7 bf 75 9e 28 bf 9c f6 42 bf
       1.1276791 -1.4328523 -0.65866786 -0.76157546
000060 81 1c a5 bf f4 8e be 3e 96 54 9f 3f 4d d2 62 3f
       -1.2899324 0.3721844 1.2447689 0.88602144
000070 7b 21 15 3f ff f8 bc be da b3 bb 3f 23 87 45 bc
       0.5825421 -0.3690872 1.4664261 -0.012056145
000080 b4 ed ae bf f9 09 df bc c3 e0 01 bf e7 bd 70 be
       -1.3666291 -0.027226435 -0.50733584 -0.23509942
000090 5d 5d 4e 3f 3c 0a 91 bf 51 c4 cd bf 99 e8 d1 3e
       0.8061121 -1.1331248 -1.6075536 0.4099777
0000a0 fb 49 9b 3f b4 53 17 be 29 8e 1f 40 22 7d 76 3f
       1.2131952 -0.14778024 2.4930518 0.9628469
0000b0 4a 75 af 3f 29 ad a1 3f b1 13 9e 3b 10 91 b5 bf
       1.3707669 1.2630969 0.0048241247 -1.4184895
0000c0 0a ba 13 3f 4d a4 87 3f bd 9e bb be 74 37 9e bf
       0.5770575 1.0597016 -0.36644545 -1.2360673
0000d0 d4 91 a1 bc dc 10 9e 3e 43 3a 02 bf 4d f4 3c 3e
       -0.019722857 0.30872238 -0.5087015 0.18452568
0000e0 80 74 2b 3f d9 f0 2a bf 5b ae cb be 8d 93 28 3e
       0.6697464 -0.66773754 -0.3978146 0.16462536
0000f0 97 b8 d1 3e ca 26 34 bf 7f b6 85 3d f2 72 5b be
       0.40961143 -0.7037169 0.06528949 -0.21430567
000100 0a 18 f4 be 28 5e d1 be d0 b7 14 3d c5 60 98 3e
       -0.4767459 -0.40892148 0.03630811 0.2976133
000110 9c 84 23 3f 44 ac cb be c3 b8 12 3f 08 7e 0b be
       0.6387422 -0.39779866 0.57313174 -0.13622296
000120 ed ce 80 3e f6 71 1c bd bd e7 c1 3f d5 10 86 bf
       0.25157872 -0.03819462 1.5148846 -1.0473887
000130 ab a5 f4 3e d2 6e 51 3e 37 3f 9d 3d 07 c2 0c bf
       0.47782645 0.20452431 0.07678073 -0.5498356
000140 18 b2 39 be 66 2f 09 bd 9a df 53 3f bf 25 45 3e
       -0.18134344 -0.03349247 0.82763064 0.1925268
000150 ec 6b 84 3f 74 04 29 bf db 1b c1 be 07 92 9d bf
       1.0345435 -0.6602242 -0.37716565 -1.2310189
000160 26 47 9a bf a2 81 03 3f b0 5a 75 3f 8c 1d 78 3f
       -1.2052963 0.5136968 0.95841503 0.96920085
000170 48 b8 6a 3e 67 e0 4d be 62 32 99 3f d4 dc 54 bf
       0.2292186 -0.20105134 1.1968501 -0.83149457
000180 e2 58 85 bf 56 a6 d9 bd db 1a f1 bd e8 eb 2e 3f
       -1.041775 -0.10627429 -0.117727004 0.68328714
000190 08 75 fa 3e 2e f8 02 bf ae 70 a0 bf e0 7a 76 be
       0.48917413 -0.5115994 -1.2534387 -0.2407031
0001a0 f8 40 80 3f 38 d1 0f 3e 96 48 b3 3f d4 29 16 3f
       1.0019827 0.14044654 1.4006526 0.58657575
0001b0 b9 29 a5 3f 26 58 91 3e f0 03 71 bf 4e c4 3e bf
       1.2903358 0.28387564 -0.94146633 -0.7451829
0001c0 55 5a 0c bf a8 a6 6f 3f a0 d4 c0 be 29 7c 53 bf
       -0.54825336 0.9361367 -0.3766222 -0.8261133
0001d0 fe 22 b8 3d ca f4 08 3f 66 37 96 bf b8 07 a4 be
       0.08991049 0.5349852 -1.1735656 -0.3203714
0001e0 6f 33 93 be 8a ce 16 bf 39 13 5d bf ac 57 aa 3e
       -0.28750178 -0.58908904 -0.86357456 0.33270013
0001f0 ae 6b 53 3e 66 60 c3 be e1 7a b1 3e e6 35 1f 3e
       0.20646545 -0.38159484 0.34664062 0.15547904
000200 6c c2 ac bf ce 3e 47 be fe d2 44 be 66 d7 a2 be
       -1.3496833 -0.19457552 -0.19221112 -0.3180496
000210 8c e2 23 3f 9b 92 8d bf 6c ad d9 3f ec b0 ea 3d
       0.6401756 -1.1060365 1.7006049 0.114595264
000220 e5 6f 9d 3e e6 66 16 3e f1 fb c9 3f d7 e6 11 bf
       0.3074943 0.1468769 1.5780011 -0.5699286
000230 06 5f e8 3e df f9 27 3f 89 05 89 3e ca 42 2b be
       0.45384997 0.6561565 0.26762035 -0.16724697
000240 6f 25 2a bb f1 89 0c bf 02 b3 70 3f 8b ce ef 3d
       -0.0025962254 -0.5489798 0.94023144 0.11709317
000250 72 b2 78 3f 97 68 c9 bf 71 93 00 bf 17 e5 43 bf
       0.97147286 -1.5735043 -0.5022498 -0.7652144
000260 fe e2 9d bf 2d 56 8c 3e 47 ba b5 3f 16 a3 60 3f
       -1.2334898 0.27409497 1.4197472 0.8774885
000270 e3 7e 1a 3f ca b9 40 be c0 02 b6 3f 8d 43 3d 3c
       0.60349864 -0.18820873 1.4219589 0.01155175
000280 d1 c0 bc bf 1d fd 0a 3e 97 65 0b bf 47 fe 10 be
       -1.4746343 0.13573118 -0.5445189 -0.14159499
000290 7c bc 4b 3f e7 04 88 bf 94 8e d7 bf 61 44 c1 3e
       0.7958448 -1.0626496 -1.6840386 0.3774748
0002a0 82 6d 72 3f 34 3b b3 be 96 ff 23 40 f7 b9 97 3f
       0.94698346 -0.35006106 2.5624747 1.1853627
0002b0 03 42 c5 3f b9 2c b2 3f c6 fe 01 3e 2c ec a5 bf
       1.541077 1.3919898 0.12694845 -1.2962699
0002c0 03 e5 4e 3f a3 33 a4 3f 4a 91 e6 be 51 5a 9c bf
       0.80818194 1.2828258 -0.45032722 -1.2215062
0002d0 53 f6 63 3d 64 ba bb 3e 9d 7d 00 bf ac 57 4d 3e
       0.055654835 0.36665642 -0.5019167 0.20052975
0002e0 91 71 3b 3f 2c 0c 28 bf 5b 77 af be 44 f4 81 3e
       0.73220164 -0.6564357 -0.34270748 0.25381672
0002f0 5a 5c b0 3e b5 9f 3a bf 38 36 27 be 30 99 31 be
       0.3444546 -0.72899944 -0.16329277 -0.17343593
000300 0a d3 88 bf fe 59 df be 10 85 e2 3d 0c fc 9d be
       -1.0689404 -0.43623346 0.11060536 -0.3085636
000310 66 1d d9 3e 6d 11 4f bf 3e 60 8a 3f 0c b4 9f be
       0.42405242 -0.80885965 1.0810621 -0.31192052
000320 89 90 42 3e 18 d2 81 bc 19 dc 99 3f 67 7c d7 be
       0.19000448 -0.01584725 1.2020293 -0.420871
000330 e4 7e 21 3f e2 4f 50 3f 56 b2 5f 3d 0b a0 26 bf
       0.63084245 0.8137189 0.054613434 -0.65087956
000340 44 f0 98 be 8e a4 3c be fa c2 56 3f 5c 57 26 3e
       -0.29870808 -0.18422148 0.8389126 0.16244262
000350 cc 8b 47 3f f2 ff 2d bf cf f6 1f bf 52 47 9b bf
       0.7794769 -0.67968667 -0.62485975 -1.213114
000360 b9 19 68 bf 89 34 50 3f 4d b9 8b 3f da 4e 6c 3f
       -0.9066425 0.8133016 1.0915924 0.9230782
000370 a7 9b 20 3f 08 9b 0f be a0 bc c9 3f 5b 32 ad be
       0.62737507 -0.14023983 1.5760689 -0.3382748
000380 b5 56 98 bf 85 52 15 be c1 ce 65 3d 7c 4e 8e 3e
       -1.1901461 -0.1458226 0.05610538 0.27794254
000390 bd e3 4c 3f b8 93 3b bf 7f 73 cd bf 06 be 33 3f
       0.80035 -0.73272276 -1.6050872 0.7021183
0003a0 4b 33 5b 3f 88 49 99 be b4 da 00 40 8d 6e 52 3f
       0.8562514 -0.29938912 2.0133486 0.8219994
0003b0 ba bb b1 3f fa 6a 8a 3f 0c 80 f1 bd be 1a ac bf
       1.3885415 1.0813897 -0.11792001 -1.3445661
0003c0 1a 54 8d 3e f2 0d 30 3f 01 f0 f2 be 21 6c 6e bf
       0.27603227 0.6877128 -0.47448733 -0.9313374
0003d0 00 f3 1b 3e 57 d8 1e 3f 15 b9 4a bf 13 d1 48 3e
       0.15229416 0.6204886 -0.7918866 0.19611005
0003e0 28 78 c7 3e ad c5 82 bf 4a 6b 54 bf 6b 43 58 3f
       0.3895886 -1.0216576 -0.8297621 0.8447787
0003f0 36 b5 00 3f ec b8 20 be bf 05 9c 3d 1b 8c ae be
       0.50276506 -0.15695542 0.076182835 -0.34091267

actor.4.bias f4 [122]
000000 92 0a 43 c0 af c8 eb bf 86 03 43 c0 58 c3 05 c0
       -3.0475202 -1.8420619 -3.04709 -2.0900478
000010 48 08 37 3f 08 33 41 c0 85 c7 f0 bf 03 0f 0a 3f
       0.7149701 -3.0187397 -1.8810889 0.53929156
000020 4e 25 45 c0 24 64 28 c0 9b 11 1f 3f b5 48 24 c0
       -3.080402 -2.631112 0.6213624 -2.5669377
000030 56 12 28 c0 36 05 fa bf ee 67 1e c0 62 1d 2e c0
       -2.6261191 -1.953284 -2.4750934 -2.7205434
000040 ea 3f 07 c0 d3 27 e5 bd de 57 33 c0 1c be 95 bf
       -2.113276 -0.111892365 -2.802238 -1.1698642
000050 4c d6 90 bf 5d 3f 2a c0 1f aa df 3e ed e4 31 c0
       -1.1315398 -2.6601174 0.4368448 -2.7795975
000060 99 52 57 c0 45 4a 2f c0 e5 3f 3b bf 74 c4 23 bf
       -3.3644164 -2.738908 -0.7314437 -0.6397164
000070 d2 17 d6 3e a9 bc 2c bf 0c 21 3a bf cc 0c 60 bf
       0.41815048 -0.6747537 -0.72706676 -0.87519526
000080 85 55 34 c0 8e 3c b0 be 00 ad 30 c0 01 4e 4f c0
       -2.8177197 -0.344212 -2.760559 -3.239136
000090 c6 15 4e bf 4b 15 83 bf 35 e6 c3 bf e5 9b 1b 3f
       -0.80501974 -1.0240873 -1.5304629 0.6078475
0000a0 18 c8 f2 be c7 b3 35 c0 3b c2 65 bf 93 bb c6 bf
       -0.47418284 -2.8390977 -0.897495 -1.5525993
0000b0 70 64 1f c0 93 1f df bf b0 73 ac be 4b e0 4d c0
       -2.4905052 -1.7431511 -0.33682013 -3.2168148
0000c0 6a 8e 17 bf 1a 15 09 3f 95 62 a3 3e fa 34 33 c0
       -0.5920168 0.53547823 0.3191115 -2.8001084
0000d0 0d f7 fb 3e c6 7b 23 bf 16 db 81 bf 20 49 d3 3e
       0.49211922 -0.6386074 -1.0144985 0.41266727
0000e0 c6 d0 1f c0 c6 0d 50 bf 08 58 6a bf d5 48 47 c0
       -2.4971175 -0.81271017 -0.91540575 -3.1138203
0000f0 fd d8 3c c0 dd d4 da 3c de 06 8f bf c1 66 2c bf
       -2.950744 0.02671283 -1.1173971 -0.6734429
000100 ec 1a 99 bf db 29 b9 bf 2d 3b 84 bf e1 58 3b c0
       -1.1961341 -1.4465898 -1.0330559 -2.9272997
000110 d3 e1 a9 be 8c 3d fb be 8d 8e c1 bf 3c dc 10 c0
       -0.33180103 -0.49070394 -1.5121628 -2.263442
000120 ad e4 29 3c 27 6b 7a bf e6 79 d3 bf 07 1e 2a c0
       0.010369462 -0.9781975 -1.6521575 -2.6580827
000130 89 50 10 c0 67 b9 17 c0 42 d1 01 c0 a8 a2 e4 3e
       -2.2549155 -2.370691 -2.028397 0.44655347
000140 91 1e 37 c0 61 12 3f bf 0c 2f 95 bf 52 fc 34 3f
       -2.8612406 -0.7463742 -1.1654983 0.7069751
000150 57 d1 a1 bf 3a 54 23 c0 16 70 23 bf bf 4d 42 bf
       -1.264201 -2.5520158 -0.63842905 -0.7589988
000160 03 74 05 3f c5 1e 0b 3f c7 24 f8 3e a2 61 fc 3c
       0.52130145 0.54343826 0.4846556 0.030808274
000170 b1 74 b4 bf cb 7e 08 bf 6f b9 ca 3e 6e d7 3a 3f
       -1.4098111 -0.5331847 0.395946 0.7298497
000180 c8 94 0c c0 e9 d6 3c bf fa 70 ff 3e 1b f3 2c c0
       -2.196581 -0.73765427 0.49890882 -2.702338
000190 db 63 8d bf ce 84 3c c0 80 90 3b c0 5c bb 20 c0
       -1.1046098 -2.9456058 -2.9306946 -2.5114355
0001a0 a7 2f a3 bf f8 ae 64 bf 6a d7 b4 3e 2c 86 58 bf
       -1.2748917 -0.8932948 0.35320598 -0.8457973
0001b0 96 be 10 c0 48 a8 35 c0 4d a8 1c c0 bf 8e 0c 3f
       -2.2616324 -2.838396 -2.4477723 0.54905313
0001c0 56 b1 ea 3e 1b 1a f9 bf f7 d1 9b bf 11 0b 91 be
       0.45838422 -1.9461092 -1.2173451 -0.28328755
0001d0 0d 95 e0 3e 36 82 13 3f 5a e8 21 c0 ef f3 d8 bf
       0.43863717 0.5762056 -2.5298066 -1.6949443
0001e0 c5 a2 13 c0 fb 91 55 c0
       -2.3068097 -3.337035

critic.0.weight f4 [64, 121]
000000 3d 2d c8 3e 95 b6 14 be 15 8d 90 3e f0 25 ba be
       0.39097014 -0.14522775 0.28232637 -0.3635707
000010 b2 ee ff 3e 1c 15 ff be 73 10 07 3f 33 e6 31 3e
       0.49986798 -0.49820793 0.52759475 0.1737297
000020 72 44 88 3c 74 aa f5 bc f0 d4 35 be f3 74 39 3f
       0.0166342 -0.029988505 -0.1775701 0.72444075
000030 b0 c1 13 bf f4 b4 32 3f 1c 66 d4 be a7 0b ca 3e
       -0.5771742 0.6980736 -0.41484153 0.39462015
000040 1a 9f 07 3f 72 07 08 3e 07 5b 3b 3f 13 d9 4d 3f
       0.52977145 0.1328409 0.7318577 0.80409354
000050 71 90 14 3e 13 8d c9 bd 1f b3 87 bc 5d 4a 1d bf
       0.14508225 -0.09841361 -0.016564904 -0.61441594
000060 38 1c 1f bc 47 01 c3 bd fa 20 86 be c3 ce 31 3e
       -0.009711318 -0.09521728 -0.26197034 0.1736403
000070 6d 3b a6 3e 63 c8 2e be 66 e5 b5 be c8 8e b0 be
       0.32467213 -0.17068629 -0.3552658 -0.34483933
000080 8f 7c df bd eb 60 26 bf 86 3d cc be c7 04 2f 3e
       -0.109124295 -0.64991635 -0.3989069 0.17091666
000090 3a 40 73 3e 01 9e 1e be 51 c0 f8 3e 84 32 c4 3e
       0.23754969 -0.15489961 0.48584226 0.3831979
0000a0 65 a5 65 3f 5d 81 30 3e fb 97 86 3f e5 1a 70 bf
       0.897055 0.17236848 1.0515131 -0.9379104
0000b0 d1 18 a0 be 97 ae 18 bb 3e 8e 24 bf 8d 59 84 3e
       -0.31268933 -0.0023297423 -0.64279544 0.25849572
0000c0 fe 9b 03 bf a5 4e f4 3e 81 11 89 3d 93 78 ae bd
       -0.514099 0.4771625 0.06692792 -0.085190915
0000d0 40 d8 20 bd 34 22 1f bf 55 3f 7e 3e 5e bd ff 3e
       -0.039268732 -0.62161565 0.24828847 0.49949163
0000e0 d1 be 91 be e5 07 e3 be 27 ed 2c 3f 26 8b 5b 3f
       -0.28465894 -0.4434196 0.67549366 0.857592
0000f0 d0 91 bd 3f a1 c4 2f 3f ec 83 25 3f b8 5a 3e 3f
       1.4810123 0.68659407 0.6465442 0.74357176
000100 d3 79 fc 3e 54 0d d6 be c3 3b 0b 3f b7 01 6e bd
       0.49311695 -0.41807044 0.54388064 -0.058107104
000110 53 e6 9b 3e 07 f3 4e be 12 d6 18 bd 48 27 98 bd
       0.3044916 -0.20209895 -0.03731353 -0.07429367
000120 36 23 ee 3e 2f c6 55 be 9c ae fd be 06 4b 06 3f
       0.4651124 -0.20876382 -0.4954728 0.52458227
000130 c8 17 e0 be 25 46 0c bf 9c 5c ce be 73 bb 8f 3e
       -0.43768144 -0.5479453 -0.4030503 0.280727
000140 5c 97 b0 3e 70 a0 88 3f de 98 b9 3e b3 60 09 3f
       0.34490478 1.0673962 0.3624944 0.53663176
000150 cf d0 1b bc c5 ee eb 3e 4e f9 87 be 3f dc e7 be
       -0.009510233 0.46080604 -0.26557392 -0.45285222
000160 6e 94 93 3d 05 b6 b1 bd b6 4b 5d 3e 4b fb 02 bf
       0.07206045 -0.086772956 0.21610913 -0.5116469
000170 47 8e 6f bf 0a dd 95 be 3a 88 0b 3f ec 72 89 bd
       -0.93576473 -0.29270202 0.5450474 -0.06711373
000180 ad 37 a6 3e 28 ad 02 bf 37 f3 01 3e 54 ef 7b 3f
       0.32464352 -0.51045465 0.12690435 0.9841206
000190 f5 02 13 3e 1d a1 58 bd e1 e6 b4 be 8a c7 f0 3e
       0.14356597 -0.052888025 -0.35332397 0.47027236
0001a0 9a 20 b6 3e 32 b2 40 be e2 d5 bb bd d6 12 ca 3d
       0.35571748 -0.18817976 -0.09171654 0.09866874
0001b0 b1 95 41 3d 49 72 7b be 9d 7e e3 be 88 2f bf be
       0.047261897 -0.24555315 -0.44432536 -0.3734095
0001c0 de 92 d2 3e d3 76 c0 bc 34 19 8c 3d eb c1 e7 be
       0.41127676 -0.02349416 0.068407446 -0.45265135
0001d0 6a 3d ff 3e 79 dd d7 3e 1b 22 26 be 89 ce 23 3f
       0.49851543 0.42161158 -0.16223948 0.6398702
0001e0 57 45 d5 be 7d a7 b0 3e 8c e2 4d 3e 72 b0 4b bc
       -0.41654465 0.34502783 0.20105952 -0.012432205
0001f0 72 5b 22 3f 8e b1 08 bf a6 8a e4 be 0c ab e2 3e
       0.63420784 -0.53395927 -0.4463703 0.44271123
000200 34 09 4b be 46 79 d4 bc 4a 54 a9 3c 3b ff 14 3d
       -0.1982773 -0.025936734 0.020670075 0.03637622
000210 cf 08 ee be 5f 62 1b 3e bd f4 fa be 2f 50 02 3e
       -0.46491095 0.15174244 -0.49014845 0.127259
000220 7d 85 00 3e 65 f3 48 be d1 b4 84 be 96 56 cf be
       0.12550922 -0.19624098 -0.25919202 -0.40495747
000230 af 1b 01 3e f4 5e f5 be 7c e2 30 3f b1 e7 e0 be
       0.12608217 -0.47924006 0.6909559 -0.43926767
000240 22 a7 0e 3f 88 68 6a 3e 92 5e 85 3e ac 76 31 3f
       0.55723774 0.22891438 0.26048714 0.69321704
000250 7e 16 91 3d 4b 63 71 be 69 42 00 bf d2 d6 93 3d
       0.07084368 -0.23573034 -0.50101334 0.07218708
000260 8d 69 af bc eb 37 96 3e 71 93 1c 3e 40 6a e8 3e
       -0.021412635 0.29339537 0.1529062 0.45393562
000270 e6 a1 a4 be 6f 18 4a bf 87 2b fc be 7b 9d 2a be
       -0.3215477 -0.7894353 -0.4925196 -0.16661637
000280 a2 d2 13 bf 29 d7 28 3d f1 b5 4c bf 00 4f 84 bf
       -0.57743275 0.041220818 -0.7996512 -1.0336609
000290 b1 fc 56 3f 81 86 4b 3e 22 45 6d 3f 91 e5 07 be
       0.83979326 0.19875528 0.92683613 -0.13271166
0002a0 3c 36 2f bf 82 ce 9f bf 3b 2a 2c be df b5 48 3c
       -0.6844213 -1.2484896 -0.16812985 0.012250393
0002b0 3f d1 08 3f 7f 7d 56 bf 81 13 fd be 7e f6 d1 3e
       0.53444284 -0.8378524 -0.49428943 0.4100837
0002c0 36 33 40 bf ab ea 94 3e 7b 1b 36 bf b5 a6 1c bf
       -0.7507814 0.29085287 -0.7113568 -0.61191875
0002d0 f2 78 3e bf aa 00 90 bf 81 a0 40 be 51 f2 0e bf
       -0.744033 -1.1250203 -0.18811227 -0.55838495
0002e0 3e 5d 3e 3e fc 6e 8d 3e 15 d2 11 3f 3a f6 39 bf
       0.18590257 0.27623737 0.56961185 -0.72641337
0002f0 9f 15 17 3e 28 fe dc be e6 8b ad 3e f5 46 46 3f
       0.14754342 -0.43162656 0.33895797 0.7745202
000300 43 2c 25 3f af 46 27 bf b1 e5 c1 3f ec a3 93 3e
       0.64520663 -0.6534223 1.5148221 0.28836
000310 64 06 c0 bd f1 dc 44 3e 23 5e 52 3f b9 1b 50 3f
       -0.09376219 0.19224907 0.8217489 0.812923
000320 33 16 4a 3f 4c 16 b2 be 2c 06 d2 be 80 55 df bd
       0.78940123 -0.34782636 -0.41020334 -0.1090498
000330 b6 e9 06 3f 73 bb c8 3e 20 68 8f bf e9 0c f5 3e
       0.52700365 0.39205512 -1.1203651 0.47861412
000340 c9 66 4c 3c e2 e7 02 bf 97 2a 7c bf ea 6e d6 bd
       0.012475678 -0.51135075 -0.98502487 -0.10470374
000350 78 5a e2 be 0e 6b c5 3e 53 0e b8 3e c9 16 c7 3d
       -0.44209647 0.3855824 0.3594843 0.09721143
000360 2c a6 4a bf 49 63 53 be d6 f9 a8 bd 29 14 33 bf
       -0.7915981 -0.20643343 -0.082507774 -0.69952637
000370 a1 34 f0 3d a6 d4 45 bf 68 56 64 3f 03 bf 8b 3c
       0.11728788 -0.772776 0.89194345 0.017058855
000380 5c 44 32 bf 83 34 94 3d 8f 46 e1 3e 0d 98 01 3f
       -0.6963556 0.07236578 0.43999144 0.50622636
000390 70 2e 25 bf ed 07 66 3e 89 6e 87 3d 03 f9 f7 3d
       -0.64523983 0.22463961 0.0661288 0.12108042
0003a0 3b 0c 40 3d f0 d4 f0 be c8 f7 89 3e 5a a7 52 3f
       0.046886664 -0.47037458 0.26946855 0.8228661
0003b0 47 4e 1a bf 30 93 37 bf 69 74 63 be a7 d7 c7 bd
       -0.6027569 -0.71708965 -0.22212376 -0.09757929
0003c0 2e 78 9b be ac 56 49 3f 31 c3 5b 3f 85 f5 94 be
       -0.30365127 0.78647876 0.85844713 -0.29093567
0003d0 e5 9f 9a be 56 bf 1f be 00 53 a3 be d5 f4 5b bf
       -0.30200115 -0.15600333 -0.3189926 -0.8592046
0003e0 ad 24 d3 3e 8f 61 86 be 1a bb 51 be 03 ab 0a bf
       0.4123892 -0.26246306 -0.2048153 -0.54167193
0003f0 7e 8f 24 bf 7b 68 01 bd e4 f1 bd 3e 78 bf 05 3f
       -0.6428145 -0.03159378 0.3709861 0.52245283

critic.0.bias f4 [64]
000000 72 f7 01 bf f8 7a 91 bf d6 c1 03 bf 09 f5 7d 3f
       -0.50768197 -1.1365652 -0.51467645 0.9920202
000010 20 34 85 3e 34 d4 3d bf a4 35 c1 3f 15 b0 81 be
       0.2601633 -0.7415192 1.5094495 -0.25329652
000020 d5 41 ca 3e 21 f6 93 bf a7 91 0d 3f 28 46 53 bf
       0.3950335 -1.1559488 0.5530037 -0.82528925
000030 a6 75 e9 3e f9 70 a8 3f 1a 85 04 bf 21 75 5b 3f
       0.4559757 1.3159477 -0.51765597 0.857256
000040 45 49 9e 3f d9 ec 13 40 95 12 69 3f d9 c5 4c bf
       1.236611 2.311331 0.9104398 -0.7998939
000050 87 a4 10 40 89 b2 11 3f bd ca 97 bf 92 e1 45 bf
       2.260042 0.5691305 -1.1858746 -0.7729732
000060 fc a3 95 be cc 1a bc 3f da 2e 0f 3e ae f6 a0 3f
       -0.29226673 1.4695678 0.13982716 1.2575281
000070 0c 01 65 bf 8c 2b 1c 40 3d f2 0b 3f ce b8 61 bf
       -0.8945472 2.440158 0.546665 -0.88172615
000080 33 15 47 3d 5b b2 96 bf 04 fc 1d 3f 16 5c e0 3f
       0.0486042 -1.177318 0.6171267 1.7528102
000090 bf d4 c3 bd 01 32 0b bf b0 a0 90 bf 4e d7 96 be
       -0.095620625 -0.54373175 -1.1299038 -0.2946114
0000a0 95 21 0e 3f ba 6f 4c bf a3 bf 80 be 2a c5 99 3b
       0.5551999 -0.7985798 -0.25146207 0.0046926932
0000b0 2e 3c e4 3f 93 93 4b 3f 85 a2 29 3f 78 3d 5f 3e
       1.7830865 0.79522055 0.6626361 0.21800792
0000c0 4e 44 a5 3f bf fc a8 bf 47 91 c7 3d 45 58 d3 bc
       1.291147 -1.3202132 0.09744506 -0.025798926
0000d0 7b 3b 0e 40 7a 9b 4b bf 29 f2 6d bf e5 43 f0 3e
       2.2223804 -0.79534113 -0.9294763 0.469268
0000e0 b7 4d aa bf 75 07 74 bf 5e e2 3a bf 31 bd 35 3f
       -1.3304967 -0.9532388 -0.7300166 0.7099181
0000f0 e1 2a 5b 3f 5d e9 c0 bf 75 d7 9a 3f cf 1d d6 3f
       0.85612303 -1.5071217 1.2097002 1.6727847

critic.2.weight f4 [64, 64]
000000 ca c9 0a bf be 8f d8 be d3 0a 9d 3f 5c f5 40 bd
       -0.54214156 -0.42297167 1.2268928 -0.047108993
000010 03 31 c1 3e 3a 55 71 bf 70 f3 8f bd 35 3c 04 bf
       0.37732705 -0.9427067 -0.07028854 -0.5165437
000020 b2 d5 2d 3e 8f 71 1f be 7a e9 82 3e a3 5e 14 3f
       0.1697605 -0.15570663 0.25568753 0.57956904
000030 bc 61 80 be b1 cf e5 be db 7c e1 3d 28 e8 57 bf
       -0.25074565 -0.44885018 0.110101424 -0.8433862
000040 25 e3 2c 3f 2b 2e b2 bf d3 5a e9 be f6 a1 04 3f
       0.67534095 -1.3920339 -0.45577106 0.5180963
000050 3c 5a 17 be b2 5c e8 bb 9c a3 8c 3e 01 f8 a9 bc
       -0.14780515 -0.0070911283 0.27468574 -0.02074814
000060 4b b5 b3 bf 13 3c c1 3e 7d cb 6d bd 13 39 d2 be
       -1.4039701 0.37741145 -0.05805539 -0.4105917
000070 05 5f 01 3f be 3a 06 bf 9a 5e 58 be 5c 5b 81 3e
       0.50535613 -0.52433383 -0.21129838 0.25265014
000080 ff 64 cb be 95 9d e3 3e ad 6f 4d be 64 b9 19 bf
       -0.3972549 0.44456163 -0.20062132 -0.6004851
000090 8e 7a 19 3e e2 de 3d 3e 36 f5 8e bd ed 5e b9 3e
       0.14988157 0.18542054 -0.06980364 0.36205235
0000a0 14 6f a0 bf 97 96 0b 3e 94 86 ff bc 9c 05 3f 3e
       -1.2533898 0.13631664 -0.031192102 0.18654484
0000b0 43 25 52 bf 25 3a 69 3e bd 33 14 bf c4 65 51 3e
       -0.82088107 0.22776087 -0.57891446 0.20448977
0000c0 b8 91 ac 3e 46 e2 88 3d e3 67 41 bd 27 35 e7 3e
       0.33704925 0.06683783 -0.047218215 0.4515774
0000d0 0c 51 9c 3d c9 d1 8b 3f 5b 51 9b 3e fd da ca 3d
       0.07632646 1.0923396 0.30335507 0.0990505
0000e0 1d c6 d9 3b a2 28 a2 3c dc ce a5 3c b1 d4 ae 3e
       0.0066459314 0.019794766 0.02024024 0.34146646
0000f0 a0 a6 21 3f aa e0 8c 3f 2c ce 7a 3e 34 08 83 be
       0.63144875 1.1006062 0.24492711 -0.25592196
000100 b8 b8 d2 be e0 fa 0d bf cc e7 42 3f c2 da 7c be
       -0.41156554 -0.5546093 0.76134944 -0.24692824
000110 0b c3 ac 3f c5 1d 3e be 4c 03 93 3e e4 1d f0 3d
       1.3497022 -0.18566044 0.28713453 0.11724451
000120 92 98 8b 3c 42 af ab 3e 44 5a ab be b0 63 34 bf
       0.017040525 0.3353215 -0.33467305 -0.7046461
000130 13 aa ad bf be 9e 46 bf a6 47 1c 3f e5 53 00 3e
       -1.3567528 -0.7758597 0.61046827 0.12532003
000140 70 a7 9e 3d 33 d0 ff be 5c 14 f6 3d c8 df fb 3d
       0.0774678 -0.4996353 0.12015602 0.12298542
000150 da 95 59 3e d5 15 02 bf af 8a 62 bf b8 cf ba 3f
       0.2124857 -0.50814563 -0.88492864 1.4594641
000160 8a 16 d4 3e 68 43 ca bc e4 46 c2 bc 78 89 6c bf
       0.41423446 -0.024690345 -0.023715444 -0.9239726
000170 0c a9 ca be 59 22 fb be 06 1d 48 be 1c 8c a1 3f
       -0.39582098 -0.49049643 -0.19542322 1.2620883
000180 08 02 db 3e 36 b8 01 bf 9a d4 d8 3e 1c b6 ee be
       0.42774987 -0.5067171 0.42349702 -0.46623313
000190 6b 2b f4 3c 8c b9 1f bf 1b 78 43 3f 2f cd 49 3e
       0.02980586 -0.623925 0.7635514 0.19707178
0001a0 9d 7f d9 3e 03 f8 00 3f fe ff 97 bd 28 97 14 be
       0.42480174 0.50378436 -0.074218735 -0.14510787
0001b0 c9 da 9d be e6 fe 9b 3d 7f 0c 7d bf b3 5f 16 3f
       -0.30830982 0.076169774 -0.9884719 0.58739775
0001c0 01 82 da be 34 33 d7 be 41 e7 72 bf 4d b7 61 3f
       -0.4267731 -0.42031252 -0.94884115 0.8817032
0001d0 df 9c 36 bf f0 52 e4 3e 7a fe 7b be ef 54 a6 bd
       -0.71333116 0.44594526 -0.24608794 -0.081216685
0001e0 ba 86 ed be 4c 51 3e 3f 27 f8 81 bd b4 63 11 bf
       -0.4639185 0.743428 -0.063461594 -0.5679276
0001f0 8d 00 5d 3f 43 ce 6d 3d 22 0b cd be fe 1b 27 bf
       0.86328965 0.058058035 -0.40047556 -0.6527709
000200 00 a8 06 bd 90 07 1a bf 59 8a 91 3e 22 d1 d0 be
       -0.03287506 -0.6016779 0.28425863 -0.40784556
000210 74 6b ba 3e 2e 77 cf bd dd 6f 28 3f f4 7c ac bd
       0.36410105 -0.101301536 0.6579569 -0.084222704
000220 47 07 58 3f 5f 05 1c 3e da a7 1c 3e f2 24 4e bf
       0.84386104 0.15236424 0.15298405 -0.80525124
000230 e6 53 f4 3e ef 1e 1f 3f 7b c0 88 bd 3c f9 54 bf
       0.4772026 0.62156576 -0.06677338 -0.831928
000240 33 fd ab 3e 6a 82 06 3f 09 b1 39 be d0 77 02 bf
       0.33591613 0.52542746 -0.1813394 -0.5096407
000250 8a a5 77 3f 33 0e a3 bd 62 cf 0c be 0a 21 88 be
       0.9673697 -0.07961693 -0.13750985 -0.26587707
000260 dc 2b 80 3e 54 27 79 be f6 89 bc bf 19 97 22 3e
       0.25033462 -0.24331409 -1.4729602 0.15877952
000270 29 53 fc 3b 48 8d 76 3d bc ef 0a 3f e3 f7 90 be
       0.007700343 0.06019333 0.54272056 -0.28314123
000280 97 f8 e9 be ad 5f e4 be 0e e7 26 3f fd 28 76 be
       -0.45697471 -0.44604245 0.6519631 -0.24039073
000290 5c aa 98 bf e3 02 44 3d 70 fa 0a be 0f ce d5 3d
       -1.192699 0.047854315 -0.13572097 0.10439693
0002a0 54 95 0b 3d 5e f8 14 be af ef 25 be 2a 41 29 bf
       0.034077957 -0.1454787 -0.16204713 -0.6611506
0002b0 f4 94 65 3e 3f dc 2f bf 1f ae 55 3e 48 a1 c1 be
       0.22420102 -0.68695444 0.20867203 -0.3781836
0002c0 bd ec d4 be 74 09 5d be 9c b5 4a 3e 4c ba 0e be
       -0.41586867 -0.21585637 0.19795841 -0.13938254
0002d0 1d 88 b2 3d a0 02 04 bf 20 a7 42 bf 05 e7 6b bf
       0.08717368 -0.51566505 -0.7603626 -0.9214938
0002e0 ab 29 87 be 07 22 0c 3e c4 af 31 be 3f 59 91 3e
       -0.26398978 0.13684855 -0.17352206 0.28388402
0002f0 d1 eb 17 be b9 b7 5b be 29 39 54 bd bf 9e 06 3e
       -0.1483605 -0.21456803 -0.051812325 0.13146494
000300 2b 2e dd be 27 ea d7 be 62 f6 68 3e 12 3f 44 3e
       -0.43199286 -0.42170832 0.22750238 0.19164684
000310 1a ca 85 be 52 fc e7 3c 9d 5c d2 3e 82 7d 80 bf
       -0.26130754 0.028318558 0.41086283 -1.0038302
000320 44 28 dd 3e 72 87 9a bd 3c 55 55 3f 7f c3 c7 be
       0.43194783 -0.075453654 0.8333318 -0.3901634
000330 d9 4a 95 be 74 56 96 3f 08 60 92 bf cb 17 2f 3f
       -0.29158667 1.1745133 -1.1435556 0.6839568
000340 31 8e 10 3f 88 8a 40 3f e6 2f 9f 3e 7b dd ad bd
       0.56466967 0.7521138 0.3109123 -0.0848951
000350 eb d6 77 be b0 b3 88 3e 55 3a 8c bd cd e1 0a be
       -0.24203078 0.2669959 -0.068470635 -0.13562699
000360 39 0f b9 be f6 60 65 3f ba f5 96 be ec ef 95 3f
       -0.36144426 0.89601076 -0.2948435 1.1713843
000370 0f 61 72 be b5 e1 e2 3e df 79 96 3e 17 64 93 3f
       -0.23669837 0.44312826 0.29389855 1.151492
000380 b6 9e ed be 81 a0 7f bf f5 51 52 3f e3 f4 59 be
       -0.4641015 -0.99854285 0.82156307 -0.21284823
000390 bf 9c e5 3d 74 e8 18 bf 28 b0 61 3e 05 67 5a bd
       0.112115376 -0.59729695 0.22039855 -0.053320903
0003a0 60 c4 10 3f ea 01 d7 bd 2b f5 0f 3f 53 6a 89 be
       0.56549644 -0.10498412 0.5623347 -0.2683893
0003b0 ee 63 0f 3f fd 2f e0 3e f1 6e 58 3f 9f 24 0e 3e
       0.56011856 0.43786612 0.84544283 0.13881157
0003c0 84 d7 a8 bd da d6 52 be e0 14 6a bc 4b 5c ca be
       -0.08244231 -0.20589772 -0.014287204 -0.3952354
0003d0 fd 9d a5 bd 94 74 52 3f a3 fe 33 bf 1c b3 b4 3e
       -0.080867745 0.82209134 -0.7031042 0.352929
0003e0 b8 06 e4 be 0a 0d bf 3e 40 37 0f be 14 df 8c 3e
       -0.44536376 0.37314636 -0.1398592 0.27513945
0003f0 b1 f4 32 3e 02 00 17 3f 0e 4a 80 3e 8f cf 6e be
       0.17476155 0.58984387 0.250565 -0.23321365

critic.2.bias f4 [64]
000000 31 4c 99 bc 1c eb 49 be 51 6f e4 bc 16 4b a4 bd
       -0.018713089 -0.19718593 -0.027885111 -0.08022134
000010 86 cb 8d be ef 29 84 3d a9 6c 7e 3e 1f 40 09 3e
       -0.2769434 0.06453311 0.24846138 0.13403367
000020 54 8c b7 3e b1 00 b6 be d8 23 6a 3e fe 5a 77 ba
       0.3584925 -0.35547403 0.22865236 -0.0009435861
000030 8e d4 89 3d 20 f4 3a 3e 9e c3 16 3e b2 ae a2 be
       0.06729995 0.18257189 0.1472306 -0.31773907
000040 4c 95 07 3f 42 1e c3 3e 01 b1 bd bc 35 34 10 3e
       0.52962184 0.38109022 -0.023155691 0.14082415
000050 be a2 5c bf 6a 26 f3 be 9f b7 48 be 53 d7 04 3e
       -0.86185825 -0.47490245 -0.19601296 0.12972765
000060 1b c5 5b bd c0 97 7e 3e 76 29 be be 4b 9c 89 be
       -0.05365477 0.24862576 -0.37141007 -0.26877055
000070 bc 9e 3b be a0 4c 3e bf 7f d1 dd 3e d4 04 43 3e
       -0.18322271 -0.7433567 0.43323895 0.1904481
000080 a5 1e 94 3b f0 94 5b be c6 36 0e 3f 2e eb f7 bc
       0.0045202547 -0.21443534 0.5555233 -0.03026351
000090 f0 68 d2 bd 8f e5 4c be ca 62 00 bf ec 68 e1 3e
       -0.102739215 -0.20009445 -0.5015074 0.44025362
0000a0 54 91 73 be 00 07 c3 bc 72 62 ea 3e b4 e3 06 3d
       -0.23785907 -0.023807049 0.45778233 0.032932
0000b0 b2 3a 02 3f 62 b3 da bc 48 f0 3e be 0f b7 35 3e
       0.5087081 -0.026696865 -0.18646348 0.17745613
0000c0 ff a6 0c be c6 08 e8 be 5b 9b ed 3e 68 27 56 3e
       -0.13735579 -0.45319194 0.4640759 0.2091347
0000d0 38 94 98 3e dd 18 16 3e 40 74 8f bd 73 98 02 3e
       0.29800582 0.14657922 -0.07004595 0.12753467
0000e0 fa e7 a3 3e eb 0a d4 bc 27 8b 87 bc af 5b f4 3e
       0.32012922 -0.025884112 -0.016545845 0.477262
0000f0 13 1f 01 be ba de 29 bf aa 99 4b be 16 7a 80 be
       -0.1260951 -0.6635548 -0.19882837 -0.25093144

critic.4.weight f4 [1, 64]
000000 b2 a1 5d be 67 8c 80 3f 5f 2a 67 3f bd 70 24 bf
       -0.21643713 1.0042847 0.9029903 -0.64234525
000010 a6 82 6f 3e 74 bf 42 3f fb 97 83 3f cc 28 9c 3f
       0.23389682 0.76073384 1.0280756 1.219995
000020 89 4e 9b 3d 9e 49 43 bf 27 14 b2 3d 48 24 85 3f
       0.07583339 -0.76284206 0.0869525 1.0401697
000030 22 e2 32 3f d4 8b 91 bd f8 41 c8 3e 1e cb a3 bf
       0.698763 -0.07106748 0.3911283 -1.2796361
000040 be 69 c5 3f 49 d2 ca be d7 a2 61 3e 98 05 5b 3b
       1.5422895 -0.3961356 0.22034775 0.0033420082
000050 b8 81 8c bf 43 31 b3 bf 0e 46 92 3e 5e e6 cb 3e
       -1.0977087 -1.3999408 0.28569072 0.39824194
000060 f5 7e 40 3e ae 38 83 3f 6c e2 59 3e 8a b1 15 bf
       0.1879843 1.0251672 0.2127778 -0.5847403
000070 f6 c0 85 bf fb 6d 0e c0 d9 af 22 3f 23 a0 4a bf
       -1.0449512 -2.2254627 0.6354957 -0.791506
000080 12 97 e6 be 8f 80 3f 3e 2a 90 57 3f 5a 18 65 3e
       -0.45037133 0.18701385 0.8420435 0.2237257
000090 f4 f9 85 bf a2 ab 39 3e de 2f 82 bf 2e 48 1e bf
       -1.0466905 0.18131879 -1.0170858 -0.6182889
0000a0 ba 6d ce bf 10 ec 8a bf d5 61 35 bf 04 c6 09 bf
       -1.6127236 -1.085329 -0.70852405 -0.5381777
0000b0 68 04 59 be 5e c9 ca be d9 4a 86 bf f7 c2 9c 3e
       -0.21193087 -0.39606756 -1.0491592 0.30617496
0000c0 c1 b0 a7 be 02 6c 55 bf 23 f7 c3 3f b9 d2 17 be
       -0.3275204 -0.8336793 1.5309795 -0.14826478
0000d0 ca 7a dc 3d 9f ca 4f 3f 58 53 0a 3f 44 29 b1 3f
       0.10765608 0.8116855 0.5403342 1.3840718
0000e0 8b 18 67 3f fe ea fd 3e 07 8f 44 bf ce 86 97 3f
       0.90271825 0.49593347 -0.7678074 1.1838014
0000f0 ab 39 cb 3e 32 9b 7c bf 7e 64 98 be be f1 a3 3e
       0.39692435 -0.9867431 -0.2976417 0.32020372
