ppo_checkpoint_final.pth (torch, 664018 bytes, 55 tensors)

actor.0.weight f4 [64, 121]
0	0x3eacb2c0	0.33730125
1	0x3ecc459a	0.39896852
2	0xbd830a73	-0.063984774
3	0x3e9bdfc5	0.3044416
4	0x3f82ffdb	1.0234331
5	0x3f3b21db	0.73098534
6	0x3e9b76b2	0.30363995
7	0xbe720eb5	-0.23638423
8	0x3e255bcb	0.16148297
9	0x3fb23d42	1.3924944
10	0x3f3791f0	0.7170706
11	0x3f29fc77	0.66400856
12	0x3edbd4b1	0.42935708
13	0x3d658c0c	0.056041762
14	0x3de4a09d	0.11163447
15	0x3d8bd44c	0.06827602
16	0x3eefa408	0.46804833
17	0xbe8f770b	-0.2802051
18	0x3f00d1da	0.5032021
19	0xbe8b4649	-0.2720206
20	0x3ea851b7	0.32874843
21	0x3dabec82	0.0839472
22	0x3e0c72dd	0.13715692
23	0xbcfd81fa	-0.030945767
24	0xbe4007db	-0.18752997
25	0x3e08ab00	0.13346481
26	0xbf126e8c	-0.5719993
27	0xbf5b84c1	-0.8574944
28	0x3f03aff7	0.51440376
29	0xbdb84ff3	-0.08999624
30	0x3c5c1f32	0.013435172
31	0x3ecca4cb	0.39969477
32	0xbf038671	-0.51377016
33	0x3f28b0c5	0.6589473
34	0x3f21dac6	0.63224447
35	0xbf50c32d	-0.81547815
36	0x3eedf32f	0.46474597
37	0x3ea1ba83	0.3158761
38	0xbf255dff	-0.6459655
39	0x3eec5ba3	0.46163663
40	0xbec73f54	-0.38915503
41	0x3efbf648	0.49211335
42	0x3dd29240	0.10281801
43	0x3f08933a	0.5334965
44	0xbd8d316e	-0.068941936
45	0x3b61e914	0.00344712
46	0xbe05bcd3	-0.13060312
47	0x3e997075	0.2996861
48	0xbb01abc4	-0.0019786218
49	0x3e88dcce	0.2673096
50	0x3ecd1d9c	0.40061653
51	0xbe154afa	-0.14579383
52	0xbdfa1b38	-0.12212223
53	0xbc97a034	-0.018509008
54	0xbed72878	-0.42023063
55	0xbdd30d23	-0.1030524
56	0xbeb98141	-0.36231425
57	0x3e807458	0.25088763
58	0xbd457533	-0.048207473
59	0xbe8d952f	-0.2765288
60	0xbf3f98d8	-0.74842596
61	0xbd9f2aac	-0.07771811
62	0xbe6ac9bd	-0.2292852
63	0xbea4b143	-0.3216649
64	0xbeb4c17f	-0.35303876
65	0x3e70cbf0	0.23515296
66	0x3ebbda01	0.3668976
67	0x3e244226	0.16040859
68	0xbcfe243a	-0.031023134
69	0x3ebf0d2e	0.37314743
70	0x3e41216d	0.18860407
71	0xbee80164	-0.4531356
72	0xbeec6f8f	-0.46178862
73	0x3e4d6994	0.20059806
74	0xbeaf0892	-0.34186226
75	0xbe6eea61	-0.23331596
76	0x3f48db1a	0.7845932
77	0x3e8348ed	0.25641575
78	0x3db01b32	0.08598937
79	0x3f8656cb	1.0495237
80	0xbed42554	-0.4143473
81	0x3e9ecd7e	0.31016153
82	0x3db9ba2c	0.090687126
83	0x3e9c7f58	0.30565906
84	0xbf330430	-0.69928265
85	0xbf116554	-0.5679524
86	0x3e973ba6	0.29537696
87	0x3e884b08	0.26619744
88	0x3f325cb9	0.69672734
89	0x3f43fd0d	0.76558
90	0x3f4b65f8	0.79452467
91	0x3ee68fcd	0.45031586
92	0xbca5eaaf	-0.020253507
93	0x3d7c5377	0.061603036
94	0x3ebb1b79	0.36544397
95	0x3ec734c0	0.38907433
96	0xbe844d14	-0.25840056
97	0xbd6be3de	-0.057590358
98	0x3ee0c5d9	0.43900946
99	0xbdb0486f	-0.086075656
100	0x3f167474	0.58771443
101	0x3f00512f	0.50123876
102	0xbd9e6d90	-0.07735741
103	0x3f10a078	0.56494856
104	0x3d3f4ab6	0.04670211
105	0xbd44de80	-0.048063755
106	0x3c28d273	0.010304081
107	0x3cd75c8a	0.026289243
108	0xbf545e90	-0.8295679
109	0x3f191b27	0.59807056
110	0xbf6a1b9e	-0.9144839
111	0xbc27f7cb	-0.01025195
112	0x3f02ab80	0.5104294
113	0x3d932650	0.07185042
114	0x3e4301c9	0.1904365
115	0x3f86babc	1.0525737
116	0x3cbba67c	0.022906534
117	0x3e7e0fc3	0.248107
118	0x3e420d4d	0.18950386
119	0x3e3a307a	0.18182555
120	0xbd953f8e	-0.07287513
121	0x3f960d1f	1.1722754
122	0x3e857551	0.26066068
123	0x3eae8109	0.3408282
124	0x3e7724ce	0.24135134
125	0xbeba4034	-0.36377108
126	0xbe6d6416	-0.23182711
127	0x3ec44bae	0.3833899
128	0xbeb81548	-0.35953736
129	0x3ec1cfc3	0.37853822
130	0xbef805b7	-0.4844186
131	0x3f2ffe9e	0.6874789
132	0xbd293337	-0.041308608
133	0xbf2e2159	-0.68019634
134	0xbf1b3477	-0.6062693
135	0x3cd2f157	0.025749845
136	0xbec08863	-0.37604055
137	0x3f2d0e99	0.676004
138	0x3e85ab4e	0.26107258
139	0xbd7b98a6	-0.061424874
140	0x3f27677d	0.65392286
141	0x3ee8ad81	0.45444873
142	0xbc25905f	-0.0101052215
143	0x3f8e2b15	1.1106898
144	0x3e6a6259	0.22889079
145	0x3f74fa26	0.95694196
146	0x3e9bc4d9	0.3042362
147	0x3ece4334	0.40285647
148	0xbdb4cf6a	-0.088286236
149	0x3ddcfd6d	0.10790525
150	0x3d36c176	0.044618092
151	0x3db5f96c	0.08885464
152	0xbfa733bb	-1.3062662
153	0x3f2f9dd6	0.68600214
154	0x3eb36a3b	0.35041985
155	0x3e054202	0.13013461
156	0x3ecbaad1	0.3977876
157	0xbeeaac8d	-0.4583477
158	0x3f4a1588	0.78939104
159	0xbbecea83	-0.0072301044
160	0x3f64f8fb	0.89442414
161	0x3e9bf94e	0.30463642
162	0x3f4c78d5	0.79871875
163	0x3edce748	0.43145204
164	0x3e82f1e6	0.2557518
165	0xbe64f8e6	-0.22360572
166	0x3f40ffd9	0.7539039
167	0xbe5f9bfb	-0.21836846
168	0x3e638b35	0.22221072
169	0x3f5158a2	0.8177587
170	0xbe915987	-0.28388616
171	0x3e65b4bd	0.22432227
172	0xbfe60482	-1.7970126
173	0x3f84002d	1.0312554
174	0x3be36804	0.00693989
175	0x3f81bb64	1.0135312
176	0x3fa788d2	1.3088629
177	0x3ea9be14	0.3315283
178	0x3d23b483	0.03996707
179	0xbed8bd81	-0.4233208
180	0xbf68238d	-0.90679246
181	0x3dee5eb9	0.11639161
182	0x3ea08391	0.31350377
183	0x3e1380d1	0.14404608
184	0x3f02813e	0.5097846
185	0x3e3c0037	0.18359457
186	0x3e55e626	0.20888576
187	0x3e772d50	0.24138379
188	0xbe4b82a0	-0.19874048
189	0xbf1f9f41	-0.6235238
190	0x3f745032	0.9543487
191	0xbea05e16	-0.31321782
192	0x3efd69e5	0.49494854
193	0x3f77e267	0.9682984
194	0x3f40b4c3	0.7527582
195	0xbe47c49c	-0.19508594
196	0x3e85d2b7	0.26137325
197	0xbd577da6	-0.052610062
198	0xbe490678	-0.19631374
199	0xbe01931a	-0.12653771
200	0xbe5fd40c	-0.21858233
201	0x3d252ef0	0.040327966
202	0x3e627694	0.22115546
203	0x3e879380	0.2647972
204	0xbd0d406c	-0.034485266
205	0xbe9f6922	-0.31134897
206	0x3d46e579	0.048558686
207	0xbda76653	-0.08173814
208	0xbece8b33	-0.40340576
209	0x3bee2bbd	0.0072683976
210	0x3e0d0ded	0.13774844
211	0xbcb6ce36	-0.022315126
212	0x3f84f40c	1.0386977
213	0x3f6baec6	0.9206356
214	0x3e924f78	0.28576255
215	0xbe66ab31	-0.22526242
216	0x3f893b2b	1.0721182
217	0xbf23ce01	-0.6398621
218	0x3e9338f6	0.28754395
219	0x3f0b582d	0.5443142
220	0xbef3719c	-0.47547615
221	0xbd7ec75e	-0.06220185
222	0xbf54a104	-0.8305819
223	0x3d3bd60f	0.04585844
224	0xbf3dd6b0	-0.7415571
225	0xbf98e76d	-1.1945626
226	0xbe30cf45	-0.17266567
227	0x3ea3766b	0.31926283
228	0xbd55b958	-0.05217871
229	0xbe5eb830	-0.2174995
230	0x3e5a53e2	0.21321061
231	0x3d8f7450	0.07004607
232	0xbf444f12	-0.7668315
233	0xbef322c3	-0.4748746
234	0xbddfc71a	-0.109266475
235	0xbe5a961d	-0.21346326
236	0x3e88ceb1	0.26720193
237	0x3f21dcfd	0.63227826
238	0x3e2f55f5	0.17122634
239	0xbefdb2d8	-0.4955051
240	0x3c7e268c	0.01551212
241	0x3eb09566	0.34488982
242	0xbeedf012	-0.46472222
243	0xbc1f6470	-0.009728536
244	0x3e85406a	0.26025707
245	0x3d153d04	0.036435142
246	0xbec894e3	-0.39176092
247	0x3e4cf71e	0.20016143
248	0xbdf7b21d	-0.12094519
249	0xbeb3837a	-0.35061246
250	0xbecbd4f2	-0.39810902
251	0xbe977ba2	-0.29586512
252	0xbe26632a	-0.16248766
253	0x3e9702d1	0.29494336
254	0x3e8b2c22	0.27182108
255	0x3c731cad	0.01483838

actor.0.bias f4 [64]
0	0x3ed65264	0.41859734
1	0x3f32cf8d	0.6984795
2	0xbfd447b0	-1.6584377
3	0xbfaf234c	-1.3682647
4	0x3fe7e57a	1.8116906
5	0xbfa2d5aa	-1.2721455
6	0xbf1fb17e	-0.62380207
7	0xbfddabec	-1.7318091
8	0xbf851a4d	-1.0398651
9	0x3f863e13	1.0487694
10	0xbfe7a3e5	-1.8096892
11	0xbfaa656e	-1.3312204
12	0xbeeb7734	-0.45989382
13	0xbdc34b94	-0.095359
14	0x40484bf5	3.129636
15	0x3efd0365	0.49416652
16	0xbf4363f3	-0.76324385
17	0x3db7f890	0.089829564
18	0x3f37f788	0.7186208
19	0x3fd1a74c	1.637918
20	0x3f9a2b1e	1.2044408
21	0xbf925efd	-1.1435238
22	0xbf7545cf	-0.95809644
23	0xbecf0a49	-0.40437534
24	0x3f5b3ae4	0.85636735
25	0xbdbd0ec7	-0.09231334
26	0x3f91688e	1.1360033
27	0x3f1a3f28	0.6025262
28	0xbf6423fb	-0.891174
29	0xbfc74097	-1.5566586
30	0x3fc30404	1.52356
31	0x4005ca0f	2.0904577
32	0x3f918eb5	1.1371676
33	0xbfc0568e	-1.5026414
34	0xbf3fe067	-0.74951786
35	0x3fa11477	1.258437
36	0x3f0afb2d	0.54289514
37	0xbf7ed034	-0.9953644
38	0xbf73a9c0	-0.9518089
39	0xbfa730f0	-1.306181
40	0x3f67d8bd	0.9056509
41	0x3fcec3ce	1.6153505
42	0xbf8d5b6c	-1.1043525
43	0xbf0b0477	-0.5430369
44	0x3e32747c	0.17427248
45	0x3fbd249f	1.4776801
46	0x3f7ebac7	0.9950375
47	0x3fc1933f	1.5123061
48	0xc0039d91	-2.056492
49	0x3f7af043	0.9802286
50	0xbe92c1a4	-0.2866336
51	0x3f45ff74	0.77342916
52	0xbf192eba	-0.59836924
53	0xbf0d80b9	-0.5527454
54	0x3fcc46f8	1.5959158
55	0xbfcfa054	-1.6220803
56	0xbf9b4de6	-1.2133148
57	0xbfaf2240	-1.3682327
58	0xbf3d3456	-0.73907983
59	0xbf4154de	-0.7552012
60	0x3fa074c2	1.2535632
61	0x3fa9d3a1	1.3267709
62	0xbf22f1ee	-0.63650405
63	0xbf3f5dc8	-0.74752474

actor.2.weight f4 [64, 64]
0	0xbe7bb7f7	-0.24581896
1	0xbe83461a	-0.2563942
2	0xbef21271	-0.47279695
3	0x3e14578a	0.14486519
4	0xbc6b29ed	-0.014353258
5	0x3eab2145	0.3342382
6	0x3e857f43	0.26073655
7	0x3e243f30	0.16039729
8	0x3e831af9	0.25606516
9	0xbe3945a2	-0.18092969
10	0x3f3340aa	0.70020545
11	0x3f2cfa4a	0.6756941
12	0xbebc737f	-0.36806867
13	0xbf5c79f2	-0.86123574
14	0xbdb1e91e	-0.08687042
15	0xbdbf27f0	-0.09333789
16	0x3e192fcd	0.14959641
17	0x3f15617c	0.58351874
18	0x3f87853a	1.0587533
19	0xbe30a16f	-0.17249082
20	0xbe9d895f	-0.30768868
21	0x3f028cd2	0.50996125
22	0xbd459709	-0.04823974
23	0x3e005839	0.12533654
24	0xbe0fb50d	-0.14033909
25	0x3e7e7ce7	0.24852334
26	0xbe237595	-0.15962823
27	0xbdcb275c	-0.099196166
28	0x3f0638b4	0.5243027
29	0x3f4f2638	0.8091769
30	0xbe6c1955	-0.23056538
31	0xbf5fd3b9	-0.8743244
32	0xbf49566f	-0.7864751
33	0xbd302b0a	-0.043009795
34	0x3e3619e0	0.17783308
35	0xbf0d7aed	-0.55265695
36	0x3ed3f92c	0.4140104
37	0xbc0d15eb	-0.008611183
38	0xbe52d3b8	-0.20588577
39	0x3f738dda	0.95138323
40	0x3e45435a	0.19263974
41	0xbebf834a	-0.37404853
42	0x3edd15f2	0.43180805
43	0x3e62aba5	0.2213579
44	0xbdd60d1e	-0.10451721
45	0xbee0c184	-0.4389764
46	0x3d4f7c27	0.05065551
47	0xbeb722f9	-0.3576887
48	0x3e24f550	0.16109204
49	0x3e66c991	0.22537829
50	0xbd8557ee	-0.06510912
51	0xbf15d322	-0.5852529
52	0x3eeb6dfd	0.45982352
53	0x3ec7a3da	0.38992196
54	0xbe9f4511	-0.3110738
55	0xbd541e4b	-0.051786702
56	0x3f6ec8b2	0.93274987
57	0x3ed4fdcf	0.4159989
58	0x3e48f333	0.19624023
59	0xbebd75cb	-0.3700393
60	0xbec60ed8	-0.386832
61	0x3dce8c17	0.10085314
62	0x3de4cca1	0.11171842
63	0x3eba0f64	0.36339867
64	0xbe443fef	-0.19165014
65	0xbe97e812	-0.29669243
66	0x3ed451b7	0.41468593
67	0x3e0cecf2	0.13762262
68	0x3f69c469	0.91315323
69	0x3e797295	0.24360116
70	0x3ca35751	0.019939097
71	0x3e8e7e55	0.2783076
72	0x3ef9301a	0.4866951
73	0x3ed9a32b	0.425073
74	0x3edf8137	0.4365327
75	0xbe52515b	-0.20538847
76	0x3e83a8e0	0.2571478
77	0xbc3272c9	-0.010891625
78	0xbe93fdcd	-0.28904572
79	0x3d44e7bf	0.048072573
80	0xbc98e7bf	-0.018665193
81	0x3eb05cda	0.3444584
82	0x3ed0b6ff	0.40764615
83	0xbed857e7	-0.42254564
84	0x399dab29	0.00030072898
85	0xbf05ad27	-0.52217335
86	0x3cd187f2	0.02557752
87	0x3e4639ba	0.19357958
88	0xbdd1a192	-0.10235895
89	0x3db1b531	0.08677138
90	0x3f217821	0.6307393
91	0xbd224fc8	-0.039626867
92	0x3e5a9f32	0.2134979
93	0xbe05fa87	-0.1308385
94	0x3be32b48	0.0069326498
95	0xbf779538	-0.96712065
96	0x3ce1035c	0.027467422
97	0x3d5b10a4	0.053482667
98	0xbe9d7cdb	-0.3075932
99	0xbf056060	-0.5210018
100	0xbdfb082b	-0.12257417
101	0xbef30a0f	-0.47468612
102	0xbebe45bf	-0.37162587
103	0x3f2dd9d7	0.6791052
104	0x3da0533f	0.07828378
105	0x3e6cba22	0.23117879
106	0xbe7f6246	-0.24939832
107	0xbe75f167	-0.24017869
108	0x3eb28561	0.34867385
109	0x3eb282cd	0.34865418
110	0x3dc9caf3	0.098531626
111	0xbc4f94c9	-0.0126697505
112	0x3f34a8a0	0.705698
113	0xbdf26f62	-0.11837651
114	0x3e15a212	0.14612606
115	0x3eb4cd45	0.35312858
116	0x3e8ca123	0.27466688
117	0xbf23572e	-0.638049
118	0x3e62aca6	0.22136173
119	0xbebbc711	-0.36675313
120	0xbde91adb	-0.113820754
121	0xbe8d4adb	-0.27596173
122	0x3f36bb72	0.7137977
123	0xbdb026af	-0.08601128
124	0xbeeed858	-0.46649432
125	0x3d2ad4b9	0.041706774
126	0x3f3acedd	0.729719
127	0xbe007712	-0.12545422
128	0x3ee30c7a	0.44345456
129	0xbe3af104	-0.18256003
130	0x3ea57621	0.32316688
131	0xbef7efed	-0.48425236
132	0xbd0faa55	-0.03507455
133	0x3d02ab30	0.03190154
134	0xbede40d0	-0.43408823
135	0xbebfbf34	-0.37450564
136	0xbea9a4ee	-0.33133644
137	0x3edfd30a	0.43715698
138	0xbe0d7808	-0.1381532
139	0xbf128d5b	-0.5724694
140	0x3ead0e21	0.33799842
141	0xbef449b4	-0.4771248
142	0x3cc3deba	0.023909915
143	0x3f917c4d	1.1366059
144	0x3ce1f5df	0.02758306
145	0x3f10c15e	0.56545055
146	0x3f15e5e9	0.5855394
147	0x3d69c3bf	0.057071444
148	0xbd89944d	-0.06717739
149	0xbd98b901	-0.07457162
150	0xbc9a4f3d	-0.018836612
151	0xbe13641d	-0.14393659
152	0xbf291544	-0.66048074
153	0xbdcc1d51	-0.09966529
154	0x3f0f94d0	0.56086445
155	0x3f1c3d46	0.61030996
156	0xbf038830	-0.5137968
157	0x3d88646f	0.06659781
158	0x3d00e6cb	0.0314701
159	0x3e95415c	0.29151428
160	0x3e7f3a91	0.24924685
161	0xbe586fbc	-0.21136373
162	0xbeb06acd	-0.34456483
163	0x3f181e40	0.5942116
164	0xbf33c2aa	-0.7021891
165	0x3ec0a463	0.37625417
166	0x3e17fc86	0.14842424
167	0xbe6938a6	-0.22775516
168	0x3ee7f596	0.45304555
169	0xbec3d8b2	-0.38251263
170	0x3f39ad00	0.725296
171	0x3e6fa7ab	0.23403804
172	0x3f205291	0.62625986
173	0xbebd896d	-0.3701891
174	0xbe68fba7	-0.22752248
175	0xbc30bff1	-0.01078795
176	0x3f056e76	0.52121675
177	0x3d7c19b8	0.061547965
178	0xbe17538e	-0.14777967
179	0x3ebd02d4	0.3691622
180	0xbf1ceca3	-0.6129858
181	0x3e6ca1a5	0.23108537
182	0xbf134fb2	-0.5754348
183	0x3ec042be	0.3755092
184	0x3d941ec4	0.072324306
185	0xbe85f9b0	-0.2616706
186	0xbe8a0276	-0.26955003
187	0x3e7e6e03	0.24846654
188	0xbddead27	-0.1087287
189	0xbf3da627	-0.74081653
190	0x3ea8257d	0.328411
191	0x3ba47916	0.0050193174
192	0x3f504f47	0.8137097
193	0xbe819007	-0.25305197
194	0xbe6c5ebc	-0.23083013
195	0x3d6c1ff0	0.057647645
196	0x3dd33a23	0.10313823
197	0xbed7ac1d	-0.421235
198	0xbf0e1c7d	-0.5551222
199	0x3c887270	0.01665613
200	0xbe5479d6	-0.20749602
201	0xbe3eb393	-0.1862319
202	0xbf08806e	-0.5332097
203	0x3e74a2a0	0.23890162
204	0x3de97009	0.11398322
205	0xbb927c4b	-0.0044703833
206	0x3e2b8bce	0.1675255
207	0x3f48fe3c	0.7851293
208	0xbe9842d9	-0.297385
209	0x3f053646	0.5203594
210	0x3e237b97	0.15965115
211	0xbf228cab	-0.6349589
212	0xbe0ae2be	-0.13563058
213	0x3e0e110a	0.13873687
214	0xbf68068c	-0.9063499
215	0x3e81ec56	0.25375623
216	0x3ee7bc45	0.45260826
217	0x3d876906	0.066118285
218	0xbcf44a91	-0.029820712
219	0x3dd83399	0.105567165
220	0xbf08395f	-0.5321254
221	0xbe58338a	-0.2111341
222	0xbeb54704	-0.35405743
223	0x3f1c1279	0.6096569
224	0xbeba0ae2	-0.36336428
225	0x3dfeb400	0.12436676
226	0x3f009241	0.50223166
227	0x3db82e85	0.08993248
228	0x3f2e9322	0.68193257
229	0x3c6cb911	0.01444842
230	0x3e58d6be	0.21175668
231	0xbe97e11e	-0.29663938
232	0x3ed7a013	0.42114314
233	0x3dc360aa	0.095399216
234	0x3dbc2011	0.09185804
235	0xbf95673e	-1.1672132
236	0x3e6e796e	0.23288509
237	0x3dcb6f58	0.099333465
238	0xbe855139	-0.2603853
239	0xbba405da	-0.0050055804
240	0xbee439cd	-0.44575348
241	0xbdaad745	-0.08341841
242	0xbd890bdd	-0.06691716
243	0xbe883e03	-0.2660981
244	0xbea6d73c	-0.32586086
245	0x3f5db099	0.8659759
246	0x3ed3cf66	0.4136917
247	0xbe9ea472	-0.30984837
248	0xbe306711	-0.17226817
249	0x3f10e136	0.56593645
250	0x3e0f1058	0.13971078
251	0xbf802a18	-1.0012846
252	0x3d3c4e9f	0.045973416
253	0x3f109b70	0.5648718
254	0xbe842caa	-0.25815326
255	0x3f3e3099	0.74292904

actor.2.bias f4 [64]
0	0xbe84bfd6	-0.2592761
1	0xbe591711	-0.21200205
2	0xbc833f12	-0.016021285
3	0x3e1598dc	0.14609092
4	0x3e4c209f	0.19934319
5	0xbeb26370	-0.3484149
6	0x3eadd2bf	0.3394985
7	0x3d5b763f	0.053579565
8	0x3e15d53a	0.1463212
9	0xbd9d81b7	-0.07690757
10	0xbeca0eb2	-0.39464337
11	0xbe8565c9	-0.26054218
12	0x3eb56900	0.3543167
13	0x3d15ba08	0.036554366
14	0x3eb6694b	0.35627207
15	0xbbeb4746	-0.0071801273
16	0x3e9fed8f	0.3123593
17	0x3f0328e5	0.51234275
18	0xbda9a0ae	-0.082826
19	0xbe9afe2d	-0.30272046
20	0x3e5eb97b	0.21750443
21	0x3ed3b377	0.41347858
22	0x3e00c2fd	0.12574382
23	0x3e874c0e	0.26425213
24	0x3dd7c1c9	0.105350085
25	0x3e6e9e33	0.23302536
26	0x3e534797	0.20632778
27	0x3e2b34ea	0.16719404
28	0xbed09dd8	-0.40745425
29	0xbdd632c5	-0.10458902
30	0xbf096d2c	-0.5368221
31	0xbe3d1842	-0.18466285
32	0x3f070e99	0.5275665
33	0x3e2d166f	0.16903089
34	0xbd825c59	-0.0636527
35	0xbd51afe3	-0.05119313
36	0xbed98670	-0.4248538
37	0x3ed50a8b	0.41609606
38	0xbdea3875	-0.114365496
39	0xbe38537c	-0.18000597
40	0xbe9a1d00	-0.3010025
41	0xbe673ccc	-0.22581786
42	0xbf2ce67c	-0.6753919
43	0xbe8c8f75	-0.274532
44	0xbf0d347f	-0.5515823
45	0x3d992353	0.07477441
46	0x3ecf6c46	0.40512294
47	0xbd73f6bf	-0.059561487
48	0x3d9bc017	0.076049976
49	0x3eca7fcf	0.39550635
50	0x3d3374d2	0.04381258
51	0x3e91daf3	0.28487357
52	0xbd63b5a3	-0.055593144
53	0x3dd6b674	0.10484019
54	0x3f39cb0b	0.72575444
55	0xbdce8bcf	-0.1008526
56	0xbf06dfa6	-0.5268501
57	0xbf11850c	-0.5684364
58	0xbd92328c	-0.07138547
59	0xbf087496	-0.53302896
60	0x3e1a13a6	0.15046558
61	0xbf1be7b0	-0.609004
62	0x3e3b8b79	0.18314923
63	0x3d589f4e	0.0528863

actor.4.weight f4 [122, 64]
0	0xc011a05f	-2.2754133
1	0xbeb73ef7	-0.35790226
2	0x3f25a996	0.6471189
3	0xbf760acf	-0.9611024
4	0x3fbba89e	1.4660833
5	0xbfe2fdc1	-1.773369
6	0x4017f6fd	2.37445
7	0xbd40c48f	-0.047062453
8	0x3f2f102c	0.6838405
9	0xbd3f1a02	-0.046655662
10	0x3ef6a33a	0.48171407
11	0xbfb441d2	-1.4082587
12	0x3fe2bbcb	1.771356
13	0x3f4e6fcc	0.8063934
14	0x3f93c1e5	1.1543547
15	0xbe00c852	-0.12576416
16	0x3f85b081	1.044449
17	0x3e85be81	0.26121905
18	0xbca02865	-0.019550512
19	0xbf4d68e2	-0.80238163
20	0x3fd75285	1.6822058
21	0xbee900a3	-0.45508298
22	0xbf98d285	-1.1939245
23	0x3e5868c9	0.21133722
24	0xbeb1cc18	-0.34726024
25	0x3f2a7366	0.66582334
26	0x400cd9b7	2.2007883
27	0x3fead02b	1.8344778
28	0xbecb396a	-0.3969224
29	0x3eece99e	0.46271986
30	0x3ef493f9	0.47769144
31	0xbf130f83	-0.57445544
32	0xbf02c3a3	-0.5107977
33	0x3e0e70a3	0.13910155
34	0xbfbc9a82	-1.4734652
35	0xbf810b13	-1.0081505
36	0xbe34525a	-0.1760954
37	0xbe1cb3d6	-0.15302977
38	0xc025af0f	-2.5888097
39	0xbdfa0615	-0.12208191
40	0x3e6e1d53	0.23253374
41	0x3d44a722	0.048010953
42	0x3fdcdaac	1.7254233
43	0x3ed9e116	0.4255454
44	0x3ed06924	0.40705216
45	0x400f938e	2.243381
46	0x3f7c633c	0.9858892
47	0xbf24d7f3	-0.6439201
48	0xbaf1d1e5	-0.0018449394
49	0x4002c4dc	2.0432653
50	0x3ec22017	0.37915108
51	0xbe7b20c6	-0.24524221
52	0x3e465c5b	0.19371168
53	0xbedbdb35	-0.4294068
54	0x3efb36f3	0.4906536
55	0xbeb0db51	-0.34542325
56	0x3e088890	0.13333344
57	0xbfd1952e	-1.6373651
58	0xbee3519c	-0.443982
59	0xbf5013ff	-0.8128051
60	0x3f8661bb	1.0498575
61	0xbfd59e01	-1.6688844
62	0x3f0e58a1	0.55603987
63	0x3f2b1482	0.6682817
64	0xbebbe0d7	-0.36694977
65	0xbef4d8b6	-0.47821587
66	0xbd83b934	-0.06431809
67	0x3ecdc00e	0.4018559
68	0x3f0c325f	0.5476436
69	0xbe935714	-0.28777373
70	0x3eee8b91	0.46590856
71	0xbda51dca	-0.080623224
72	0x3e2a037b	0.1660289
73	0xbe161085	-0.14654739
74	0x3fcfef0d	1.6244828
75	0xbf763219	-0.9617019
76	0x3ebd9b9a	0.37032777
77	0x3e1a6a9a	0.15079728
78	0xbd0807d7	-0.0332106
79	0xbee2db27	-0.44307825
80	0xbe9526b2	-0.29131085
81	0xbe12ea72	-0.14347246
82	0x3f719314	0.9436505
83	0x3e849649	0.25895908
84	0x3f6cbbba	0.9247395
85	0xbf451a06	-0.76992834
86	0xbea638f5	-0.3246533
87	0xbfab6f50	-1.3393345
88	0xbfa84e7e	-1.3148954
89	0x3ecec720	0.40386295
90	0x3f5b0755	0.8555806
91	0x3f5c12fd	0.85966474
92	0x3eadb06c	0.33923662
93	0xbe9b17ce	-0.302916
94	0x3fa73758	1.3063765
95	0xbf38d250	-0.7219591
96	0xbf900d65	-1.1254088
97	0xbbb41878	-0.005496081
98	0xbc107fe1	-0.008819551
99	0x3f4b0604	0.79306054
100	0x3f19583b	0.59900254
101	0xbf1f12c2	-0.62138
102	0xbf92707f	-1.1440581
103	0xbe0843ae	-0.13307068
104	0x3f8e2ff4	1.1108384
105	0x3da24ea4	0.07925156
106	0x3fadddf4	1.358336
107	0x3f3244b2	0.6963607
108	0x3fb32676	1.3996112
109	0x3e34377a	0.17599288
110	0xbf85f659	-1.0465804
111	0xbf50cb57	-0.8156027
112	0xbef17263	-0.47157583
113	0x3f57e2f0	0.84330654
114	0xbef9229d	-0.4865922
115	0xbf6f972b	-0.9359004
116	0x3e3bf9b3	0.18356971
117	0x3f2455cf	0.64193434
118	0xbfa250f8	-1.268096
119	0xbe5aa256	-0.21350989
120	0xbebe6723	-0.37188062
121	0xbef804a8	-0.48441052
122	0xbf72c1bd	-0.9482687
123	0x3ee29ef9	0.44261912
124	0x3dc991fd	0.09842298
125	0xbe8ee9f6	-0.27912873
126	0x3e7903f6	0.24317917
127	0x3d41c729	0.047309075
128	0xc014928a	-2.321444
129	0xbe98c372	-0.29836613
130	0x3f18e5b3	0.59725493
131	0xbf6e0bad	-0.92986566
132	0x3fcd4c71	1.6038953
133	0xc004db67	-2.0758913
134	0x40295634	2.6458864
135	0xbd8b5355	-0.06803004
136	0x3f39d8b9	0.7259632
137	0x3dae2293	0.08502688
138	0x3f1b4731	0.60655504
139	0xbfc4614a	-1.534219
140	0x3fb5d72d	1.4206291
141	0x3f471e67	0.77780765
142	0x3f9e804a	1.2382901
143	0x3adc94c2	0.0016829001
144	0x3f71fc59	0.94525677
145	0x3edf45a0	0.43607807
146	0xbad88376	-0.0016518671
147	0xbf2d9ecf	-0.6782045
148	0x3fc0c0af	1.5058802
149	0xbf19cb3c	-0.60075736
150	0xbf945175	-1.1587359
151	0x3deaf4c2	0.11472465
152	0xbeaae3e6	-0.33376998
153	0x3efc1c0c	0.49240148
154	0x401890ef	2.383846
155	0x3fe9393c	1.8220592
156	0xbebbb550	-0.36661768
157	0x3ed5282f	0.4163222
158	0x3eeb4951	0.45954373
159	0xbf0d73e5	-0.55254966
160	0xbf08250c	-0.5318153
161	0x3e97fdd9	0.29685858
162	0xbfc0a710	-1.5050983
163	0xbf47a5a6	-0.77987134
164	0xbe345dc4	-0.17613894
165	0xbda4572e	-0.08024441
166	0xc0294383	-2.6447456
167	0xbe2a0e60	-0.16607046
168	0xbcade861	-0.021228971
169	0xbe3b57be	-0.1829519
170	0x3ff20679	1.8908225
171	0x3f18f481	0.59748083
172	0x3f141e8b	0.57859105
173	0x401743d5	2.3635151
174	0x3f8ac3e8	1.0841036
175	0xbee7a726	-0.45244712
176	0x3e8594ae	0.26089996
177	0x40105d65	2.2557003
178	0x3dd6b79b	0.10484239
179	0xbe7d3c52	-0.24730042
180	0x3e57bc2c	0.21067876
181	0xbe958eca	-0.29210502
182	0x3edefcdb	0.43552288
183	0xbef0224e	-0.46901172
184	0x3dfb1628	0.12260085
185	0xbfd47bc1	-1.6600267
186	0xbeae5486	-0.3404886
187	0xbf3722a9	-0.7153726
188	0x3f7331eb	0.94998044
189	0xbfd71d2c	-1.6805778
190	0x3ec9538f	0.39321563
191	0x3f157cc3	0.58393496
192	0xbf75917a	-0.95925105
193	0xbf0414f9	-0.515945
194	0x3bc567d6	0.006024341
195	0xbe4f8200	-0.20264435
196	0x3eaccdfe	0.3375091
197	0xbf32f2b3	-0.6990158
198	0x3f78d0e8	0.97193766
199	0xbe798509	-0.24367155
200	0x3dcd95c2	0.1003833
201	0xbdfb8d96	-0.12282865
202	0x3fa7e576	1.3116901
203	0xbeb07646	-0.34465235
204	0x3f059728	0.5218377
205	0x3f3e4820	0.74328804
206	0xbd625b88	-0.055263072
207	0xbf0d3f95	-0.55175143
208	0xbed131d0	-0.40858316
209	0xbe968f24	-0.29406083
210	0x3f725218	0.94656515
211	0x3e639f26	0.22228679
212	0x3f2b6cf9	0.66963154
213	0xbf4a1516	-0.78938425
214	0xbf17fc4d	-0.59369355
215	0xbfa90ffb	-1.3208002
216	0xbf82162b	-1.0163015
217	0x3f342640	0.70370865
218	0x3f7d2fb0	0.9890089
219	0x3f5036d5	0.8133367
220	0x3f3cba09	0.7372137
221	0xbe7a588d	-0.24447842
222	0x3fd7c2f7	1.6856374
223	0xbe69dfb2	-0.22839239
224	0xbfa43b3a	-1.2830575
225	0xbd40cf8a	-0.047072925
226	0x3e296a24	0.16544396
227	0x3ec69cbe	0.3879146
228	0x3f68fb41	0.91008383
229	0xbf57b1fe	-0.8425597
230	0xbfbf6e7e	-1.4955595
231	0x3f4e2ed2	0.8054019
232	0x3f7740b7	0.9658312
233	0xbebe6a08	-0.3719027
234	0x3ffa776d	1.9567696
235	0x3f6e8a5e	0.9317988
236	0x3fbfc24b	1.4981169
237	0x3f790184	0.9726794
238	0xbe660f68	-0.22466815
239	0xbfb2f9cb	-1.3982481
240	0x3eb720fd	0.35767356
241	0x3f179c15	0.5922254
242	0xbf159510	-0.58430576
243	0xbf853f65	-1.0409971
244	0x3e7a8abe	0.24466988
245	0x3f3a702c	0.7282741
246	0xbf63ff23	-0.8906118
247	0x3e9b5e16	0.3034522
248	0x3e986270	0.29762602
249	0xbf6a9257	-0.91629547
250	0xbf671672	-0.90268624
251	0x3f744cae	0.95429504
252	0x3ec96fb9	0.3934305
253	0xbd6446fb	-0.055731755
254	0xbcce2ca2	-0.025167767
255	0xbee62277	-0.4494817

actor.4.bias f4 [122]
0	0xc0046455	-2.0686238
1	0xbff9d0b1	-1.9516813
2	0xc004e9fd	-2.0767815
3	0xc00cc36d	-2.1994278
4	0x3ef1d342	0.4723149
5	0xc00307a7	-2.047342
6	0xc003eafd	-2.0612175
7	0x3e81f223	0.25380048
8	0xc0332d1e	-2.7996287
9	0xbfd99ce8	-1.7001009
10	0x3ed52f0a	0.4163745
11	0xc02f0217	-2.7345026
12	0xc02e0fb7	-2.7197092
13	0xc00383f2	-2.0549283
14	0xc0208e09	-2.5086691
15	0xc02f42d2	-2.7384534
16	0xc00e4f9f	-2.2236097
17	0xbe83f97e	-0.25776285
18	0xbfef9e88	-1.8720255
19	0xbfa433f3	-1.2828354
20	0xbf9bd21a	-1.2173493
21	0xc02f49ff	-2.7388914
22	0x3e1a0c56	0.15043768
23	0xc035e162	-2.8418813
24	0xc05e58e6	-3.474176
25	0xc02e93a4	-2.7277613
26	0xbf4b6e45	-0.7946513
27	0xbf405fb1	-0.75146013
28	0x3e0c1af7	0.13682161
29	0xbf36acfb	-0.713577
30	0xbf4ceed0	-0.800519
31	0xbf7b6472	-0.9820014
32	0xc03cb18b	-2.9483364
33	0xbee31ad7	-0.44356415
34	0xc0385b60	-2.880577
35	0xc0126891	-2.2876322
36	0xbf635a6d	-0.88809854
37	0xbf8c4a0b	-1.0960096
38	0xbfd349fb	-1.6506952
39	0x3e938877	0.28815052
40	0xbf0ee3b7	-0.55816215
41	0xc03d5790	-2.9584694
42	0xbf80be58	-1.0058088
43	0xbfd43ead	-1.6581627
44	0xc025ff42	-2.5937047
45	0xbfeca2e5	-1.8487211
46	0x3f198045	0.5996135
47	0xc00e42f3	-2.2228363
48	0xbf329258	-0.6975455
49	0x3e9af719	0.30266646
50	0x3e2c88de	0.16849086
51	0xc03c20d2	-2.9395032
52	0x3e820d87	0.25400946
53	0xbf38e282	-0.72220623
54	0xbf948667	-1.1603516
55	0x3e026822	0.12735036
56	0xc01fa92c	-2.4947004
57	0xbf612dfa	-0.8796078
58	0xbf80f1ad	-1.0073754
59	0xc04f0546	-3.2346969
60	0xc042c970	-3.0435448
61	0xbe1bec89	-0.1522695
62	0xbf98d29f	-1.1939276
63	0xbf436f1c	-0.76341414
64	0xbfa23301	-1.2671815
65	0xbfc70ed7	-1.5551404
66	0xbf8d2eb0	-1.1029873
67	0xc03cddee	-2.9510455
68	0xbeccb6ad	-0.3998312
69	0xbf1ac0d5	-0.6045049
70	0xbfcf73b0	-1.620718
71	0xc0179695	-2.3685658
72	0x3f4f314d	0.809346
73	0xbf8dd434	-1.1080384
74	0xbfdaa6aa	-1.7082112
75	0xc0314199	-2.7696288
76	0xc01a9e65	-2.4159176
77	0xc0062309	-2.0958884
78	0xbfa1569c	-1.2604556
79	0x3e5bfc7e	0.21483037
80	0xc03e5fca	-2.9745965
81	0xbf584d3f	-0.8449287
82	0xbfa06619	-1.2531158
83	0x3eed19be	0.46308702
84	0xbfaad3ff	-1.3345946
85	0xc02addcf	-2.6697881
86	0xbf3e4d6b	-0.7433688
87	0xbf605e61	-0.8764401
88	0x3e88e141	0.26734355
89	0x3f024878	0.5089183
90	0x3f23ef64	0.64037156
91	0xbe1a8124	-0.15088326
92	0xbfc45c4b	-1.5340666
93	0xbf2b3d99	-0.66890866
94	0x3da52707	0.080640845
95	0x3f050e2b	0.51974744
96	0xc00dc462	-2.2151113
97	0xbf53304c	-0.8249557
98	0x3e4f3c61	0.20237876
99	0xc034e8a9	-2.8267004
100	0xbf9a7fd9	-1.2070266
101	0xbffa0735	-1.953345
102	0xc0426232	-3.0372434
103	0xc027e8e6	-2.62359
104	0xbfae2e8f	-1.3607959
105	0xbcd9f3a9	-0.026605444
106	0x3f70bbd4	0.940366
107	0xbf6d71a8	-0.9275155
108	0xc0178ba3	-2.3678977
109	0xc01ff93b	-2.4995868
110	0xbfc4d8f5	-1.537871
111	0x3ee348a3	0.44391355
112	0x3e8bd04e	0.2730736
113	0xc00311ec	-2.0479689
114	0xbfad42e7	-1.3536042
115	0x3f1d89c1	0.6153832
116	0x3e52a455	0.205705
117	0x3ebfdaee	0.37471718
118	0xbfcec13f	-1.6152724
119	0xbfb4e175	-1.4131304
120	0xc01e3e7b	-2.4725635
121	0xc05cb804	-3.4487314

critic.0.weight f4 [64, 121]
0	0xbe98dad5	-0.29854456
1	0x3e71b00d	0.23602314
2	0xbe6726ae	-0.22573349
3	0xbe2fc519	-0.1716503
4	0xbd9b9cdd	-0.07598279
5	0x3e36a115	0.17834885
6	0x3f45c319	0.7725082
7	0xbd505cec	-0.050869867
8	0x3e1adfba	0.15124407
9	0xbf1e0924	-0.617327
10	0xbf26b1e0	-0.65115166
11	0x3f2d0b9c	0.6759584
12	0xbf7491be	-0.95534885
13	0x3f26a60b	0.6509711
14	0xbef892c4	-0.48549473
15	0x3effe492	0.49979073
16	0x3f890e66	1.0707519
17	0xbe113c4b	-0.14183156
18	0xbea88001	-0.3291016
19	0x3ed30410	0.41214037
20	0xbeae7a39	-0.34077623
21	0xbea2432a	-0.31691867
22	0x3ee4b9c7	0.44672987
23	0xbf16cca3	-0.58906
24	0xbe339ddd	-0.17540689
25	0xbd3f3525	-0.046681542
26	0xbe9ddcdb	-0.30832562
27	0x3ebe2db1	0.37144235
28	0x3e28751d	0.16450925
29	0xbebfc041	-0.37451366
30	0xbe8b8591	-0.2725034
31	0xbefbd81e	-0.49188322
32	0xbe2a505e	-0.1663222
33	0xbf3802a2	-0.7187902
34	0x3df1b636	0.11802332
35	0xbe704057	-0.23462044
36	0xbd6f6247	-0.058443334
37	0xbdde1e01	-0.108455665
38	0x3e2c0a5c	0.16800827
39	0xbea84302	-0.32863623
40	0x3f0bdd94	0.54634976
41	0x3e407c18	0.18797338
42	0x3f51c984	0.81948113
43	0xbf843ff4	-1.0332017
44	0xbf0dccc2	-0.5539056
45	0xbd800970	-0.062518
46	0xbe8009ff	-0.25007626
47	0xbdc564b5	-0.09638349
48	0xbf1fcf51	-0.62425715
49	0xbe0e5d0e	-0.13902685
50	0xbe66821c	-0.2251057
51	0x3f15384c	0.5828903
52	0xbf3aae5a	-0.7292229
53	0xbf7aedd2	-0.98019135
54	0x3ea5857d	0.32328406
55	0x3e39de21	0.18151142
56	0xbeedd66d	-0.46452656
57	0xbf3bef66	-0.7341217
58	0x3f6b0c46	0.918156
59	0x3f77fb66	0.9686798
60	0x3fadceb8	1.357871
61	0x3f12ed05	0.57392913
62	0x3f7f8846	0.9981731
63	0x3ed2ea7b	0.4119452
64	0x3f14d2e8	0.5813432
65	0xbf801071	-1.0005018
66	0x3eaabbc0	0.33346367
67	0xbe6eac2f	-0.2330787
68	0x3edb108a	0.42786056
69	0xbe239fd4	-0.15978938
70	0xbe880521	-0.26566413
71	0xbe85d9d5	-0.26142755
72	0x3e8cd6d7	0.2750766
73	0xbe183ab8	-0.1486615
74	0xbf5bdbe4	-0.858824
75	0x3f844fcb	1.0336851
76	0xbee5d6c7	-0.44890425
77	0xbf1a9d09	-0.60395867
78	0xbeb755a1	-0.35807517
79	0xbe27a4db	-0.16371481
80	0x3f12ea55	0.5738881
81	0x3f681028	0.9064965
82	0x3ea0c53a	0.31400472
83	0x3e4455ab	0.19173305
84	0xbe3203cc	-0.17384261
85	0x3f2ea23b	0.68216294
86	0xbf1a2358	-0.6021018
87	0xbe534c88	-0.20634663
88	0x3dd12387	0.102118544
89	0xbe3fa30c	-0.18714541
90	0x3d8dacbd	0.06917713
91	0xbf014f52	-0.5051166
92	0xbf7c9e43	-0.9867899
93	0xbe24ce4f	-0.16094325
94	0x3ee83414	0.45352232
95	0xbe18d9d9	-0.14926852
96	0x3ef5f7df	0.48040673
97	0xbf224e22	-0.6340047
98	0x3dd72af5	0.1050624
99	0x3f58f386	0.8474659
100	0x3e0c1af7	0.13682161
101	0xbf212137	-0.62941307
102	0x3f254b18	0.6456771
103	0x3f30bda4	0.6903937
104	0x3d24b347	0.040210035
105	0x3e4ada5d	0.19809861
106	0x3e308c3c	0.17240995
107	0xbe859827	-0.26092646
108	0xbe0a1913	-0.13486128
109	0x3dbb7dce	0.09154855
110	0x3ea234a0	0.31680775
111	0xbe1e6424	-0.15467888
112	0xbe869517	-0.26285622
113	0xbed5d947	-0.41767332
114	0x3a9f0bb5	0.0012134226
115	0xbea4f7a1	-0.32220176
116	0x3e6366d6	0.22207198
117	0x3f080621	0.5313435
118	0xbf701e0c	-0.9379585
119	0x3d00209b	0.031281095
120	0xbecbcdca	-0.39805442
121	0x3d694330	0.05694884
122	0x3e3af6aa	0.18258157
123	0xbc5541da	-0.0130161885
124	0x3f61f1f7	0.88259834
125	0xbf205e6b	-0.6264407
126	0xbf580c67	-0.84393924
127	0x3ea87e14	0.3290869
128	0xbe9fb966	-0.31196135
129	0x3ec76b0f	0.38948867
130	0xbe722062	-0.23645166
131	0x3ef65039	0.4810808
132	0xbe011203	-0.12604527
133	0x3e4547cf	0.19265674
134	0xbf42e316	-0.76127756
135	0xbf151f77	-0.58251137
136	0x3ea0ac32	0.31381375
137	0x3cd82f45	0.026389727
138	0xbed5ba36	-0.4174363
139	0xc0040b5f	-2.063194
140	0x3e056889	0.13028158
141	0xbf224cbb	-0.6339833
142	0xbe959e4a	-0.29222327
143	0xbfc7690f	-1.5578936
144	0x3ed619e1	0.4181662
145	0x3eecb086	0.46228427
146	0x3dce9b0e	0.10088168
147	0x3f05faf5	0.52336055
148	0x3f208dd0	0.6271639
149	0xbe9b61db	-0.30348095
150	0xbd39d6c9	-0.04537085
151	0x3dc9ae5f	0.09847712
152	0xbcee5aff	-0.029096125
153	0x3f122603	0.5708925
154	0xbe0d0863	-0.1377273
155	0x3eff89ee	0.4990992
156	0xbef439c1	-0.47700313
157	0xbf69495b	-0.91127557
158	0xbeae4a89	-0.3404124
159	0x3da964c5	0.082711734
160	0xbf824241	-1.0176469
161	0x3e4309b8	0.19046676
162	0xbf8c39aa	-1.0955098
163	0xbf6f24a6	-0.93415296
164	0x3f300bff	0.68768305
165	0xbe75f4d3	-0.24019174
166	0x3f5cb2ea	0.862105
167	0xbd11eea9	-0.035627995
168	0xbef9394a	-0.4867652
169	0xbf94189c	-1.157001
170	0xbd8cbd4e	-0.068720445
171	0xbe4b8113	-0.19873457
172	0x3f990778	1.1955404
173	0xbe9dbc4a	-0.30807716
174	0xbec3fefd	-0.38280478
175	0x3e9db5aa	0.3080266
176	0xbf1bb79a	-0.6082703
177	0x3ea84914	0.32868254
178	0xbf3587d0	-0.7091036
179	0xbf281eba	-0.65671885
180	0xbf576113	-0.841325
181	0xbf9ea6ac	-1.2394614
182	0x3ecd7741	0.40130046
183	0xbf5551ce	-0.8332795
184	0x3d621633	0.055196952
185	0x3e41d0fc	0.18927377
186	0x3f281f8b	0.6567313
187	0xbf54f6c5	-0.8318904
188	0x3e512dc3	0.20427613
189	0xbdb43930	-0.0879997
190	0x3ee3485f	0.44391152
191	0x3f769277	0.9631724
192	0x3f428a3a	0.75992167
193	0xbf0b1d91	-0.5434199
194	0x3fc834aa	1.5641072
195	0x3ea3c293	0.31984386
196	0x3e021ccf	0.12706302
197	0x3f1b1570	0.60579586
198	0x3e8a73e8	0.27041554
199	0xbe200403	-0.1562653
200	0xbde5cda2	-0.11220862
201	0xbf0e9313	-0.5569317
202	0xbf1ef45b	-0.62091607
203	0x3c440311	0.011963622
204	0x3ec92616	0.3928687
205	0x3f1fc281	0.62406164
206	0xbf80f77d	-1.0075527
207	0x3f330a31	0.69937426
208	0xbe2dcbfe	-0.16972348
209	0xbf5c8486	-0.86139715
210	0xbe85bd6b	-0.26121077
211	0xbe9cbb80	-0.306118
212	0x3cd87d24	0.02642686
213	0x3f6263ac	0.8843334
214	0x3eb91d29	0.3615506
215	0x3e08f6b9	0.13375367
216	0xbf3392b6	-0.7014574
217	0x3f16713c	0.5876653
218	0xbe122d4f	-0.14275096
219	0xbf7be6f4	-0.9839928
220	0x3e896701	0.26836398
221	0xbf0b689d	-0.544565
222	0x3efc5672	0.49284703
223	0x3e16ed87	0.14739047
224	0xbf227e2e	-0.63473785
225	0x3e96c12a	0.29444247
226	0x3ead8fa8	0.33898664
227	0x3f54af6d	0.8308018
228	0xbf4cfae7	-0.80070347
229	0x3e907ced	0.2822031
230	0x3e1fc006	0.15600595
231	0xbe85edcb	-0.26157984
232	0xbee36b20	-0.44417667
233	0xbec467d9	-0.3836048
234	0x3e6fe7ee	0.23428318
235	0x3f8c05b9	1.0939246
236	0xbf66d415	-0.9016736
237	0xbf855fe6	-1.0419891
238	0xbef80497	-0.48441002
239	0xbeb0ed3b	-0.34555992
240	0x3e03e1ac	0.12879056
241	0x3f2ac25f	0.66702837
242	0x3e70fe4d	0.23534508
243	0xbe8af5ae	-0.27140564
244	0xbf634cd0	-0.8878908
245	0xbe1fbf56	-0.15600333
246	0xbf22445c	-0.6338556
247	0x3de75c17	0.112968616
248	0x3f07a3b6	0.5298418
249	0xbf4e5a48	-0.8060651
250	0xbe614bed	-0.2200162
251	0xbfaede54	-1.3661599
252	0xbf529798	-0.82262564
253	0xbc47aa3e	-0.012186585
254	0x3ebe0f7d	0.37121192
255	0x3f0bf976	0.5467752

critic.0.bias f4 [64]
0	0xbf883c4e	-1.0643404
1	0xbf8ff8be	-1.1247785
2	0x3d2cce55	0.04218896
3	0xbf319f1c	-0.69383407
4	0xbe49d3c3	-0.19709687
5	0xbf385946	-0.7201122
6	0x3ef58aef	0.4795756
7	0xbf40b6ce	-0.7527894
8	0xbf341c91	-0.7035609
9	0xbedf5339	-0.4361818
10	0x3fb95df2	1.4481795
11	0x3e7052ca	0.23469082
12	0x3eb6aec7	0.3568022
13	0x3fd58581	1.6681367
14	0xbedb3f65	-0.42821804
15	0x4027dcab	2.6228435
16	0xbf19550d	-0.598954
17	0x4028d432	2.6379514
18	0x400b1dd5	2.1736958
19	0x3fb7b220	1.4351234
20	0x4008de44	2.138566
21	0x3f9f53d2	1.2447455
22	0xc036b031	-2.8545039
23	0x3fa86ad0	1.3157597
24	0xbf0e76aa	-0.55649817
25	0x3ed1f693	0.41008434
26	0x3fa084b7	1.2540501
27	0x3f999d7e	1.2001188
28	0xc021711c	-2.5225286
29	0x401eccd2	2.4812512
30	0xbf81229d	-1.0088688
31	0xbf5e102f	-0.86743444
32	0xbf5b1a7b	-0.8558728
33	0xc01e112d	-2.4697983
34	0x3f135129	0.57545716
35	0x3e47dea2	0.19518521
36	0xbf5ab03d	-0.8542517
37	0xbdadaa3b	-0.084797345
38	0xbff73cef	-1.931547
39	0x3f4c098e	0.7970208
40	0x3f13d3bb	0.5774495
41	0xc0143e60	-2.316307
42	0x3fbc2d96	1.4701412
43	0xbf8f789e	-1.1208684
44	0x40238262	2.554833
45	0x3f93dcc2	1.1551745
46	0x40495147	3.1455858
47	0xbf5199a5	-0.8187507
48	0x3fcec60f	1.6154193
49	0xbfe93ee6	-1.822232
50	0x3fe6ffb9	1.804679
51	0x3e35bc18	0.17747533
52	0x403b2f66	2.924768
53	0xc0433f87	-3.0507524
54	0xbfe8487a	-1.8147118
55	0x3f47ef58	0.78099585
56	0xc01ecf92	-2.481419
57	0xc02b21a2	-2.6739278
58	0x3f616381	0.88042456
59	0x3f4d35ba	0.80160105
60	0x3d8b8a83	0.068135284
61	0x3ed835cc	0.42228544
62	0x3f462b54	0.77409863
63	0x3e719667	0.2359253

critic.2.weight f4 [64, 64]
0	0xbf8898cd	-1.0671631
1	0xbed5c277	-0.41749927
2	0x3f9f31d8	1.2437086
3	0xbf3c973b	-0.7366826
4	0x3f1b1ac9	0.60587746
5	0xbfaf6948	-1.3704004
6	0x3d84c8a7	0.06483584
7	0xbf887205	-1.0659796
8	0x3f1f799f	0.62294954
9	0xbefb820f	-0.49122664
10	0x3ee1548d	0.4400982
11	0x3ec267c8	0.37969804
12	0xbe6258c0	-0.22104168
13	0xbe8f42c2	-0.2798062
14	0x3c7a0ff7	0.015262595
15	0xbf1db896	-0.6160978
16	0x3f7c6087	0.9858479
17	0xbf92336a	-1.142194
18	0x3f315e80	0.6928482
19	0x3e5f933e	0.21833512
20	0x3dab76bf	0.083722584
21	0x3ee34b81	0.44393542
22	0x3ec718ad	0.38886014
23	0xbeab8135	-0.33497015
24	0xbfbf3693	-1.493853
25	0x3f1c79c2	0.6112329
26	0x3d2ce4c1	0.042210344
27	0xbdf562ae	-0.11981712
28	0x3e957b27	0.2919552
29	0xbe8c25c5	-0.27372566
30	0x3f06500d	0.524659
31	0x3d079910	0.033104956
32	0xbde50d50	-0.1118418
33	0x3e0c9ff1	0.13732888
34	0x3e862119	0.26197127
35	0xbdf8fd95	-0.12157742
36	0x3c8d562a	0.017253
37	0xbe8c27dc	-0.2737416
38	0xbfaba10a	-1.340852
39	0xbdbb932b	-0.091589294
40	0xbf888328	-1.0665026
41	0xbf3196ca	-0.6937071
42	0xbeda0627	-0.4258282
43	0x3eabbc53	0.33542117
44	0xbf505927	-0.81386036
45	0x3fdb3cd4	1.7127938
46	0xbec6ac31	-0.38803247
47	0x3ee7caa1	0.4527178
48	0x3f31afd4	0.6940892
49	0xbe4b0fed	-0.19830294
50	0x3d8f91f8	0.07010263
51	0x3e6161a8	0.22009909
52	0x3ff90c65	1.9456908
53	0x3e80bd65	0.25144497
54	0x3d66a532	0.056309886
55	0xbd8b70dd	-0.06808636
56	0xc0002ee0	-2.002861
57	0xbdbc8ed4	-0.0920693
58	0xbeb20d13	-0.347756
59	0x3f80a572	1.005049
60	0x3f66b95a	0.90126574
61	0x3fbf3b4f	1.4939975
62	0x3f1d7a85	0.61515075
63	0x3cdba8e9	0.026813941
64	0xbf1afc40	-0.6054115
65	0xbf40560c	-0.751313
66	0x3f0367ff	0.5133056
67	0xbdcf639d	-0.101264216
68	0x3fa74ebc	1.3070903
69	0x3ebe5be6	0.37179488
70	0x3f449c4e	0.76801
71	0xbcff4c0a	-0.031164188
72	0x3f3fbf9d	0.74901754
73	0x3ece397a	0.40278226
74	0xbe22bdef	-0.15892766
75	0xbf665f15	-0.89988834
76	0xbfabd095	-1.3423029
77	0xbf4c4ca1	-0.79804426
78	0x3e128abc	0.14310735
79	0x3e9d64ad	0.30740872
80	0x3ef8f027	0.48620722
81	0xbe979076	-0.29602402
82	0x3e7ff3ef	0.24995397
83	0x3f110935	0.56654674
84	0x3e8535d0	0.26017618
85	0xbf333fe8	-0.7001939
86	0xbf80b2b6	-1.0054538
87	0x3fde3a1e	1.7361486
88	0x3f5249ec	0.82144046
89	0x3e8e6481	0.27811053
90	0x3aabf3f4	0.0013118968
91	0xbf43c1f9	-0.76467854
92	0xbf17545e	-0.5911311
93	0xbea64dac	-0.32481134
94	0xbeabc1fd	-0.3354644
95	0x3f65a611	0.8970652
96	0x3e244b50	0.16044354
97	0xbf56addc	-0.8385904
98	0x3efc62bc	0.49294078
99	0xbee4acb5	-0.44663015
100	0x3cc22985	0.023701439
101	0xbed15b0a	-0.4088977
102	0x40267892	2.601109
103	0xbd42d846	-0.047569536
104	0x3f29aae2	0.6627637
105	0x3edece3d	0.43516722
106	0xbe4f575d	-0.2024817
107	0xbe969fb7	-0.29418728
108	0xbef59846	-0.47967738
109	0x3ee9b46f	0.45645472
110	0xbf52287f	-0.8209304
111	0x3f0d419c	0.55178237
112	0xbe3341a6	-0.17505512
113	0xbeabf7b7	-0.3358743
114	0xbf0d97cc	-0.5530975
115	0x3f065dee	0.52487075
116	0xbfa6f4fc	-1.3043513
117	0x3f17d991	0.59316355
118	0xbed873f8	-0.42275977
119	0x3dec088f	0.1152507
120	0x3e1cf20e	0.15326712
121	0x3fa6f502	1.304352
122	0xbe06f068	-0.13177645
123	0xbe3820e2	-0.17981294
124	0x3f8a2e65	1.0795408
125	0xbb70a43a	-0.003671898
126	0xbde26261	-0.110539205
127	0xbf4ddc0a	-0.8041388
128	0xbe1dd330	-0.15412593
129	0x3db6b0f4	0.0892047
130	0x3f0918c9	0.53553444
131	0xbf013e20	-0.5048542
132	0x3eeba5bf	0.46024892
133	0xbe803fd3	-0.25048694
134	0x3ea7630d	0.32692757
135	0x3e944d9d	0.28965464
136	0x3eec91e9	0.4620507
137	0x3ec2f56b	0.38077864
138	0xbe295303	-0.16535573
139	0xbedccaf8	-0.43123603
140	0x3f1787fc	0.5919187
141	0x3e1a9f9b	0.15099947
142	0x3e0e9a26	0.1392599
143	0xbfa8002b	-1.3125051
144	0x3e5868ed	0.21133776
145	0x3e2cea86	0.16886339
146	0xbfbe149d	-1.4850041
147	0xbe86034a	-0.26174384
148	0x3f1a55ea	0.60287344
149	0xbd89a2f8	-0.06720537
150	0x3e57836e	0.2104623
151	0xbef109e4	-0.47077858
152	0x3ea5bb33	0.32369384
153	0xbe96d8ce	-0.29462284
154	0xbfde7caa	-1.7381794
155	0xbe3dbe03	-0.18529515
156	0x3f108094	0.56446195
157	0xbe979464	-0.296054
158	0x3f86475d	1.0490528
159	0x3c867a29	0.016415672
160	0xbe99b405	-0.30020157
161	0xbe6832b2	-0.22675589
162	0x3eb2e343	0.34939012
163	0xbf05fe04	-0.5234072
164	0xbf8a9524	-1.0826764
165	0xbea8e1e1	-0.32984832
166	0x3edd1cce	0.4318604
167	0x3eeb8ca2	0.46005732
168	0xbe20b16f	-0.15692686
169	0x3ed42570	0.41434813
170	0xbc1c635c	-0.0095451735
171	0xbf0d4c6d	-0.5519474
172	0xbe3a59ab	-0.18198268
173	0xbfed78cb	-1.8552488
174	0xbe18c913	-0.14920454
175	0xbf33928a	-0.70145476
176	0xbfbf2673	-1.4933609
177	0x3bffe7ad	0.0078096003
178	0xbcca3cf0	-0.02468726
179	0x3e0af0c2	0.13568404
180	0xbf0ef98e	-0.5584954
181	0xbe1ddb3f	-0.15415667
182	0xbeb9ddea	-0.3630212
183	0xbf5f1534	-0.8714173
184	0xbdca4412	-0.09876265
185	0x3f0c3b98	0.5477843
186	0xbdc49664	-0.09598997
187	0xbd3927ea	-0.04520408
188	0xbef2e66e	-0.4744143
189	0x3d531909	0.051537547
190	0xbf00d4cc	-0.503247
191	0x3c9cb24e	0.019127991
192	0xbf7a4250	-0.97757435
193	0xbe524354	-0.20533496
194	0x3f260916	0.64857614
195	0xbf9f213e	-1.243202
196	0x3d1449a9	0.03620306
197	0xbe96a037	-0.2941911
198	0x3c318ca8	0.010836758
199	0xbf3a5e1b	-0.72799844
200	0x3f3e74c0	0.74396896
201	0x3e9ddf13	0.30834255
202	0x3ea746ef	0.32671306
203	0x3cb7f64e	0.022456314
204	0xbec9f7b2	-0.3944679
205	0x3fbb96d6	1.4655406
206	0xbf2665d5	-0.64999133
207	0x3ecc10bd	0.3985652
208	0x3e9e59b3	0.3092781
209	0x3e8fb27a	0.28065854
210	0x400ed7f3	2.2319305
211	0x3d87dd5e	0.06634019
212	0xbf32fd21	-0.69917494
213	0x3ef345b3	0.47514114
214	0x3ec1753a	0.3778475
215	0x3e824759	0.2544506
216	0x3d5c135c	0.0537294
217	0x3f26bab3	0.6512863
218	0xbe5c695d	-0.21524568
219	0x3f2c2139	0.67238194
220	0x3d927d0e	0.071527585
221	0x3c9e1fad	0.019302214
222	0x3f13315d	0.574972
223	0x3fca9a64	1.5828366
224	0xbceb3e69	-0.028716283
225	0xbf81fc6f	-1.0155162
226	0x3e94d355	0.29067484
227	0xbebfe554	-0.3747965
228	0xbea92ddd	-0.33042803
229	0xbf80ad9b	-1.005298
230	0xbdfa2eaa	-0.12215932
231	0x3eb61630	0.35563803
232	0x3e565728	0.20931685
233	0x3db950f7	0.09048646
234	0x3f3e458c	0.7432487
235	0x3e247a33	0.1606224
236	0x3f120a60	0.5704708
237	0x4005c714	2.0902758
238	0x3ed30e63	0.41221914
239	0xbeacbf45	-0.33739677
240	0xbf0e81ae	-0.55666625
241	0xbe6b4e94	-0.22979194
242	0xbecb0bf5	-0.3965756
243	0x3d897989	0.06712634
244	0x3f8b6155	1.0889078
245	0x3e9ea2ad	0.30983487
246	0xbeb70682	-0.35747153
247	0xbe0ab076	-0.13543877
248	0xc01effad	-2.4843552
249	0x3f40ad8e	0.75264823
250	0x3e2f6014	0.17126495
251	0x3ef21891	0.47284368
252	0xbe15a8d5	-0.14615186
253	0xbd99bf40	-0.07507181
254	0xbe60ece6	-0.2196537
255	0xbf271987	-0.65273327

critic.2.bias f4 [64]
0	0x3e6c5772	0.23080233
1	0xbd14d629	-0.03633705
2	0xbec9715d	-0.39344302
3	0xbf007189	-0.5017324
4	0x3db87e68	0.09008485
5	0xbdaacd92	-0.08339991
6	0x3dc11252	0.094273224
7	0xbe931b18	-0.28731608
8	0xbac5a5a2	-0.001507927
9	0xbf03eafd	-0.5153044
10	0x3f15af8a	0.58470976
11	0x3ed1d2ae	0.40981048
12	0x3f12ffda	0.5742165
13	0x3eacb986	0.33735293
14	0x3d816dc1	0.06319762
15	0xbe401aaa	-0.18760172
16	0x3f2a8c3b	0.66620225
17	0xbdfa946c	-0.122353405
18	0xbef8f967	-0.4862778
19	0x3e129b8c	0.14317149
20	0xbf736220	-0.950716
21	0xbebbe35b	-0.36696896
22	0xbed1bc08	-0.4096377
23	0x3cecfc42	0.02892888
24	0x3e344000	0.17602539
25	0x3ee2a260	0.44264507
26	0xbf0889c0	-0.5333519
27	0xbeb63040	-0.35583687
28	0xbe8ee750	-0.27910852
29	0xbf6a9dcc	-0.9164703
30	0x3f09ec15	0.5387586
31	0xbe091e3f	-0.13390444
32	0xbef030d1	-0.46912244
33	0x3e50103f	0.20318697
34	0xbdf13cbd	-0.11779163
35	0x3f09aefe	0.5378264
36	0x3e178e7e	0.1480045
37	0xbe87e3ce	-0.2654099
38	0xbf105ab2	-0.5638839
39	0x3e35d286	0.1775609
40	0xbed7b69b	-0.42131504
41	0xbe060c16	-0.13090548
42	0x3ec585a1	0.38578513
43	0x3ddc3199	0.107516475
44	0x3e3bae4e	0.1832821
45	0x3edba0dd	0.42896166
46	0xbedfec86	-0.4373514
47	0x3e6f33ae	0.23359558
48	0x3cca6f1e	0.024711188
49	0xbf2cac08	-0.6745
50	0x3f279367	0.65459293
51	0xbe856e2e	-0.26060623
52	0x3cf91f97	0.030410571
53	0x3edd4a94	0.4322096
54	0xbe49785f	-0.19674824
55	0x3f0a7132	0.5407897
56	0x3ec45a29	0.38350037
57	0x3e756c14	0.2396701
58	0xbea01e1a	-0.31272966
59	0x3f206d1d	0.62666494
60	0x3cabda04	0.020977981
61	0xbf5c3c08	-0.860291
62	0xbe5d7472	-0.21626452
63	0x3e2a96bb	0.16659062

critic.4.weight f4 [1, 64]
0	0xbf38fbc4	-0.72259164
1	0x3f39fe50	0.72653675
2	0x3f2a6e80	0.6657486
3	0xbf84ff4b	-1.0390409
4	0x3f8d99e5	1.106259
5	0x3ea7b3c7	0.32754347
6	0x3fb15bac	1.3856101
7	0x3ec9ff5f	0.39452645
8	0x3e1d28c2	0.15347579
9	0xbf018147	-0.50587887
10	0xbd635cfd	-0.055508602
11	0x3fbf7493	1.4957451
12	0x3fdf319f	1.7437018
13	0x3e7767e9	0.24160732
14	0xbe4e8d2f	-0.20171045
15	0xbfbcd02f	-1.4751033
16	0x400241e3	2.0352714
17	0xbf93a432	-1.1534483
18	0xbe934c44	-0.28769124
19	0xbe8392b1	-0.25697854
20	0xbfcb9912	-1.5906088
21	0xbff00fb7	-1.8754796
22	0xbe52d8c6	-0.20590505
23	0x3d94acb1	0.07259501
24	0x3e4bf6ad	0.19918318
25	0x3f961722	1.172581
26	0xbe68a78d	-0.22720166
27	0xbf89b5e4	-1.0758634
28	0xbfc5539e	-1.5416143
29	0xc02e2620	-2.721077
30	0x3f8ce268	1.1006594
31	0xbfe78ef3	-1.80905
32	0xbf0fa975	-0.56117946
33	0xbdb171ac	-0.08664259
34	0x3ea00c3e	0.3125934
35	0x3e9467a7	0.2898533
36	0xbf071918	-0.52772665
37	0xbe502a21	-0.20328571
38	0xbfc444fe	-1.5333555
39	0xbec92aa9	-0.3929036
40	0xbfb04f2f	-1.3774165
41	0xbfe024e9	-1.7511264
42	0xbf422e71	-0.75852114
43	0xbe5d8ef5	-0.21636565
44	0xbec8ef6e	-0.3924517
45	0xbf14cbcc	-0.5812347
46	0xbf65667e	-0.89609516
47	0x3f3c3cd3	0.7353031
48	0x3ddc6c44	0.107628375
49	0xbfa9197b	-1.3210901
50	0x4001a610	2.0257607
51	0x3eada65c	0.33915985
52	0x3ec08ba9	0.37606552
53	0x3fa61909	1.297639
54	0x3d3225d2	0.0434931
55	0x3f8f22ee	1.1182535
56	0x3fc29137	1.5200566
57	0x3faab07a	1.3335106
58	0xbf9d9af9	-1.2312919
59	0x3fd7160c	1.6803603
60	0x3ecfb28a	0.40565902
61	0xbff8593f	-1.9402236
62	0xbe450ef3	-0.19243984
63	0x3f8da6db	1.1066545
