ppo_checkpoint.pth (torch, 663490 bytes, 55 tensors)

actor.0.weight f4 [64, 121]
0	0xbe1c4343	-0.15260033
1	0xbe3efe6a	-0.18651739
2	0x3dae1696	0.08500402
3	0x3dac817d	0.084231354
4	0x3de0db66	0.10979347
5	0x3d38ca56	0.045114838
6	0x3d83355c	0.06406662
7	0xbdfb5b8c	-0.122733206
8	0xbd21b568	-0.039479643
9	0xbe99a259	-0.30006674
10	0x3e22fad5	0.15915997
11	0xbcd18347	-0.025575293
12	0x3a72c877	0.0009261439
13	0xbeb6469e	-0.35600752
14	0xbd7e1452	-0.062031098
15	0x3de8072e	0.113294944
16	0x3adf8285	0.0017052448
17	0x3ddca6ed	0.10774026
18	0xbd7929d4	-0.060830906
19	0x3d4d772b	0.050162476
20	0xbe0018f6	-0.12509522
21	0xbd30f3c4	-0.043201223
22	0xbdc90284	-0.09814933
23	0x3c5d6cf5	0.013514747
24	0xbe80b9bb	-0.251417
25	0x3da1e9ce	0.07905923
26	0xbe15fe90	-0.14647889
27	0x3c9b50c5	0.018959412
28	0x3dad738f	0.08469307
29	0xbe0e98d7	-0.13925491
30	0xbbd4a538	-0.006489422
31	0xbdec462c	-0.11536822
32	0xbec3cafb	-0.382408
33	0x3e6b1765	0.22958143
34	0x3e06ee3e	0.1317682
35	0x3e158caf	0.14604448
36	0x3e4f9455	0.20271428
37	0x3ccae3ae	0.02476677
38	0x3e8a60a6	0.27026862
39	0x3da35389	0.079749174
40	0x3eade7e8	0.33965993
41	0x3db266f2	0.087110415
42	0x3df35d37	0.11883014
43	0xbd8c488a	-0.06849773
44	0x3cfd0d56	0.030890148
45	0xba903776	-0.0011002857
46	0x3dc33a88	0.09532648
47	0x3de5c050	0.11218321
48	0xbe3a170a	-0.18172851
49	0x3e050e0c	0.1299364
50	0x3e9b376f	0.3031573
51	0xbd0f1036	-0.03492757
52	0xbd47f93c	-0.048821673
53	0x3dd6ace2	0.104821935
54	0x3dc4ab1f	0.09602951
55	0x3e68ef3f	0.22747515
56	0x3cc4e23a	0.024033654
57	0xbd90a662	-0.07062985
58	0x3ea34872	0.3189121
59	0xbe6df5d5	-0.23238309
60	0x3f0cb814	0.5496838
61	0x3e5850f4	0.21124631
62	0x3d418486	0.047245525
63	0x3e53085a	0.20608655
64	0x3e5d543f	0.21614169
65	0xbea0069a	-0.31255037
66	0xbe1a5f3b	-0.1507539
67	0xbe8b4aa7	-0.27205393
68	0xbb0c2038	-0.0021381509
69	0x3e7590f1	0.23981072
70	0xbd885d05	-0.06658367
71	0xb8d6f98a	-0.000102507955
72	0x3db4fc02	0.08837129
73	0x3d391cf6	0.045193635
74	0x3eb92fd4	0.36169302
75	0x3e41a068	0.18908846
76	0xbd80ca80	-0.06288624
77	0x3de83609	0.113384314
78	0xbdda96ea	-0.10673316
79	0xbd086c10	-0.03330618
80	0xbbf19dca	-0.0073735463
81	0xbdc20c95	-0.09475056
82	0x3e92f759	0.28704336
83	0x3ea8d63d	0.3297595
84	0x3e017e1d	0.12645765
85	0xbd10dce8	-0.035366923
86	0x3a194a84	0.00058475905
87	0xbdca5f5a	-0.09881468
88	0xbef9e154	-0.48804724
89	0xbc00cfbd	-0.007862029
90	0xbe0f2567	-0.13979112
91	0x3ddb2302	0.107000366
92	0xbc92dca6	-0.017927479
93	0x3c1a4668	0.0094162
94	0x3daab518	0.08335322
95	0xbc82b22a	-0.015954096
96	0x3e1a59f0	0.15073371
97	0x3dd9abb4	0.10628453
98	0xbde04f88	-0.109526694
99	0x3e80336a	0.25039226
100	0xbe064f8f	-0.13116287
101	0xbe2a6e7e	-0.16643712
102	0x3e22cdb0	0.15898776
103	0xbe4fbf22	-0.20287755
104	0x3ea1472d	0.31499615
105	0xbe0cdc4d	-0.13755913
106	0xbcc822aa	-0.024430592
107	0x3c84004f	0.016113428
108	0xbd1eaea2	-0.03874076
109	0xbb918ea9	-0.0044420552
110	0x3d46f2d5	0.048571426
111	0x3e029568	0.12752306
112	0xbe1fb684	-0.15596968
113	0xbde057e2	-0.10954262
114	0x3dcefeb0	0.101071715
115	0xbdeab4c8	-0.114602625
116	0xbe298a2d	-0.16556616
117	0xbea77d6c	-0.32712877
118	0xbea7ae5d	-0.32750216
119	0x3c838161	0.016052904
120	0x3d579e1b	0.052641015
121	0x3dbb1909	0.091356345
122	0x3dddc0e5	0.10827807
123	0xbcd1cc12	-0.025610004
124	0xbe0720ef	-0.13196157
125	0x3e339c0d	0.17539997
126	0x3d73ca90	0.05951935
127	0x3dd1defc	0.10247609
128	0x3e5906b2	0.2119396
129	0x3eb06673	0.34453163
130	0x3e4a3dff	0.19750212
131	0xbceaba1f	-0.028653203
132	0xbd0329f3	-0.032022428
133	0x3dd043f8	0.10169214
134	0x3e1ea106	0.15491113
135	0xbec05457	-0.37564346
136	0x3ea9cabd	0.3316249
137	0xbcc7d2d5	-0.024392525
138	0x3e72e3b9	0.23719682
139	0xbe643f47	-0.22289763
140	0xbe0c46b3	-0.13698845
141	0xbe94f321	-0.29091743
142	0x3e18da90	0.14927125
143	0x3ddb315d	0.10702775
144	0xbe1a4f39	-0.15069284
145	0x3e275e97	0.16344677
146	0xbed54236	-0.41652077
147	0x3ed511f8	0.41615272
148	0xbf047aea	-0.5175005
149	0x3dcea814	0.10090652
150	0xbd22aa8d	-0.03971343
151	0x3e6108d5	0.21976025
152	0x3e5b2f35	0.21404727
153	0x3e9b0b25	0.3028194
154	0xbded7820	-0.11595178
155	0xbdd236c0	-0.10264349
156	0x3e5c16c9	0.21493067
157	0xbe47c3af	-0.19508241
158	0x3c41ece5	0.011836265
159	0xbe5fdce1	-0.21861602
160	0x3df6493e	0.120256886
161	0xbdba357d	-0.09092233
162	0xbe84924f	-0.25892875
163	0xbe79ee41	-0.24407293
164	0x3d57460a	0.05255703
165	0x3e18ed88	0.14934361
166	0xbd608c77	-0.054821458
167	0x3de322e2	0.11090638
168	0xbe6b029e	-0.22950217
169	0x3ece1209	0.40248135
170	0xbdb214a5	-0.08695344
171	0x3e35fafa	0.17771521
172	0x3e09972b	0.13436572
173	0x3e8867ee	0.26641792
174	0x3e2f8159	0.17139186
175	0x3d840b85	0.0644751
176	0x3d43d870	0.047813833
177	0x3dba5576	0.09098332
178	0x3e26e442	0.16298011
179	0xbd7fcb6e	-0.062449865
180	0xbd2ca1be	-0.042146437
181	0x3c5585af	0.013032361
182	0x3d140a71	0.03614277
183	0xbd84543e	-0.064613804
184	0x3df777dc	0.12083408
185	0x3e12537b	0.14289658
186	0xbe489d3c	-0.1959123
187	0xbd8416eb	-0.06449684
188	0x3dec5030	0.11538732
189	0xbdad4b54	-0.08461633
190	0x3c262b28	0.010142125
191	0x3e7b69e9	0.2455212
192	0x3e9ae5e9	0.30253533
193	0x3d7ec8ae	0.0622031
194	0xbe780a7d	-0.24222751
195	0x3dd1167e	0.10209368
196	0xbd269353	-0.040667843
197	0x3a950951	0.0011370574
198	0xbc8bd35d	-0.01706856
199	0x3ba83cba	0.0051341923
200	0x3e8a0df1	0.2696376
201	0xbd37d8fb	-0.044884663
202	0x3ca9ff26	0.020751547
203	0xbc9157c7	-0.01774205
204	0x3dd3dfd0	0.10345423
205	0x3cb98e18	0.022650763
206	0xbd69c3e2	-0.057071574
207	0xbdba687e	-0.091019616
208	0xbce290c4	-0.02765692
209	0x3dd0a6a2	0.10188033
210	0xbd7cd92e	-0.061730556
211	0xbc9eaa5f	-0.019368349
212	0xbd335047	-0.04377773
213	0x3edb1305	0.42787948
214	0xbd846ec1	-0.06466437
215	0x3e161f19	0.146603
216	0x3bf85f83	0.0075797453
217	0x3df36909	0.11885268
218	0xbe1176db	-0.14205496
219	0xbb27db32	-0.0025612828
220	0x3dea505e	0.1144111
221	0xbce7ae0a	-0.02828123
222	0x3d097777	0.033561196
223	0xbdaf568a	-0.08561428
224	0xbe580c08	-0.2109834
225	0xbdc93677	-0.098248415
226	0xbd98aa16	-0.07454316
227	0x3c97e1a6	0.018540215
228	0xbe2ae336	-0.16688237
229	0x3e7da8c2	0.24771407
230	0xbe07e4a7	-0.13270818
231	0xbe0c36ab	-0.13692729
232	0x3eb11704	0.34587872
233	0x3e1c17c6	0.15243444
234	0xbd350dbb	-0.044202548
235	0x3e58e2a9	0.21180214
236	0xbe255d4e	-0.16148874
237	0x3db527a8	0.088454545
238	0x3e1f0815	0.15530427
239	0x3ca36d3a	0.019949544
240	0xbcc64594	-0.0242031
241	0xbd42ebe1	-0.047588233
242	0xbe0258ba	-0.12729159
243	0x3ea6898b	0.32526812
244	0x3d2e98b3	0.042626094
245	0xbd7b148d	-0.061298896
246	0x3e51b629	0.20479645
247	0x3d69c87e	0.05707597
248	0xbe79c000	-0.24389648
249	0x3e1685e1	0.14699508
250	0xbdcbdafd	-0.09953878
251	0xbdfc54c0	-0.12320852
252	0xbe1bee16	-0.15227541
253	0xbe3878c2	-0.18014815
254	0x3e256d0d	0.16154881
255	0x3c5cd0d8	0.013477527

actor.0.bias f4 [64]
0	0x3f4e8223	0.8066732
1	0x3d3a21fe	0.045442574
2	0xbed3e073	-0.4138218
3	0x3d70907b	0.058731537
4	0xbe2d8f01	-0.16949083
5	0x3bb947b0	0.005654298
6	0xbe2033cb	-0.15644757
7	0xbee21ed8	-0.44164157
8	0xbf39e587	-0.72615856
9	0x3ecd4dab	0.40098318
10	0x3f3346a9	0.70029694
11	0xbf321fa0	-0.69579506
12	0x3ee197cc	0.44061124
13	0xbecf59f6	-0.40498322
14	0x3e1d2b98	0.15348661
15	0xbe913826	-0.2836315
16	0x3e1d5905	0.1536599
17	0xbf688bd4	-0.9083836
18	0x3e95f91e	0.29291624
19	0x3c328858	0.010896765
20	0xbe8d38a0	-0.27582264
21	0x3f297c61	0.6620541
22	0x3eab907f	0.3350868
23	0xbda3bbc5	-0.079947986
24	0x3f64d45d	0.8938654
25	0x3ee57707	0.44817373
26	0x3ed67f8b	0.41894183
27	0x3ecec4ca	0.40384513
28	0xbe57eef4	-0.21087247
29	0xbf2de2bb	-0.6792409
30	0xbed5e94c	-0.41779554
31	0x3edb7ab1	0.42867044
32	0x3e2d2b5d	0.16911073
33	0xbf70921e	-0.9397296
34	0xbe7cf230	-0.24701762
35	0x3f1a8ba5	0.6036933
36	0x3eaf9639	0.34294298
37	0xbf31ca31	-0.69449145
38	0xbf37956d	-0.7171238
39	0xbf2c5bf5	-0.67327815
40	0xbe4d16ec	-0.20028275
41	0xbede6aae	-0.43440765
42	0xbeea7584	-0.45792782
43	0x3e96b08b	0.29431567
44	0x3f3168f1	0.6930075
45	0xbda2447e	-0.0792322
46	0x3dcf7ace	0.10130845
47	0xbf19971e	-0.5999621
48	0xbd91dd23	-0.071222566
49	0x3e5a8f54	0.21343738
50	0xbdb3078e	-0.08741675
51	0xbf5deddb	-0.86691064
52	0xbe882bc3	-0.26595888
53	0x3d9622b1	0.073308356
54	0xbf2c4a27	-0.6730065
55	0x3f8c1d8a	1.0946515
56	0x3ec2618f	0.37965056
57	0xbe4b3c25	-0.19847162
58	0xbf0aa656	-0.5416006
59	0x3ef733a6	0.48281592
60	0xbbda1172	-0.0066549117
61	0x3eaf92bc	0.34291637
62	0x3da9bd6d	0.08288083
63	0xbe6f8c14	-0.2339328

actor.2.weight f4 [64, 64]
0	0xbea3c14c	-0.3198341
1	0xbd0ec3ae	-0.034854583
2	0x3cc47d79	0.023985611
3	0xbe109066	-0.14117584
4	0x3ce4720e	0.027886417
5	0xbdac9ccf	-0.08428346
6	0xbe314fba	-0.1731557
7	0xbe76a896	-0.24087748
8	0x3ceb0e33	0.028693294
9	0xbda29439	-0.079384275
10	0x3e09129c	0.13386005
11	0xbd6416e9	-0.05568591
12	0xbce3beae	-0.027800884
13	0xbe7cc71e	-0.24685332
14	0x3d8bdbff	0.0682907
15	0xbd1f2150	-0.03885013
16	0x3d47e25f	0.04879987
17	0x3cd405bc	0.02588164
18	0xbd749152	-0.0597089
19	0xbe8c7aa5	-0.2743732
20	0xbdd4d548	-0.10392243
21	0xbd032822	-0.032020696
22	0x3e5bea92	0.214762
23	0xbe027dc5	-0.1274329
24	0xbdbb7f84	-0.09155181
25	0xbd075fa8	-0.03305021
26	0xbc48bfc1	-0.012252749
27	0x3e8cfe8b	0.2753795
28	0x3bace8a3	0.005276756
29	0x3e613bd4	0.21995479
30	0xbd8f0287	-0.06982904
31	0xbd14e27a	-0.036348797
32	0xbd87d0a5	-0.06631593
33	0x3d71d560	0.05904138
34	0x3cb931ac	0.022606693
35	0x3d941128	0.07229835
36	0x3d9ba01c	0.07598898
37	0x3d0f0870	0.034920156
38	0x3dab5475	0.08365718
39	0x3e89d2b8	0.26918578
40	0xbbfc4fd5	-0.0076999464
41	0xbda1e93f	-0.07905816
42	0xbc8e4c1b	-0.017370274
43	0xbe692adb	-0.22770254
44	0xbdfad6ee	-0.12248026
45	0xbd4bfa57	-0.04979929
46	0xbdc565f1	-0.096385844
47	0xbe1d2ec2	-0.15349868
48	0x3de0f366	0.109839246
49	0xbe235ec8	-0.15954125
50	0x3e0657b5	0.13119395
51	0x3ee7350f	0.45157668
52	0xbe28da76	-0.16489586
53	0xbd99c508	-0.07508284
54	0x3d82e77d	0.06391809
55	0xbd9b17ce	-0.075729
56	0xbe21a4de	-0.15785548
57	0x3d9f13ee	0.07767473
58	0xbdf8c9f2	-0.12147893
59	0x3ce91ec1	0.028457047
60	0xbc92b740	-0.017909646
61	0x3d8f8ef8	0.07009691
62	0xbda209fe	-0.07912062
63	0x3ec48f03	0.3839036
64	0xbd7e8d3e	-0.062146418
65	0x3e76a375	0.24085791
66	0x3da78cb8	0.08181137
67	0x3de05de0	0.10955405
68	0x3ce8ba57	0.028409166
69	0x3e4cd3c7	0.20002662
70	0xbe1a27d3	-0.15054254
71	0x3d5786c5	0.05261876
72	0xbdf9e642	-0.12202121
73	0xbe07d2de	-0.13264033
74	0xbd545519	-0.051838968
75	0x3ea0b813	0.31390437
76	0x3c2636cc	0.0101449005
77	0x3d93001a	0.07177754
78	0xbe73e033	-0.23815994
79	0xbc86ad18	-0.01643996
80	0x3e92455d	0.28568545
81	0xbde02ae6	-0.10945682
82	0xbd4f228c	-0.050570056
83	0x3d9112f1	0.07083691
84	0xbce406d3	-0.027835285
85	0xbe5811a2	-0.21100476
86	0xbe814b5d	-0.2525281
87	0xbcd0311b	-0.02541404
88	0xbd875583	-0.06608107
89	0xbc71c73d	-0.014756975
90	0x3e0a3959	0.13498439
91	0x3e1cdc5f	0.1531844
92	0xbdb7c8b5	-0.08973829
93	0xbd028e9a	-0.031874277
94	0xbe4066b6	-0.18789181
95	0xbc316514	-0.010827322
96	0xbca29387	-0.019845737
97	0x3dcc4479	0.099739976
98	0xbd035ca6	-0.03207078
99	0x3daaa1ee	0.08331667
100	0xbdc44925	-0.09584264
101	0xbd5f4bac	-0.054515526
102	0xbce860bc	-0.028366439
103	0x3e9cae3f	0.3060169
104	0x3e67e733	0.22646789
105	0xbd541142	-0.05177427
106	0xbdc22504	-0.094797164
107	0xbdba6552	-0.091013566
108	0xbbd18976	-0.0063945604
109	0x3dc420ec	0.09576592
110	0xbcfb4217	-0.030671163
111	0x3e0181c1	0.12647153
112	0x3d02c94e	0.03193026
113	0xbdb29c3d	-0.08721206
114	0xbe1243e8	-0.14283717
115	0x3da4dfc1	0.0805049
116	0x3d095bd7	0.03353485
117	0xbc237cf7	-0.009978524
118	0xbd7059cb	-0.058679383
119	0xbddd5a12	-0.10808195
120	0xbe146ee2	-0.14495423
121	0xbd296a29	-0.041361008
122	0x3cf9f766	0.030513477
123	0xbe09117f	-0.1338558
124	0xbc9a8945	-0.018864283
125	0x3c8ee206	0.01744176
126	0xbdcac940	-0.09901667
127	0x3e9704cf	0.29495856
128	0x3dd1985e	0.1023414
129	0xbd9eccbe	-0.07753895
130	0x3e3f410e	0.1867716
131	0xbc158fb0	-0.009128496
132	0xbe08187b	-0.13290589
133	0xbbd263cd	-0.0064205886
134	0x3d7f5566	0.0623373
135	0xbdaca335	-0.08429567
136	0x3c8668a4	0.016407318
137	0xbdc1e588	-0.09467608
138	0xbde4f590	-0.1117965
139	0x3c7f150f	0.015568986
140	0x3e7fd695	0.249842
141	0x3cf2e31a	0.029649306
142	0xbddc1ff4	-0.10748282
143	0x3d9691f9	0.07352061
144	0x3e4c6b6f	0.19962858
145	0xbe443657	-0.19161354
146	0x3e766578	0.24062145
147	0xbe4daed5	-0.20086224
148	0x3def9fc2	0.11700393
149	0xbd04ea5e	-0.032450072
150	0x3d5284c4	0.051396146
151	0x3dd9e375	0.10639087
152	0x3de0c54a	0.1097513
153	0x3d505620	0.050863385
154	0x3cbb6a2a	0.022877771
155	0x3e07f491	0.13276888
156	0xbd7ab820	-0.06121075
157	0x3d40b8cc	0.047051236
158	0xbd0d202b	-0.034454506
159	0xbc56a386	-0.01310051
160	0xbb8e7b7b	-0.004348216
161	0xbe99103a	-0.29895192
162	0xbd8344e2	-0.06409623
163	0x3e41a5e0	0.18910933
164	0x3e5a72d3	0.21332864
165	0xbe43359a	-0.19063416
166	0xbcf1a04f	-0.029495386
167	0xbe0630f8	-0.13104618
168	0xbd7cae5a	-0.061689712
169	0xbde63194	-0.11239925
170	0x3d6c7660	0.05773008
171	0xbe0a96dd	-0.13534112
172	0x3ca6b02b	0.020347675
173	0x3d3e8516	0.04651364
174	0x3df976f7	0.12180894
175	0xbdb2c638	-0.087292135
176	0xbe02dece	-0.12780306
177	0x3cb8a4cc	0.022539519
178	0x3e061413	0.13093595
179	0xbe85fda2	-0.2617007
180	0xbe15760a	-0.1459581
181	0xbd82a873	-0.063797854
182	0x3c0bcc84	0.008532647
183	0x3dce53e4	0.100745946
184	0x3e950606	0.29106158
185	0x3dae5324	0.085119516
186	0xbe434416	-0.19068941
187	0xbd20d70e	-0.039267592
188	0x3ddc13dd	0.10745976
189	0x3e16a057	0.14709602
190	0xbdbfd4d6	-0.09366767
191	0xbdced654	-0.100994736
192	0xbe1e0c73	-0.15434437
193	0xbd344063	-0.044006716
194	0x3c7d3bdf	0.015456169
195	0xbe966520	-0.29374027
196	0xbe14e5cb	-0.14540784
197	0x3d200016	0.039062582
198	0xbe63f59f	-0.22261666
199	0xbbc3052d	-0.0059515447
200	0x3e76b895	0.2409385
201	0xbba1a989	-0.0049335402
202	0xbdcda1e6	-0.10040645
203	0x3dcf5402	0.10123445
204	0xbe079398	-0.13239896
205	0xbe28a35a	-0.16468564
206	0xbc84a049	-0.016189711
207	0xbd8d50c3	-0.0690017
208	0xbe4dc38f	-0.20094131
209	0xbd172340	-0.03689885
210	0x3cd7cf22	0.026343886
211	0xbb821c0b	-0.003970628
212	0xbb4b6f7e	-0.0031041796
213	0xbdd4a01a	-0.103820994
214	0x3ce16df1	0.027518244
215	0x3d468992	0.04847104
216	0xbc07c9f7	-0.008287898
217	0xbde8da7d	-0.11369798
218	0xbcbafd5e	-0.022825893
219	0xbde1014a	-0.10986574
220	0xbd18adfe	-0.037275307
221	0x3e4086e5	0.18801458
222	0xbe1cee7f	-0.15325354
223	0x3db44745	0.08802656
224	0xbdfd647e	-0.12372683
225	0x3e202b82	0.15641597
226	0x3d298318	0.041384786
227	0xbdb441e6	-0.08801632
228	0x3da4916c	0.080355495
229	0x3cf8976b	0.03034564
230	0xbdb91f9c	-0.09039232
231	0x3e882bca	0.26595908
232	0x3da210b6	0.079133436
233	0xbdeaa89c	-0.11457941
234	0x3d9bc297	0.076054744
235	0xbd0da8f0	-0.03458494
236	0x3d0c8286	0.034304164
237	0x3e7b9cb8	0.24571502
238	0x3e16f6e7	0.14742623
239	0xbd1083c9	-0.03528193
240	0x3db14784	0.08656219
241	0x3db8032e	0.089849815
242	0xbc81a528	-0.015825823
243	0x3da17e0a	0.07885368
244	0xbd41b0b7	-0.04728767
245	0xbe26a5c1	-0.16274168
246	0x3e3decb6	0.1854733
247	0xbdd00323	-0.10156848
248	0xbe271678	-0.16317165
249	0x3d882e0b	0.06649407
250	0x3e43b452	0.19111755
251	0x3e16514e	0.14679453
252	0x3d9a5de6	0.07537441
253	0xbdbe704e	-0.09298764
254	0xbe24fc2e	-0.16111824
255	0x3d0b118c	0.03395228

actor.2.bias f4 [64]
0	0x3dce6e33	0.100796126
1	0xbe08fa17	-0.13376652
2	0x3db120d9	0.08648843
3	0xbe1d28b2	-0.15347555
4	0xbe00b7a8	-0.1257006
5	0x3e7e3092	0.24823216
6	0xbe62a29c	-0.22132343
7	0xbe02a264	-0.1275726
8	0xbc6bb8b2	-0.0143872965
9	0xbe131320	-0.14362764
10	0xbcdbd3e2	-0.026834432
11	0xbd915c11	-0.070976384
12	0x3d88968d	0.0666934
13	0xbe04e15d	-0.12976594
14	0xbd04e9b8	-0.032449454
15	0xbd91c473	-0.07117548
16	0x3eb88f11	0.3604665
17	0x3e396d13	0.18108015
18	0x3d0d54e2	0.03450478
19	0x3e913bed	0.28366032
20	0x3c23929f	0.009983688
21	0x3db1ecae	0.08687721
22	0x3d98f700	0.074689865
23	0xbd3dd2c9	-0.0463436
24	0x3d049444	0.03236796
25	0xbe633250	-0.22187161
26	0x3cf33f13	0.029693162
27	0x3e866124	0.26245987
28	0xbbae4d04	-0.0053192396
29	0x3e3e1478	0.18562496
30	0xbd18c230	-0.037294567
31	0x3e39ac7d	0.18132205
32	0x3d279c35	0.040920455
33	0xbc4f36c6	-0.012647336
34	0xbcc8d561	-0.02451581
35	0xbd15389b	-0.036430936
36	0xbe406036	-0.18786702
37	0xbe161f42	-0.14660361
38	0x3dfe9242	0.1243024
39	0x3d81ff0d	0.06347475
40	0xbd601b44	-0.054713503
41	0x3e104e84	0.14092451
42	0x3de604e6	0.11231403
43	0x3c432122	0.011909755
44	0xbd3692fa	-0.04457376
45	0x3ea8b6f0	0.3295207
46	0x3e0d23f9	0.13783254
47	0xbda5df2d	-0.08099208
48	0x3e510131	0.2041061
49	0xbc9ef76a	-0.019405086
50	0x3db3846c	0.08765492
51	0x3df64452	0.1202475
52	0x3e739661	0.23787834
53	0x3db3813c	0.08764884
54	0x3e1a5b0d	0.15073796
55	0xbe172166	-0.14758834
56	0x3e584c9c	0.21122974
57	0xbea716c5	-0.3263456
58	0x3dc3feca	0.095700815
59	0x3c978210	0.018494636
60	0xbd83709e	-0.064179644
61	0x3d6bf8f2	0.05761046
62	0xbd981e43	-0.07427647
63	0xbd85cb33	-0.06532898

actor.4.weight f4 [122, 64]
0	0x3d0941fe	0.0335102
1	0xbb953fe0	-0.0045547336
2	0x3e2cc264	0.16871029
3	0xbdbf31f9	-0.093357034
4	0xbe8f68c8	-0.2800963
5	0x3e2a025f	0.16602467
6	0xbb4f215c	-0.0031605577
7	0x3d683b61	0.056697253
8	0xbe1ad3fd	-0.1511993
9	0xbd4f0806	-0.05054476
10	0x3e0c9349	0.1372806
11	0x3c4293df	0.0118760755
12	0x3c584a2c	0.013201278
13	0xbd8b3c59	-0.0679862
14	0xbdfa7f38	-0.12231296
15	0x3d8a7b49	0.06761796
16	0x3e5b99fd	0.2144546
17	0x3e0c439a	0.13697663
18	0x3e0a66e6	0.13515815
19	0x3dfdc44c	0.12390956
20	0xbd906897	-0.07051199
21	0x3e4604f1	0.19337822
22	0x3d4ff105	0.050766964
23	0xbdc195b6	-0.09452383
24	0x3def1310	0.11673558
25	0xbdd84444	-0.10559896
26	0xbe55a2b9	-0.20862855
27	0x3d84e878	0.064896524
28	0xbe0903bc	-0.13380331
29	0x3e452e14	0.19255859
30	0xbd6a123e	-0.057146303
31	0x3e558579	0.20851697
32	0xbdad9d4b	-0.08477267
33	0x3db08bf0	0.08620441
34	0x3cd0d232	0.025490854
35	0x3dd2f044	0.10299733
36	0xbe1ef545	-0.1552325
37	0xbe21c305	-0.1579705
38	0x3e2eca51	0.17069365
39	0x3e945720	0.2897272
40	0xbdb59d9a	-0.08867951
41	0x3dfe2f61	0.124113806
42	0x3e747470	0.23872542
43	0x3dfb3324	0.12265614
44	0xbd0d1fa4	-0.034454003
45	0x3dfc807e	0.123291954
46	0x3d5ef14e	0.054429345
47	0x3b2fde33	0.0026835322
48	0x3e9bb1ff	0.30409238
49	0xbb183aa1	-0.0023228305
50	0x3d72718e	0.059190325
51	0x3e7e1518	0.24812734
52	0x3e5bfa59	0.21482219
53	0x3e3e417b	0.18579666
54	0x3e684f02	0.22686389
55	0xbd1d2410	-0.03836447
56	0x3dd2f2fc	0.10300252
57	0xbe7ebc48	-0.24876511
58	0x3d9012e8	0.07034856
59	0xbc8b1f5c	-0.016982727
60	0x3e1783f2	0.14796427
61	0x3d921f2c	0.07134852
62	0xbd800f15	-0.06252877
63	0x3d775753	0.060386013
64	0xbd9c8795	-0.07643048
65	0x3c463a7c	0.012098905
66	0x3de36e24	0.11104992
67	0xbd9b6cb0	-0.0758909
68	0xbd903589	-0.07041461
69	0x3dca75aa	0.09885724
70	0xbe0596e6	-0.13045844
71	0x3e17c91b	0.1482281
72	0xbe29f871	-0.16598679
73	0x3ddb172c	0.10697779
74	0xbd71747f	-0.05894899
75	0x3e04b1a6	0.12958393
76	0xbdd76679	-0.10517592
77	0x3e19d381	0.15022089
78	0x3d1f483e	0.038887255
79	0x3d35ee53	0.044416737
80	0x3dfe4550	0.12415564
81	0xbd6231ba	-0.055223204
82	0xbd1024e5	-0.035191435
83	0x3e3cc1a4	0.18433243
84	0x3e412fc1	0.18865873
85	0x3e4bf2d7	0.19916855
86	0x3de1ea35	0.110309996
87	0xbdaf28e4	-0.08552721
88	0x3d843095	0.06454579
89	0x3ca45683	0.020060783
90	0xbd4ad791	-0.049521986
91	0x3df5d401	0.12003327
92	0xbe031a77	-0.12803064
93	0x3e2f7902	0.17136005
94	0x3db8af53	0.090178154
95	0x3deccdc0	0.11562681
96	0xbdac6ade	-0.08418821
97	0x3caf6c4c	0.021413945
98	0x3d24510c	0.040116355
99	0xbe755380	-0.23957634
100	0xbdb32fcd	-0.08749352
101	0xbd8d42ff	-0.06897544
102	0x3d41b7a8	0.04729429
103	0x3e45e409	0.1932527
104	0x3e021e27	0.12706815
105	0xbc3bd965	-0.011465405
106	0x3e13d3ca	0.1443626
107	0x3e1f7438	0.15571678
108	0x3ce2e05d	0.027694875
109	0x3e392f9e	0.18084571
110	0x3cd4edc9	0.025992291
111	0x3d186ebe	0.037214987
112	0x3dbf3202	0.0933571
113	0xbc894ff1	-0.016761752
114	0xbd0192b6	-0.031634055
115	0xbb8ffa65	-0.004393863
116	0x3e0819ab	0.13291042
117	0x3d3e0d70	0.046399534
118	0xbc3ba5d3	-0.01145311
119	0xbe08581c	-0.13314861
120	0x3d00aec0	0.031416655
121	0xbe058154	-0.13037616
122	0xbe1478f5	-0.14499266
123	0xbd3c38d7	-0.045952644
124	0xbe315084	-0.1731587
125	0x3d5b255e	0.053502433
126	0xbddeb920	-0.108751535
127	0x3dc281d3	0.09497418
128	0xbdd0f6ec	-0.102033466
129	0xbe0897cf	-0.1333916
130	0xbd0d38dd	-0.034478057
131	0xbd63d0ac	-0.055618927
132	0x3c879dac	0.016554676
133	0x3b679f80	0.0035342872
134	0x3e1716d0	0.14754796
135	0xbc4af076	-0.012386432
136	0x3d579586	0.05263283
137	0x3e39fbae	0.18162414
138	0x3df2d2c6	0.11856608
139	0x3e98fcd5	0.29880396
140	0x3b86b13b	0.004110483
141	0xbd2a8480	-0.041630268
142	0x3ca26ec6	0.019828212
143	0x3df31fdd	0.11871312
144	0x3d962b73	0.07332506
145	0xbce43479	-0.027857052
146	0xbc3cee1e	-0.011531381
147	0x3e0a7043	0.13519387
148	0x3d46fb89	0.048579726
149	0xba8c88fe	-0.0010721979
150	0xbcecdb1a	-0.02891307
151	0x3d9c07a1	0.076186426
152	0x3d07d138	0.03315851
153	0xbd61ad9c	-0.055097207
154	0x3d92438c	0.0714179
155	0xbd89e92f	-0.06733929
156	0xbdf60294	-0.120122105
157	0xbd9a5cc1	-0.07537223
158	0x3d9444d5	0.07239691
159	0x3dd0395f	0.10167193
160	0xbcbfec53	-0.023428118
161	0xbe285255	-0.16437657
162	0xbdc7b643	-0.097515605
163	0x3de13e9c	0.1099827
164	0xbe09a5be	-0.13442132
165	0x3e3fb7e9	0.187225
166	0xbdbaf7c4	-0.09129289
167	0xba8d88c5	-0.0010798207
168	0xbd3e92c2	-0.046526678
169	0xbdad0f41	-0.08450175
170	0x3b13004c	0.0022430597
171	0x3d31a89a	0.04337368
172	0x3e904797	0.2817962
173	0x3d96edf8	0.07369608
174	0x3e27a21b	0.16370432
175	0xbdd81ebd	-0.10552738
176	0x3db97c5a	0.09056921
177	0x3d7e66e3	0.06210984
178	0x3dfe1f82	0.124083534
179	0xbd205d8f	-0.039151724
180	0x3c552b64	0.013010833
181	0xbd934da2	-0.07192542
182	0xbe0043eb	-0.12525909
183	0xbc754907	-0.014971024
184	0xbd2a6e33	-0.041609
185	0x3b26f3b7	0.0025474855
186	0x3d813b45	0.06310133
187	0x3d15a0e0	0.036530375
188	0x3da71edb	0.08160182
189	0xbdb63d0c	-0.088983625
190	0x3e18d809	0.14926161
191	0x3e1dacf8	0.15398014
192	0xbd0ab811	-0.033866946
193	0xbe10c630	-0.14138103
194	0x3e5c4193	0.2150939
195	0xbe705d68	-0.23473132
196	0xbe0b9121	-0.13629581
197	0x3e6b8f27	0.23003827
198	0xbe45593a	-0.19272318
199	0xbdfd5f90	-0.12371743
200	0xbd8a9007	-0.06765752
201	0xbdba4b3c	-0.09096381
202	0x3e0ac80e	0.13552877
203	0x3e0915c5	0.1338721
204	0x3e08240b	0.13295
205	0xbdac1a7d	-0.0840349
206	0x3c9aba9c	0.01888781
207	0xb9a7ffb1	-0.00032043227
208	0x3e63632e	0.22205803
209	0x3e1c68c0	0.15274334
210	0x3e09e6b5	0.13466914
211	0x3e6f3651	0.23360564
212	0xbd4bda6e	-0.049768858
213	0x3e218c93	0.15776281
214	0x3d3f8d04	0.046765342
215	0xbe4f5322	-0.20246556
216	0x3e88eb8a	0.26742202
217	0xbeb3e399	-0.3513458
218	0xbe2fe445	-0.17176922
219	0x3e050acf	0.12992404
220	0xbe3199ec	-0.17343873
221	0x3e39f485	0.18159683
222	0x3d02b5d8	0.0319117
223	0x3eaa066a	0.3320802
224	0xbe8122c2	-0.2522183
225	0x3e72f00d	0.23724385
226	0x3e2fc7e0	0.1716609
227	0xbe155c66	-0.14586028
228	0xbe9f6de8	-0.3113854
229	0x3c32a8f6	0.010904541
230	0x3df2d98f	0.11857902
231	0x3e2c396c	0.1681878
232	0xbdca5818	-0.09880084
233	0x3e10f985	0.14157684
234	0x3e72420b	0.23658006
235	0x3c4af00a	0.012386331
236	0x3d1f0c96	0.038830362
237	0x3e6d280a	0.23159805
238	0xbd1c6a83	-0.038187515
239	0xbda49fa0	-0.080382586
240	0x3e50b247	0.20380507
241	0xbe0ba888	-0.13638508
242	0x3d9726da	0.07380457
243	0x3e2ee615	0.17079957
244	0x3e3a1d85	0.18175323
245	0x3d03e050	0.032196343
246	0x3e57cbcf	0.2107384
247	0xbe837e95	-0.25682512
248	0x3e74ae98	0.23894727
249	0xbe92c8a8	-0.28668714
250	0x3deb3707	0.11485105
251	0x3d89b484	0.06723884
252	0xbd217244	-0.039415613
253	0x3d53b045	0.051681776
254	0xbe49b9eb	-0.19699828
255	0xbdafcb78	-0.085837305

actor.4.bias f4 [122]
0	0x3e30a417	0.17250095
1	0x3e2792cc	0.16364592
2	0x3dd01205	0.10159687
3	0x3ea4414c	0.32081068
4	0xbd8eea30	-0.069782615
5	0x3e22be41	0.15892889
6	0x3e1d64af	0.15370439
7	0x3d2e944a	0.04262189
8	0x3dd36d03	0.10323527
9	0x3e60e07f	0.21960638
10	0x3e99f6fa	0.3007124
11	0x3e865246	0.26234645
12	0x3d46f2a0	0.04857123
13	0xbb2143f4	-0.0024607154
14	0x3d71299b	0.05887757
15	0xbde80e4a	-0.113308504
16	0xbf20ea9d	-0.6285799
17	0xbd8eb400	-0.06967926
18	0xbee231e8	-0.441787
19	0xbf02b5ec	-0.5105884
20	0xbcc2c507	-0.02377559
21	0x3e957e5d	0.2919797
22	0x3e3fc425	0.18727167
23	0xbe1c9568	-0.15291369
24	0xbbf14b87	-0.00736374
25	0xbf2ca4db	-0.6743905
26	0x3d418a2d	0.047250915
27	0xbf37b0e8	-0.7175431
28	0x3e2620a0	0.16223383
29	0xbe24dfee	-0.16101047
30	0x3e0f4f2e	0.13995048
31	0xbf0aa836	-0.5416292
32	0xbe0dba44	-0.13840586
33	0x3da5f63d	0.08103607
34	0xbdde4d32	-0.108545676
35	0x3d509fce	0.05093365
36	0xbe50e263	-0.2039886
37	0xbe9146e9	-0.28374413
38	0xbedf99d3	-0.43672046
39	0xbe23460f	-0.15944694
40	0xbf2a011b	-0.66407937
41	0xbd9ef961	-0.07762409
42	0xbef8a508	-0.4856341
43	0x3e0b58c5	0.13608082
44	0x3e4f4846	0.20242414
45	0xbdb0916e	-0.086214885
46	0xbc5b2e0b	-0.013377677
47	0xbe1a31ef	-0.1505811
48	0xbe58f6f9	-0.21187963
49	0xbeb0640b	-0.34451327
50	0xbde23462	-0.110451475
51	0xbee30a99	-0.44344023
52	0xbd7dafc2	-0.061935194
53	0xbebd53ac	-0.369779
54	0x3e8b8f33	0.2725769
55	0x3eb6d3a3	0.3570834
56	0xbeb1a98b	-0.34699664
57	0xbe2db000	-0.1696167
58	0xbee41ad3	-0.44551715
59	0xbf1a540d	-0.602845
60	0xbf233aae	-0.63761413
61	0xbf3fba30	-0.74893475
62	0xbf14cc9e	-0.5812472
63	0xbed1f054	-0.41003668
64	0xbf47c166	-0.7802948
65	0x3cba3264	0.022729106
66	0x3e612864	0.21988064
67	0xbea71abb	-0.3263758
68	0x3d31a10d	0.04336648
69	0x3ebd107d	0.36926642
70	0x3b9ba71f	0.004750147
71	0xbf27f2fb	-0.65605134
72	0x3d95a1d1	0.07306255
73	0xbe488438	-0.19581687
74	0xbde7cb6c	-0.113180965
75	0xbef39dc7	-0.47581312
76	0x3daf3f14	0.08556953
77	0x3e9e1e53	0.3088251
78	0xbebffc3e	-0.37497133
79	0xbe5e3510	-0.21699929
80	0xbf34427c	-0.7041395
81	0xbe42a84a	-0.1900951
82	0xbf4d4872	-0.8018867
83	0xbe9ca5aa	-0.30595142
84	0xbf38ec5c	-0.72235656
85	0xbbf3ee6e	-0.0074441945
86	0xbf02a185	-0.5102771
87	0x3d807170	0.062716365
88	0x3e3d2c40	0.18473911
89	0xbbd24622	-0.006417052
90	0xbe407bfc	-0.18797296
91	0xbeed32b6	-0.46327752
92	0x3e139682	0.14412883
93	0xbdf75d50	-0.12078345
94	0xbd8838c7	-0.066514544
95	0xbf11c8b5	-0.5694688
96	0xbb116599	-0.00221858
97	0xbec516af	-0.3849387
98	0x3e203184	0.15643889
99	0x3ea6038b	0.32424578
100	0xbe2456d9	-0.16048755
101	0xbe3b4f5f	-0.18291996
102	0xbec75570	-0.3893237
103	0xbf310259	-0.6914421
104	0xbf07a603	-0.5298769
105	0xbe3af78f	-0.18258499
106	0xbee3798b	-0.44428667
107	0xbe824bd9	-0.25448492
108	0xbf04d981	-0.51894385
109	0x3cb86eb8	0.022513732
110	0x3ea9028e	0.33009762
111	0xbdcfff27	-0.10156088
112	0x3e9ef549	0.31046513
113	0x3c909cc8	0.017652884
114	0x3e2c1c16	0.16807589
115	0x3e3e902c	0.18609685
116	0x3e227b99	0.15867461
117	0xbd08db30	-0.03341216
118	0x3e6b5c26	0.2298437
119	0x3e4590b6	0.19293484
120	0x3e31d2c3	0.17365555
121	0xbf18c0f3	-0.5966942

critic.0.weight f4 [64, 121]
0	0xbe2e6045	-0.17028911
1	0xbe106825	-0.14102228
2	0x3e4b6a6c	0.19864815
3	0xbe482266	-0.19544372
4	0xbafc8287	-0.0019264974
5	0xbe0ea1af	-0.13928865
6	0x3e47665a	0.19472638
7	0x3e70edec	0.2352826
8	0xbe5adfa3	-0.21374373
9	0x3dfc2d57	0.123133354
10	0xbe867bd1	-0.2626634
11	0xbe4b8e52	-0.1987851
12	0x3dde68b0	0.10859811
13	0xbd7a8e5c	-0.06117092
14	0xbd98195c	-0.07426712
15	0xbe1851ee	-0.14875004
16	0xbdceeba3	-0.10103538
17	0x3c71bf9b	0.014755155
18	0xbe0a68f9	-0.13516606
19	0xbe8bc787	-0.27300665
20	0x3d82e82d	0.0639194
21	0xbd97f0bd	-0.07418964
22	0xbe9e1df4	-0.30882227
23	0xbe4aa364	-0.19788891
24	0xbe978fca	-0.2960189
25	0x3e144c50	0.14482236
26	0xbe653cec	-0.22386521
27	0x3d2f9d88	0.042874843
28	0xbc284b3f	-0.010271846
29	0xbd19a11f	-0.037507173
30	0x3db75f0c	0.08953676
31	0xbde76c23	-0.11299922
32	0x3c4b25ca	0.012399146
33	0xbe9c6ce2	-0.3055182
34	0x3db0c1de	0.08630727
35	0xbe069fe7	-0.13146935
36	0xbe0cfe62	-0.13768914
37	0xbedb9b3e	-0.42891878
38	0xbe63388d	-0.22189541
39	0xbeb563ec	-0.35427797
40	0xbe9107a6	-0.28326148
41	0xba3f8112	-0.0007305305
42	0xbeecca18	-0.46247935
43	0xbe4aa368	-0.19788897
44	0x3d7d4c26	0.0618402
45	0xbda9a7a7	-0.0828393
46	0x3c28a11c	0.010292318
47	0x3e04de21	0.1297536
48	0xbd9f8caa	-0.077905014
49	0x3e94d58c	0.29069173
50	0xbc271530	-0.010197923
51	0xbda41083	-0.08010962
52	0x3e4cc4ae	0.19996902
53	0x3dc1b52a	0.094583824
54	0xbe43e5be	-0.19130608
55	0xbdcb8d3d	-0.099390484
56	0xbe96d096	-0.29456013
57	0xbc26c008	-0.01017762
58	0xbe78f1e0	-0.24311018
59	0xbea36219	-0.3191078
60	0xbe0812d1	-0.13288428
61	0xbee57abc	-0.448202
62	0xbe80233f	-0.2502689
63	0xbe1399d8	-0.14414155
64	0xbe635c18	-0.222031
65	0x3e703bd5	0.23460324
66	0x3cc0f1c4	0.023552783
67	0xbde1740c	-0.11008462
68	0x3b68e0bc	0.0035534343
69	0x3b19d244	0.0023471275
70	0xbcd0d4a4	-0.02549202
71	0xbd652870	-0.055946767
72	0xbd7ed51f	-0.062214967
73	0x3e50d767	0.2039467
74	0x3c24676b	0.010034422
75	0x3de48208	0.11157614
76	0x3d10fb75	0.035396058
77	0x3e18f322	0.14936498
78	0x3e74cf85	0.23907287
79	0xbcde0e3f	-0.027106402
80	0xbd6b2970	-0.057412565
81	0x3e2e3d49	0.17015566
82	0xbe419c35	-0.18907245
83	0xbe0c9fd8	-0.1373285
84	0xbe856051	-0.26050046
85	0x3e1ecd26	0.15507945
86	0xbe878428	-0.26468015
87	0xbe8a6205	-0.27027908
88	0x3d7e0b21	0.062022332
89	0x3cbd4ee2	0.023108903
90	0x3dd7bb88	0.105338156
91	0xbd9ebbee	-0.077506885
92	0xbea95354	-0.33071387
93	0xbd3a6d4c	-0.04551439
94	0x3ddd7e56	0.10815112
95	0x3b50729a	0.003180659
96	0x3c4514a4	0.012028847
97	0x3e689af5	0.22715361
98	0x3e56d62b	0.20980136
99	0xbdc0f7f1	-0.09422291
100	0xbe88565c	-0.26628387
101	0x3ca5c129	0.020233708
102	0x3d8ac1f3	0.06775274
103	0x3d9059bc	0.070483655
104	0xbe0890d2	-0.13336495
105	0xbd344279	-0.044008706
106	0x3cc2c03f	0.02377331
107	0xbe508ad2	-0.20365456
108	0xbe274039	-0.16333093
109	0xbe6dec8a	-0.23234764
110	0xbd9e66c4	-0.07734445
111	0x3db292c3	0.08719399
112	0xbc5609dd	-0.013063875
113	0xbe1a1375	-0.15046485
114	0xbd3e3c4a	-0.046444215
115	0xbd55fd9a	-0.052243806
116	0x3c1b6d54	0.009486515
117	0xbe917611	-0.2841039
118	0xbdaf716d	-0.08566556
119	0xbd9a5df5	-0.07537452
120	0x3e13e85e	0.1444411
121	0xbe48e436	-0.19618306
122	0x3dd3c0c2	0.103395
123	0xbe4a8d99	-0.19780578
124	0xbdd3400a	-0.10314949
125	0x3da6616a	0.08124049
126	0xbe838959	-0.25690725
127	0xbc89bb83	-0.016813045
128	0xbed00e72	-0.4063602
129	0xbe12c1e2	-0.14331773
130	0xbd0e150a	-0.034688033
131	0xbe3c9b7d	-0.18418689
132	0x3d742ea6	0.0596148
133	0x3eb2df75	0.3493611
134	0xbde3e880	-0.1112833
135	0xbd9f1065	-0.07766799
136	0xbe030303	-0.12794118
137	0xbdaa6454	-0.08319917
138	0x3d9c0418	0.07617968
139	0x3e19d231	0.15021588
140	0xbe3a98cc	-0.1822235
141	0x3e122f11	0.14275767
142	0x3da16320	0.07880235
143	0xbe0298ab	-0.1275355
144	0xbdb4ef87	-0.08834749
145	0xbed05506	-0.40689868
146	0x3e4d944c	0.20076102
147	0xbca7ca49	-0.0204822
148	0x3d8bb170	0.06820953
149	0xbdbf0950	-0.09327948
150	0xbb957f41	-0.004562289
151	0xbf306343	-0.6890146
152	0xbc8ad578	-0.016947493
153	0x3cd4a776	0.025958758
154	0x3d974598	0.07386321
155	0x3e15ede0	0.14641523
156	0xbe092b17	-0.13395344
157	0x3d78a19e	0.060701005
158	0x3d1e0504	0.038579002
159	0xbcfeb89c	-0.031093888
160	0xbe8f03f8	-0.27932715
161	0x3e4bae92	0.19890812
162	0x3d917311	0.07102025
163	0x3e9b5773	0.30340156
164	0xbe28fbab	-0.16502254
165	0x3e082870	0.13296676
166	0xbe2a2db2	-0.16618994
167	0x3c375c78	0.01119148
168	0x3da4a259	0.08038778
169	0xbcfad70d	-0.030620122
170	0xbd51b731	-0.051200096
171	0x3e5ddf2f	0.21667169
172	0xbe0aadd0	-0.13542867
173	0xbe160e59	-0.1465391
174	0xbe0a029b	-0.13477556
175	0x3d71729e	0.058947198
176	0xbde08e69	-0.109646626
177	0x3e551e68	0.2081238
178	0xbdf0c9fc	-0.117572755
179	0x3c2165f6	0.00985097
180	0x3e74a1e5	0.23889883
181	0x3e06b9a7	0.13156758
182	0x3e681d43	0.22667412
183	0xbe024511	-0.12721659
184	0xbccae548	-0.024767533
185	0x3d81948c	0.06327161
186	0xbd2753d7	-0.04085144
187	0xbe69aa59	-0.22818889
188	0x3e0dc157	0.13843285
189	0xbe0fca23	-0.14041953
190	0xbb3f1819	-0.002915865
191	0x3e198b14	0.1499446
192	0x3d65719d	0.056016553
193	0x39aaad64	0.00032554113
194	0xbe136ac1	-0.14396192
195	0x3db46041	0.088074215
196	0xbe02b454	-0.12764102
197	0x3dcd15bc	0.10013911
198	0x3d4b9ea2	0.04971183
199	0x3e1d4414	0.15358001
200	0x3e65a764	0.22427136
201	0x3f057219	0.52127224
202	0x3e52667c	0.20546907
203	0x3e382c21	0.17985584
204	0x3d10da42	0.035364397
205	0x3e0341de	0.12818095
206	0xbd37cce1	-0.044873122
207	0x3dc4773f	0.09593057
208	0x3e28eb75	0.1649607
209	0xbe2eab22	-0.1705747
210	0x3d352889	0.04422811
211	0xbf1f3fea	-0.622069
212	0x3dae6179	0.08514685
213	0xbe2a5c5a	-0.16636792
214	0xbe8c1afa	-0.2736433
215	0xbdc7945e	-0.09745096
216	0xbe5f0945	-0.2178088
217	0xbe126b8f	-0.14298843
218	0xbe0fb30a	-0.14033142
219	0x3e3f8a68	0.18705142
220	0x3e92af14	0.286492
221	0x3e7b98df	0.24570034
222	0xb9f3c5b4	-0.00046495872
223	0x3e6328f8	0.22183597
224	0xbec5c46a	-0.38626415
225	0x3ea45c30	0.32101583
226	0x3dafb746	0.085798785
227	0x3e7910fc	0.24322885
228	0x3d231bfb	0.039821606
229	0x3e47e989	0.1952268
230	0x3d89d2d4	0.067296654
231	0x3e6c1164	0.23053509
232	0xbe9360f0	-0.28784895
233	0xbcfb9a03	-0.030713087
234	0x3b854b5a	0.0040678205
235	0xbdf3d990	-0.11906731
236	0xbc48631a	-0.012230659
237	0xbe89818c	-0.2685665
238	0xbeca449f	-0.3950548
239	0x3c665006	0.014057165
240	0xbd96db40	-0.07366037
241	0x3e5fa5ce	0.21840593
242	0x3d4f442a	0.050602116
243	0xbe130f28	-0.1436125
244	0x3e7e6fda	0.24847355
245	0x3d8d6e73	0.06905832
246	0xbdc15e59	-0.094418235
247	0xbd148f72	-0.036269613
248	0x3e4cc92c	0.19998616
249	0xb996eb68	-0.0002878562
250	0xbeb70c4b	-0.35751566
251	0x3d8af816	0.067856
252	0xbe9ac9d8	-0.3023212
253	0x3e3d9107	0.18512355
254	0xbe62d1db	-0.22150366
255	0xbed17fb3	-0.4091774

critic.0.bias f4 [64]
0	0xbe3508f0	-0.1767919
1	0x3e9cfb08	0.30660272
2	0x3ede3f4f	0.43407676
3	0x3e8facda	0.28061563
4	0x3f7cc99d	0.9874514
5	0x3f4b0e1a	0.7931839
6	0x3f29e97c	0.66371894
7	0x3e9ed301	0.31020358
8	0x3edc3d08	0.43015313
9	0xbeb7fd4e	-0.35935444
10	0xbef0b170	-0.47010374
11	0x3e350c39	0.17680444
12	0x3d5e3ed7	0.054259147
13	0xbf06631c	-0.5249498
14	0xbf0a0c50	-0.5392504
15	0x3e0b069a	0.13576737
16	0x3f509e8f	0.8149194
17	0xbdd51a2b	-0.10405382
18	0x3e8c6645	0.27421775
19	0xbf00f652	-0.50375855
20	0xbefde1bf	-0.49586293
21	0x3e582387	0.21107303
22	0xbeb38800	-0.35064697
23	0x3dbfa69a	0.093579486
24	0x3e719ac1	0.2359419
25	0x3eac9ff7	0.33715793
26	0xbe19123c	-0.14948362
27	0xbe8870ed	-0.26648656
28	0xbe1ba6a5	-0.15200289
29	0xbefaef32	-0.49010617
30	0xbe988534	-0.29789126
31	0x3f285629	0.6575647
32	0x3efed426	0.4977123
33	0x3ee8a9ec	0.4544214
34	0xbeba671a	-0.36406785
35	0xbdf410d8	-0.11917275
36	0xbe179f9b	-0.14806978
37	0x3e28dfe7	0.16491662
38	0x3e950aa8	0.29109693
39	0xbeca9c54	-0.39572394
40	0xbf0be8ee	-0.546523
41	0x3e12c3e0	0.14332533
42	0x3cfb29b2	0.03065953
43	0xbe7ff788	-0.2499677
44	0x3f2e81a5	0.6816657
45	0x3e2ec8d3	0.17068796
46	0x3e1c1dde	0.15245768
47	0x3e9f6ab4	0.31136096
48	0xbd9e2557	-0.07721966
49	0x3ead4d0f	0.33847854
50	0x3c11962e	0.008885903
51	0xbeb2fe6f	-0.34959742
52	0x3eaf0982	0.3418694
53	0x3e905d9e	0.28196424
54	0xbe517724	-0.20455605
55	0xbc4d15a7	-0.012517369
56	0xbe5ed2ac	-0.21760052
57	0xbd488ba8	-0.04896131
58	0xbdaf3481	-0.08554936
59	0x3f328a8e	0.6974267
60	0x3f0b8d8d	0.54512864
61	0x3df93f84	0.12170318
62	0xbc63c048	-0.013900824
63	0xbeb55ba4	-0.3542148

critic.2.weight f4 [64, 64]
0	0x3ea6e5c4	0.32597172
1	0x3d08b8b6	0.03337928
2	0xbe3cbf22	-0.18432286
3	0xbd9cc61f	-0.07654976
4	0xbe766639	-0.24062432
5	0xbe3d0a49	-0.18460955
6	0x3da072d0	0.07834399
7	0xbe98de6d	-0.29857197
8	0x3d305211	0.043047015
9	0x3d66296f	0.056191858
10	0xbc5bc24b	-0.013413022
11	0x3e305b96	0.17222437
12	0xbd71053a	-0.058842875
13	0x3e559795	0.20858605
14	0x3e005f93	0.12536459
15	0xbde6abe3	-0.112632535
16	0xbe185aab	-0.14878337
17	0x3e39f0dc	0.18158287
18	0xbe3edb5b	-0.18638365
19	0xbc1b4bda	-0.009478534
20	0x3e5e0e5f	0.2168517
21	0xbe7ca755	-0.24673207
22	0xbe3762f8	-0.17908847
23	0xbe733da8	-0.23753989
24	0x3e4428ef	0.1915624
25	0xbee6960b	-0.4503635
26	0xbe34baa0	-0.17649317
27	0xbea02c1b	-0.3128365
28	0xbd5534f2	-0.052052446
29	0x3e35b534	0.17744905
30	0x3ddd181e	0.107956156
31	0xbe94cac8	-0.2906096
32	0xbe594a34	-0.21219712
33	0xbea154fe	-0.31510156
34	0xbe8ddda4	-0.2770816
35	0xbdcb1b38	-0.09917301
36	0x3ce240a2	0.02761871
37	0xbe7916a8	-0.24325049
38	0x3e9ef644	0.3104726
39	0x3e6a9e6f	0.22912
40	0x3e1f313a	0.15546122
41	0xbbf88e3c	-0.007585315
42	0xbe197bf2	-0.14988688
43	0xbe9c8f7f	-0.3057823
44	0xbdcce6c0	-0.100049496
45	0xbdab5e33	-0.083675765
46	0xbea482c8	-0.32131028
47	0x3d7194cf	0.058979806
48	0xbdca9b73	-0.09892931
49	0xbd6b2e30	-0.057417095
50	0x3d7f5d62	0.062344916
51	0x3e9ef4ac	0.31046045
52	0x3e4969a4	0.19669205
53	0xbe6133a0	-0.2199235
54	0x3c6e48f4	0.014543761
55	0x3d11f058	0.0356296
56	0xbec11413	-0.37710628
57	0x3eaefc91	0.34177068
58	0xbf08d68a	-0.5345236
59	0xbe9f8a9f	-0.31160447
60	0xbddba07b	-0.107239686
61	0x3db3bd7a	0.08776374
62	0x3dedf96a	0.116198376
63	0xbd2cb24a	-0.042162217
64	0x3d76be29	0.060239945
65	0xbdd0976d	-0.10185132
66	0xbe779613	-0.24178343
67	0xbe235272	-0.15949419
68	0xbeceda21	-0.40400794
69	0xbee64cb4	-0.44980395
70	0xbd91ed73	-0.07125368
71	0xbcbff856	-0.023433845
72	0xbe64a96e	-0.22330257
73	0xbcb2264f	-0.021746783
74	0x3b2f44a5	0.0026743796
75	0x3e2c4719	0.16823997
76	0xbcc0a6d1	-0.023517044
77	0xbe1440a8	-0.1447779
78	0xbd2e7ffc	-0.042602524
79	0xbe9aa966	-0.30207366
80	0xbf114b50	-0.5675554
81	0xbc5e5044	-0.0135689415
82	0xbeac2ee1	-0.33629516
83	0x3da69ef2	0.08135785
84	0x3e919f31	0.28441766
85	0xbe83d607	-0.25749227
86	0x3cd0fbc7	0.025510682
87	0x3e52f331	0.20600583
88	0x3dd9de5b	0.10638114
89	0xbcb2ad40	-0.021811128
90	0x3e1b1b8d	0.15147229
91	0x3e91b7f9	0.28460672
92	0xbd9c4eec	-0.07632241
93	0xbd6fdca6	-0.058560036
94	0x3d9fdf97	0.07806318
95	0xbe65e06a	-0.22448888
96	0x3e366089	0.17810263
97	0xbe8af05d	-0.27136508
98	0x3e8349c3	0.25642213
99	0xbd4b32a7	-0.049608853
100	0xbea0d8df	-0.3141546
101	0xbdb3172b	-0.08744653
102	0x3d353273	0.044237565
103	0x3e8221d9	0.2541645
104	0x3e8b77c0	0.272398
105	0xbd5b73a9	-0.0535771
106	0x3c79841b	0.01522925
107	0x3dcbb4d0	0.099465966
108	0xbe94f359	-0.2909191
109	0xbdf73e4e	-0.120724306
110	0xbc509299	-0.012730264
111	0xbe263f2f	-0.1623504
112	0xbcd12078	-0.025528178
113	0xbe7f9014	-0.24957305
114	0xbe5a0b9a	-0.21293488
115	0xbdc3e2bb	-0.0956473
116	0xbbff828c	-0.007797545
117	0xbe6cc48a	-0.23121849
118	0x3e46f5f6	0.19429764
119	0xbe040b4a	-0.12894931
120	0x3d0ce4d8	0.03439793
121	0x3cea2e9a	0.028586674
122	0xbdee7fb4	-0.11645451
123	0xbe8d337b	-0.2757834
124	0xbe4a5ab3	-0.19761162
125	0x3e299d01	0.16563798
126	0x3db8ba38	0.090198934
127	0x3d682462	0.056675322
128	0x3eedcc02	0.46444708
129	0xbdf1c88c	-0.118058294
130	0x3eae6306	0.34059924
131	0xbe4b7ea7	-0.19872533
132	0x3f468792	0.77550614
133	0x3f07a2ad	0.529826
134	0x3ebec055	0.37256113
135	0xbdfce468	-0.123482525
136	0xbd80a691	-0.0628177
137	0x3e199d63	0.15001445
138	0xbd39d192	-0.045365877
139	0x3ea89da5	0.32932773
140	0x3ebb3c23	0.36569318
141	0xbe4a818b	-0.19775979
142	0xbf04323b	-0.51639146
143	0x3ddb68d6	0.10713355
144	0x3f17ff82	0.5937425
145	0xbe0a5222	-0.13507894
146	0x3e274091	0.16333224
147	0x3d22fbe5	0.039791007
148	0x3dbf33ca	0.0933605
149	0xbe4ba5f5	-0.19887526
150	0xbe255025	-0.16143854
151	0xbeb1960e	-0.34684795
152	0x3e2e41f8	0.17017353
153	0x3e06fcde	0.13182399
154	0xbe1eba15	-0.15500672
155	0xbf134383	-0.5752489
156	0xbe1b7b4b	-0.15183751
157	0xbe6dd156	-0.23224387
158	0xbee9d778	-0.45672202
159	0x3f23b766	0.6395172
160	0x3e41a571	0.18910767
161	0x3eb96160	0.36207104
162	0xbe7f85e4	-0.24953419
163	0xbe2bc300	-0.16773605
164	0xbcee6d30	-0.029104799
165	0xbd99e07a	-0.07513519
166	0x3eb3bfad	0.35107175
167	0xbdc4e2df	-0.09613585
168	0xbe941a73	-0.2892643
169	0x3ea720a1	0.3264208
170	0xbd182199	-0.037141416
171	0xbc8393a2	-0.016061608
172	0x3e214f46	0.15752897
173	0x3f1ab329	0.60429627
174	0xbc7f4be1	-0.015582056
175	0x3d5d505f	0.054031726
176	0xbc2b2c9d	-0.010447648
177	0xbdb4f912	-0.08836569
178	0xbd4a45cf	-0.04938298
179	0xbdfd3b42	-0.12364818
180	0x3de0c8ae	0.109757766
181	0xbda11f44	-0.078672916
182	0xba1431a2	-0.0005653148
183	0x3ee1d80d	0.44110146
184	0xbdec1777	-0.11527913
185	0x3edfcb7e	0.4370994
186	0xbeaa6b97	-0.3328521
187	0x3dd050d4	0.10171667
188	0xbe431b2e	-0.19053337
189	0x3e6f1e7c	0.23351473
190	0x3ecd0eef	0.40050456
191	0x3dc4e195	0.09613339
192	0xbef98f91	-0.48742345
193	0x3e21100c	0.15728778
194	0xbece912a	-0.40345126
195	0x3dbf78f3	0.09349241
196	0xbf66377e	-0.89928424
197	0xbe6cfaae	-0.23142502
198	0xbeb675a7	-0.35636637
199	0x3da70fe9	0.081573315
200	0x3d129e81	0.035795692
201	0x3dd9e554	0.10639444
202	0x3ddb348a	0.107033804
203	0xbe8ec1aa	-0.2788213
204	0xbed698dd	-0.419135
205	0x3e51e6d8	0.20498216
206	0x3eddf179	0.43348292
207	0xbe15d424	-0.14631706
208	0xbf275f67	-0.6537995
209	0x3e47d5eb	0.19515197
210	0xbe1737d6	-0.14767393
211	0xbde3f8e0	-0.111314535
212	0xbe8e3bd5	-0.27780023
213	0x3e70a82a	0.2350165
214	0x3ebba5e2	0.36649996
215	0x3e1ef083	0.15521435
216	0xbe517052	-0.20453003
217	0xbe7541ba	-0.23950854
218	0x3e42a3c4	0.19007784
219	0x3f19e293	0.6011135
220	0x3d6b1349	0.05739144
221	0x3e61feec	0.22069901
222	0x3ebe23ca	0.3713668
223	0xbf10feb1	-0.5663863
224	0xbe349456	-0.1763471
225	0xbecf9db6	-0.4055001
226	0x3e70265e	0.23452136
227	0x3dabb3f5	0.083839335
228	0x3c4ea9b6	0.012613704
229	0xbc6f9f35	-0.01462536
230	0xbe8c6c51	-0.2742639
231	0x3e03ce04	0.12871557
232	0x3e6f884c	0.23391837
233	0xbe39b606	-0.18135843
234	0xbd9fa05e	-0.077942595
235	0x3d59e3e6	0.053195857
236	0xbe6d69a8	-0.23184836
237	0xbf1b169b	-0.6058137
238	0x3dfd35ba	0.12363763
239	0x3e3514b9	0.17683686
240	0xbd03780b	-0.032096904
241	0x3dbdceb0	0.09267938
242	0x3c6f56ea	0.014608124
243	0x3e33905c	0.17535537
244	0xbd274db4	-0.040845588
245	0x3d48261c	0.04886447
246	0x3d5c18a5	0.05373444
247	0xbeefcd03	-0.468361
248	0x3e29a04f	0.16565059
249	0xbef273a9	-0.47353867
250	0x3ea86cc0	0.3289547
251	0xbe051ab1	-0.12998463
252	0x3e2ba494	0.16762
253	0xbe1caa8b	-0.15299432
254	0xbe905a5f	-0.28193948
255	0x3c5a5fa2	0.013328465

critic.2.bias f4 [64]
0	0xbef9ab66	-0.4876358
1	0x3de86614	0.11347595
2	0xbe9dba66	-0.30806273
3	0x3ee5e7b3	0.44903335
4	0xbe724c03	-0.23661809
5	0xbef8c191	-0.4858518
6	0xbebaba9d	-0.364705
7	0x3cb24998	0.021763608
8	0xbd166b63	-0.036723506
9	0xbcc9d24a	-0.024636406
10	0x3de314ca	0.110879496
11	0xbd48d7b2	-0.049033828
12	0x3ea61b3b	0.3244265
13	0x3ec92f51	0.39293912
14	0xbd56b883	-0.052422058
15	0x3d0d24aa	0.034458794
16	0xbdf74b47	-0.12074905
17	0x3e0c3aff	0.1369438
18	0xbdf29cee	-0.11846338
19	0xbed8eda8	-0.42368817
20	0xbe313e06	-0.17308816
21	0xbe27bd3a	-0.16380778
22	0xbe490eda	-0.19634572
23	0x3e0c5725	0.13705118
24	0x3ebeabde	0.372405
25	0x3dbff642	0.09373142
26	0x3e4636b2	0.19356802
27	0x3e69ef78	0.22845256
28	0xbe226e8f	-0.15862487
29	0xbeeb3747	-0.4594061
30	0x3ca3fc21	0.020017685
31	0x3e610aed	0.21976824
32	0x3dc3dbde	0.09563421
33	0x3db74679	0.089489885
34	0x3f0b6f8d	0.5446709
35	0x3ee8416d	0.45362416
36	0x3e8151ae	0.2525763
37	0x3eb62277	0.3557317
38	0xbdacd9a0	-0.08439946
39	0xbee08f65	-0.438594
40	0x3e749f58	0.2388891
41	0xbf1120d4	-0.56690717
42	0x3e7917f9	0.24325551
43	0x3e9ebd6d	0.31003895
44	0xbe7e6f5c	-0.24847168
45	0x3e8eb008	0.27868676
46	0x3e04d7eb	0.12972991
47	0xbe97e57e	-0.29667276
48	0x3e05cb9a	0.13065949
49	0xbea5f36f	-0.32412288
50	0xbdfb90d8	-0.12283486
51	0x3eb95a38	0.36201644
52	0x3e10123c	0.14069456
53	0x3e7a86bf	0.24465464
54	0x3e47c9da	0.19510594
55	0x3f14b820	0.5809345
56	0x3e477338	0.19477546
57	0xbed4fb81	-0.41598132
58	0x3eb78cd6	0.35849637
59	0x3d175d3b	0.036954146
60	0xbda58687	-0.080823
61	0xbeba68bd	-0.36408034
62	0x3ba6bb43	0.0050882413
63	0x3e940c46	0.28915614

critic.4.weight f4 [1, 64]
0	0xbf4a36c1	-0.789898
1	0xbcc0f760	-0.023555458
2	0xbea39312	-0.31948143
3	0x3e8e2908	0.2776568
4	0xbe10c7be	-0.14138696
5	0xbf1ea465	-0.61969596
6	0xbf23e768	-0.6402497
7	0x3d662262	0.056185134
8	0xbe233c3d	-0.15940948
9	0x3cfb30c4	0.030662902
10	0xbe97c5b8	-0.29643035
11	0xbe89a3c7	-0.26882765
12	0x3f456cb8	0.77119017
13	0x3e8544aa	0.2602895
14	0xbf0c8de0	-0.54903984
15	0x3d36c124	0.044617787
16	0x3e11b544	0.14229304
17	0x3ea914c6	0.3302366
18	0xbe084af8	-0.13309848
19	0xbd3a25c2	-0.045446165
20	0xbc7cbc80	-0.015425801
21	0xbc7ff505	-0.015622382
22	0xbe84a7c5	-0.25909248
23	0x3e76d0b6	0.24103054
24	0x3e393d86	0.18089876
25	0xbea3afdc	-0.31970108
26	0x3f41717d	0.75563794
27	0x3e615848	0.22006333
28	0xbcc6da0e	-0.024273898
29	0xbdc6ae7b	-0.09701248
30	0xbe00d428	-0.12580931
31	0x3d7783d4	0.060428455
32	0xbd91e515	-0.07123772
33	0x3dda9116	0.10672204
34	0x3f221021	0.6330586
35	0x3f28b890	0.6590662
36	0x3e9a2852	0.30108887
37	0x3e088bab	0.13334529
38	0xbe5d63a2	-0.21620038
39	0xbe6fba36	-0.23410878
40	0x3f58233c	0.84428763
41	0xbf2a1ffb	-0.6645505
42	0x3e3b7516	0.18306383
43	0x3ee1c258	0.44093585
44	0x3e398586	0.18117341
45	0x3c240c4e	0.010012699
46	0xbe7731c2	-0.24140075
47	0xbee95657	-0.45573685
48	0xbd732728	-0.059363514
49	0xbdd10341	-0.10205699
50	0x3e351dc7	0.1768714
51	0x3e513047	0.20428573
52	0x3c06825c	0.008209791
53	0x3e847915	0.25873628
54	0x3ea0fdd2	0.3144365
55	0x3f14b379	0.58086354
56	0x3ea33c22	0.31881815
57	0xbe8944e7	-0.2681038
58	0x3e20f067	0.15716706
59	0xbe227131	-0.15863492
60	0xbe3c684b	-0.1839916
61	0xbf349a50	-0.7054796
62	0x3e88de0f	0.26731917
63	0x3f011873	0.5042793
