ppo_checkpoint_final.pth (torch, 664018 bytes, 55 tensors)

actor.0.weight f4 [64, 121]
0	0xbe088a5b	-0.13334028
1	0xbe917460	-0.284091
2	0xbc0e8e52	-0.008700924
3	0xbf497568	-0.7869477
4	0xbe0237c9	-0.12716593
5	0xbf3420f2	-0.7036277
6	0x3e1e49fe	0.15457913
7	0xbe833941	-0.2562962
8	0xbf1135d1	-0.5672274
9	0xbe714160	-0.23560095
10	0x3e69f5fa	0.22847739
11	0xbf1fbc34	-0.6239655
12	0xbec604bc	-0.38675487
13	0xbecc33f4	-0.39883387
14	0xbf2d4d2d	-0.67695886
15	0xbe62f2b0	-0.2216289
16	0xbea6cbe7	-0.3257744
17	0x3db3f176	0.087862894
18	0xbeaa8f3f	-0.33312413
19	0xbe831c08	-0.25607324
20	0xbdbebdb4	-0.09313527
21	0xbf662bee	-0.8991078
22	0x3e436152	0.19080094
23	0x3d9df1a8	0.07712108
24	0xbef51591	-0.47868016
25	0xbd3a7860	-0.045524955
26	0xbd89a47a	-0.067208245
27	0xbe015e62	-0.1263366
28	0xbe38512e	-0.17999718
29	0x3e182f5f	0.1486182
30	0x3d940dc2	0.072291866
31	0x3d621583	0.055196296
32	0xbedfe46e	-0.43728966
33	0xbdeacaf6	-0.11464493
34	0x3cf079c0	0.02935493
35	0x3c1ee1c7	0.009697384
36	0x3eb9b16c	0.36268175
37	0xbd567657	-0.05235895
38	0xbdd6238f	-0.10456001
39	0xbe1f8fdc	-0.15582222
40	0xbe54d06e	-0.20782635
41	0xbe70c475	-0.23512442
42	0x3e0a6d5e	0.13518283
43	0xbe2bc748	-0.16775239
44	0xbee4be8c	-0.44676626
45	0x3dac7f56	0.08422725
46	0xbb3586b8	-0.0027698707
47	0xbf40648f	-0.7515344
48	0xbe896062	-0.26831347
49	0x3be434ca	0.0069643008
50	0xbe35ee00	-0.17766571
51	0x3d715aa8	0.058924347
52	0x3e9d78ab	0.30756125
53	0xbe842bcc	-0.25814664
54	0x3e875888	0.2643473
55	0xbf11006d	-0.56641275
56	0xbe5bad80	-0.21452904
57	0xbe522082	-0.20520213
58	0xbeb8e50c	-0.3611225
59	0xbe9f7927	-0.3114712
60	0xbe13ab69	-0.14420857
61	0xbf4986cb	-0.787213
62	0xbd6cb125	-0.057786126
63	0xbeafe5b5	-0.3435494
64	0xbebc7f9b	-0.36816105
65	0xbd6b3f02	-0.057433136
66	0xbf3e6bd4	-0.7438328
67	0x3d2ef425	0.042713303
68	0xbe712259	-0.23548259
69	0x3f29ac6c	0.6627872
70	0xbeb0e873	-0.34552345
71	0xbed34616	-0.4126441
72	0xbb834326	-0.0040058075
73	0x3ea90576	0.3301198
74	0xbe258b07	-0.16166316
75	0x3f1960c6	0.5991329
76	0xbe0b9068	-0.13629305
77	0xbcb84171	-0.022492142
78	0x3e9e08f3	0.30866203
79	0xbec9e5c6	-0.39433116
80	0x3cb891ed	0.02253052
81	0x3dae4f65	0.08511237
82	0x3d675a42	0.05648256
83	0xbe599b5a	-0.21250668
84	0xbe0aa23f	-0.13538454
85	0xbf597e4c	-0.8495834
86	0xbe06d5e1	-0.13167526
87	0x3dcf8ac8	0.10133892
88	0xbe113bd0	-0.14182973
89	0xbd4b1abb	-0.04958604
90	0xbe1e5107	-0.15460597
91	0xbe971bdb	-0.2951344
92	0xbc9a3e08	-0.018828407
93	0x3e1b8432	0.15187147
94	0x3e9440d6	0.28955716
95	0x3e364fbc	0.17803854
96	0xbecad54c	-0.39615858
97	0x3f23763d	0.6385229
98	0xbf099434	-0.53741765
99	0xbf990f3a	-1.1957772
100	0xbe32498a	-0.17410865
101	0xbd8c4691	-0.06849397
102	0x3e3b890f	0.18314002
103	0x3e1521de	0.145637
104	0xbd998ce2	-0.074975744
105	0x3d682ab3	0.056681346
106	0xbed11d8a	-0.4084285
107	0x3ca63136	0.020287137
108	0xbd32685e	-0.043556564
109	0xbd407df4	-0.04699512
110	0x3e9e83d6	0.30959958
111	0xbe380a7b	-0.17972748
112	0xbf7f7130	-0.99782085
113	0xbdfd1b1d	-0.12358687
114	0xbe5d6aa3	-0.2162271
115	0x3dffc959	0.12489576
116	0x3cb43bae	0.022001114
117	0xbe316bc2	-0.17326263
118	0xbd12dca3	-0.035854947
119	0xbe86ffd0	-0.26367044
120	0x3dab3d1b	0.08361264
121	0xbeb3d7ce	-0.35125583
122	0x3de4e2ca	0.11176069
123	0xbdb99eb2	-0.09063472
124	0xbe08a3a2	-0.13343671
125	0xbe326f2a	-0.17425218
126	0x3ee7f7df	0.45306298
127	0x3ebea5c8	0.37235856
128	0x3e7fcdc1	0.24980833
129	0xbe1e26b9	-0.15444459
130	0xbe18459c	-0.14870304
131	0x3e83484b	0.25641093
132	0x3f169408	0.5881963
133	0xbf06c6de	-0.526472
134	0x3ba61a57	0.005069058
135	0x3e298c87	0.16557513
136	0xbe3d14d0	-0.1846497
137	0xbe552fdd	-0.2081904
138	0x3d34014e	0.043946557
139	0x3df36bf2	0.11885823
140	0xbf012b13	-0.5045635
141	0x3e59bbbb	0.2126302
142	0x3f0e3d36	0.5556215
143	0x3f0afb57	0.54289764
144	0xbe10fbee	-0.14158604
145	0x3e76a882	0.24087718
146	0x3dd18a3f	0.102314465
147	0x3f3d71e0	0.74001884
148	0xbed378ab	-0.41303
149	0x3eb36448	0.35037446
150	0x3de045e7	0.10950833
151	0x3d268444	0.040653482
152	0xbe858ed7	-0.2608554
153	0x3e1cbe0f	0.15306877
154	0x3e27fd98	0.16405332
155	0xbe9dfc9a	-0.30856782
156	0x3de17eb0	0.11010492
157	0x3e8a9e65	0.2707397
158	0x3c4e62fe	0.012596844
159	0xbdad88d5	-0.08473364
160	0x3e8d7678	0.27629447
161	0xbcb4756e	-0.022028651
162	0x3e5d5af6	0.2161673
163	0x3e213e08	0.1574632
164	0x3e92a96f	0.28644893
165	0x3eb185ee	0.34672493
166	0xbdb10a82	-0.08644582
167	0x3e7bd215	0.24591859
168	0x3e957077	0.29187366
169	0x3e87e396	0.26540822
170	0xbe4fd49e	-0.20295951
171	0xbddc6f96	-0.10763471
172	0x3b871050	0.0041218176
173	0xbd3ab7f6	-0.045585595
174	0xbed140a0	-0.40869617
175	0x3e8b8791	0.27251866
176	0xbe811804	-0.25213635
177	0xbe845c31	-0.25851586
178	0xbe9c1ed2	-0.30492264
179	0x3dc85791	0.09782327
180	0xbe977e75	-0.29588667
181	0x3de3e37b	0.11127373
182	0xbe3e2b30	-0.18571162
183	0x3e7be1a1	0.2459779
184	0x3ce7c0e0	0.028290212
185	0xbdf1a444	-0.11798909
186	0x3e241577	0.16023813
187	0x3e9ed055	0.3101832
188	0x3e69a4aa	0.2281672
189	0xbe4e2b5e	-0.20133731
190	0xbde643ed	-0.112434246
191	0x3ecc32eb	0.39882597
192	0x3f23a58c	0.6392448
193	0x3e54612d	0.20740195
194	0x3dac1246	0.08401923
195	0x3f0d0e14	0.55099607
196	0xbdccf413	-0.10007491
197	0x3e586c90	0.21135163
198	0x3ee7691c	0.4519738
199	0x3e895f48	0.26830506
200	0x3eabf36e	0.3358416
201	0xbe036bcd	-0.12834091
202	0xbd3cea68	-0.046121985
203	0xbe0ecb8c	-0.13944834
204	0x3e7e37d9	0.24825992
205	0xbd5759f2	-0.052576013
206	0x3ed9317a	0.4242056
207	0x3c257f2f	0.010101124
208	0x3eb461b2	0.35230786
209	0xbe929daa	-0.28635913
210	0x3e16965b	0.14705794
211	0xbdbee5de	-0.093211874
212	0x3dc902ad	0.098149635
213	0x3eaca7b7	0.33721706
214	0xbe3e678a	-0.18594185
215	0xbe2686ca	-0.16262355
216	0xbc0634a0	-0.008191258
217	0x3ed92851	0.4241357
218	0xbe0002c9	-0.12501062
219	0xbdb58893	-0.0886394
220	0x3cb783ec	0.022401772
221	0x3ee1909c	0.4405564
222	0x3db9700b	0.090545736
223	0xbe1222f0	-0.1427114
224	0xbf176ede	-0.59153545
225	0xbd10f359	-0.035388324
226	0xbf317369	-0.69316727
227	0xbf54c68c	-0.8311546
228	0xbec230db	-0.379279
229	0xbeba5065	-0.3638946
230	0x3ee19d84	0.44065487
231	0x3d8580b8	0.06518692
232	0xbec5de92	-0.3864637
233	0x3f1f5f0b	0.622544
234	0x3e49bc70	0.1970079
235	0x3ebcf215	0.36903444
236	0x3e16b37f	0.1471691
237	0x3ec4e5eb	0.38456663
238	0xbc00b852	-0.007856445
239	0x3f828a9b	1.0198549
240	0x3ec42717	0.38311073
241	0xbd5caff4	-0.05387874
242	0xbca43fd4	-0.020049967
243	0x3ef8dcec	0.4860605
244	0xbdec77de	-0.115463
245	0xbd4e07ff	-0.050300594
246	0xbe3c16a1	-0.18368007
247	0x3e52602e	0.20544502
248	0x3ce4255c	0.027849846
249	0x3ec9d268	0.3941834
250	0x3e6b4fc1	0.22979642
251	0x3debbf51	0.115111
252	0x3ebbd17d	0.36683264
253	0x3eaec49d	0.3413438
254	0x3db1b732	0.0867752
255	0xbef958d2	-0.48700577

actor.0.bias f4 [64]
0	0xbff07469	-1.8785526
1	0x3ff60c93	1.9222587
2	0xbf46eedd	-0.77708226
3	0xbf606405	-0.8765262
4	0x3fb2b9b9	1.3962928
5	0x3e90ce55	0.2828242
6	0x3f17b04c	0.5925338
7	0xbec3f9c3	-0.3827649
8	0xbd07028e	-0.03296142
9	0x3fa7f0ec	1.3120399
10	0x3f82f3b1	1.0230619
11	0x3f494efa	0.78636134
12	0x3f300a44	0.68765664
13	0x3e20be1c	0.15697521
14	0xbfa37aa8	-1.2771807
15	0xbdb98056	-0.09057681
16	0xbf264204	-0.6494448
17	0x3d633e80	0.055479527
18	0x3fd265ff	1.6437377
19	0xbf441663	-0.7659666
20	0x3de97b8b	0.11400517
21	0x3e98a5bc	0.29813945
22	0xbef95c2a	-0.48703128
23	0xbec912b4	-0.39272082
24	0xbfa6b00e	-1.3022478
25	0x3d185406	0.037189506
26	0x3f814986	1.0100563
27	0xbf183735	-0.5945924
28	0x3f242008	0.64111376
29	0x3f8e0f1c	1.1098361
30	0x3f97e1fe	1.1865842
31	0x3f9312cf	1.1490115
32	0xbef4f164	-0.47840416
33	0x3f76a629	0.9634729
34	0xbfa6c679	-1.3029319
35	0x3edc754b	0.43058237
36	0x3d8bf2b2	0.068334
37	0xbde3fe38	-0.11132473
38	0x3f910e1e	1.1332433
39	0xbe8b19a0	-0.27167988
40	0xbfc252cd	-1.5181519
41	0xc0037ba8	-2.0544224
42	0x3fca85ea	1.5822117
43	0x3da3e876	0.08003323
44	0x3fd52145	1.6650778
45	0x3e0ff9bc	0.1406011
46	0xbf2584e8	-0.64655924
47	0x3f30101a	0.6877457
48	0xbee9186a	-0.4552644
49	0xbccefbdf	-0.025266586
50	0xbf63fbfa	-0.8905636
51	0xbdbe3712	-0.092878476
52	0xbeeb20f2	-0.45923573
53	0xbee70aa3	-0.45125303
54	0x3fced766	1.6159484
55	0xbf95a736	-1.1691654
56	0x3f1096cf	0.56480116
57	0xbf43fa12	-0.7655345
58	0xbf2dd925	-0.6790946
59	0x3f8da2d9	1.1065322
60	0x3ead1371	0.33803895
61	0x3d0c4894	0.034248903
62	0xbd9e1afa	-0.07719989
63	0xbc0ad360	-0.008473247

actor.2.weight f4 [64, 64]
0	0xbe008c72	-0.12553576
1	0x3e8fac65	0.28061214
2	0x3eaf74d0	0.34268808
3	0xbb82b9a8	-0.003989417
4	0x3eabb825	0.3353893
5	0xbdad223f	-0.084537975
6	0x3c8510dc	0.01624339
7	0xbd68d310	-0.05684191
8	0xbddae0db	-0.10687419
9	0x3d61429e	0.05499517
10	0x3e81580e	0.25262493
11	0x3f19d0e2	0.60084355
12	0x3d361b63	0.04445971
13	0xbe5e90bb	-0.21734898
14	0x3d779b49	0.060450826
15	0xbe6e88cc	-0.23294371
16	0x3e70ec17	0.23527561
17	0xbe256fb8	-0.16155899
18	0x3bd9d819	0.0066480753
19	0xbe93ecde	-0.28891653
20	0xbeb9e5ab	-0.36308035
21	0x3e9b7576	0.30363053
22	0xbe2d2f7b	-0.16912644
23	0x3e79ac40	0.24382114
24	0x3d199f5e	0.0375055
25	0xbe5219ec	-0.20517701
26	0x3da62097	0.08111685
27	0xbdf54a16	-0.119770214
28	0xbcc8f0dc	-0.024528913
29	0x3cf2e001	0.029647829
30	0x3dfad8f5	0.122484125
31	0x3ec33294	0.38124526
32	0x3d4f4726	0.05060496
33	0x3ea81844	0.32831013
34	0xbbfb778d	-0.0076741637
35	0x3e35e4bf	0.17763041
36	0x3ead5501	0.33853915
37	0xbde38c03	-0.111106895
38	0x3d89ff6c	0.06738171
39	0x3d37fcff	0.04491901
40	0x3e1e4121	0.15454532
41	0xba39d204	-0.00070884847
42	0x3e68712a	0.22699419
43	0x3d7482d7	0.05969509
44	0xbccd4310	-0.025056392
45	0xbebd6bcb	-0.36996302
46	0xbcd08cba	-0.025457729
47	0x3ec9e1ee	0.39430183
48	0x3d607f80	0.054809093
49	0xbdf861f6	-0.121280596
50	0x3e5fe235	0.21863635
51	0x3ea4a0fa	0.32154065
52	0x3e3febca	0.1874229
53	0xbe5fda38	-0.21860588
54	0x3dfba142	0.12286617
55	0xbe2aa1b5	-0.16663249
56	0xbe0f8885	-0.14016922
57	0x3d661f22	0.056182034
58	0xbee54d6e	-0.44785637
59	0x3e3d6e99	0.18499221
60	0xbde944ba	-0.11390062
61	0xbdd49402	-0.10379793
62	0xbcd34f33	-0.025794601
63	0x3e4bfdb6	0.19921002
64	0xbe965f82	-0.29369742
65	0x3e9ce6b5	0.30644765
66	0xbe1a5b06	-0.15073785
67	0xbe86b3ac	-0.26308954
68	0x3d8848ca	0.066545084
69	0x3c81d733	0.015849685
70	0x3c8f06be	0.01745927
71	0xba69e4cc	-0.0008922338
72	0x3f043e0d	0.5165718
73	0x3ef2bf2e	0.47411484
74	0x3e5e245f	0.21693562
75	0x3e024528	0.12721694
76	0x3e95c98b	0.29255328
77	0x3e02a9a9	0.12760033
78	0xbeb30cb7	-0.34970638
79	0x3da288ea	0.079362705
80	0xbde9fc47	-0.11425071
81	0xbcd8ccb0	-0.02646479
82	0x3de7c0bb	0.11316057
83	0x3e886b02	0.2664414
84	0x3e3bc7bb	0.1833791
85	0xbe4d448f	-0.20045684
86	0x3e860f7c	0.2618369
87	0x3da2b1a1	0.07944036
88	0xbe7df06c	-0.24798745
89	0x3dd44dbe	0.10366391
90	0x3e95b543	0.29239854
91	0xbc9aac6f	-0.01888105
92	0x3dcb5626	0.09928541
93	0x3eb2c65b	0.34916958
94	0x3d2ee545	0.042699117
95	0x3e1ea6f2	0.15493372
96	0xbe172bee	-0.14762852
97	0x3e1b3239	0.15155877
98	0xbd394572	-0.045232244
99	0xbdb63cf5	-0.088983454
100	0x3cdd5618	0.027018592
101	0xbebd3f13	-0.36962184
102	0x3dc2701d	0.0949404
103	0xbea7b18b	-0.32752642
104	0xbdc62ba7	-0.09676295
105	0xbc6a257b	-0.014291163
106	0x3eb76175	0.3581654
107	0x3e79bdbe	0.24388787
108	0x3dba3058	0.09091252
109	0x3d8e401c	0.06945822
110	0xbcc54761	-0.024081888
111	0x3e937cb9	0.28806093
112	0xbc9e47be	-0.019321319
113	0x3e97b34f	0.2962899
114	0x3d814d2c	0.063135475
115	0xbde027cf	-0.10945093
116	0xbeb89994	-0.3605467
117	0xbdbed601	-0.09318162
118	0x3eaf9bd2	0.3429857
119	0x3d6e80ed	0.058228422
120	0xbbfb9704	-0.0076779146
121	0xbd0b366a	-0.03398744
122	0x3da9fe06	0.08300404
123	0x3e15f393	0.14643697
124	0x3e0d3833	0.1379097
125	0x3da29845	0.07939199
126	0x3dac4409	0.08411414
127	0xbe198c51	-0.14994933
128	0x3d7e5f27	0.062102463
129	0xbeaa2dee	-0.33238167
130	0xbe76a634	-0.24086839
131	0x3e57172f	0.21004938
132	0x3d7d4fbb	0.061843615
133	0x3db6552e	0.089029655
134	0xbed428b0	-0.41437292
135	0xbe92d917	-0.2868125
136	0xbe553b70	-0.20823455
137	0xbe6c62f6	-0.23084626
138	0xbe0a43e2	-0.13502458
139	0xbf0010a8	-0.50025415
140	0x3deee18e	0.11664115
141	0xbf179566	-0.5921234
142	0xbd33d859	-0.043907497
143	0x3ec8ee4f	0.39244315
144	0xbd5568dc	-0.052101955
145	0xbe3c752b	-0.18404071
146	0xbe75f71e	-0.24020049
147	0x3eac9b34	0.3371216
148	0xbd9f9faf	-0.07794129
149	0xbe0a3cd5	-0.13499768
150	0x3d49d1ed	0.049272466
151	0x3e893def	0.26805064
152	0x3d8f0fd2	0.06985439
153	0x3eac4b49	0.33651188
154	0x3e27493b	0.16336529
155	0x3e8f8439	0.28030565
156	0xbd2b0c70	-0.04175991
157	0xbe9e0836	-0.3086564
158	0xbe37cf4f	-0.17950176
159	0x3d46aa41	0.04850221
160	0x3e24a90b	0.1608011
161	0xbe551d6a	-0.20812002
162	0x3ed0aa5e	0.4075498
163	0xbd00ac61	-0.031414393
164	0xbd00e487	-0.03146794
165	0xbddf573e	-0.10905312
166	0x3ca49a5b	0.020093134
167	0x3d9ddb8e	0.07707892
168	0x3e96a4ff	0.29422757
169	0x3b808083	0.00392157
170	0xbe2a5841	-0.16635229
171	0xbe98abc9	-0.29818562
172	0x3eee143a	0.46499807
173	0xbe8b025a	-0.27150232
174	0x3ec7560d	0.3893284
175	0xbea20e28	-0.31651425
176	0x3e826ee8	0.2547524
177	0x3ea42531	0.32059625
178	0xbd8411f6	-0.06448738
179	0xbe745898	-0.23861921
180	0x3e817f67	0.25292513
181	0x3df95096	0.12173574
182	0xbde5f2b9	-0.11227936
183	0x3dc5ca23	0.09657695
184	0x3effbd0f	0.49948928
185	0x3d76144d	0.060077954
186	0x3db92195	0.090396084
187	0xbe5bb80d	-0.21456929
188	0xbdf31f87	-0.11871248
189	0x3e9da5bb	0.30790505
190	0x3c819ed5	0.015822807
191	0x3e0763bf	0.13221644
192	0xbe0331cf	-0.12811969
193	0x3e70a5b8	0.23500717
194	0x3e48143d	0.1953897
195	0xbe812378	-0.25222373
196	0x3e5669db	0.20938818
197	0xbd06bd8f	-0.03289562
198	0x3de823a7	0.11334925
199	0x3dd259e2	0.1027105
200	0x3e026457	0.12733589
201	0x3df29f8d	0.11846838
202	0xbe077338	-0.13227546
203	0x3eae96cb	0.3409942
204	0x3e65cf56	0.22442374
205	0xbecb92b7	-0.39760372
206	0xbe39349d	-0.18086477
207	0x3e663ddf	0.2248454
208	0xbd593539	-0.053029273
209	0x3e3a47d2	0.1819146
210	0x3ee53f29	0.4477475
211	0xbdb81373	-0.08988085
212	0xbdcde4cd	-0.10053406
213	0x3e2fbb16	0.17161211
214	0xbccd733f	-0.025079368
215	0xbd491752	-0.049094506
216	0xbda66462	-0.08124615
217	0xbe3e0f0c	-0.18560427
218	0x3e09a28c	0.13440913
219	0x3e34278d	0.17593212
220	0x3e6c6b69	0.23087849
221	0x3b9e90dc	0.004839046
222	0x3e4e870b	0.20168702
223	0x3e572612	0.21010616
224	0xbe5c96b0	-0.21541858
225	0xbc62a19d	-0.013832477
226	0x3de7e38e	0.113226995
227	0x3d9f9307	0.07791715
228	0xbeda01ae	-0.42579406
229	0x3e216b31	0.15763547
230	0xbec11bca	-0.37716514
231	0xbe861046	-0.2618429
232	0xbe06b778	-0.13155925
233	0x3eb58c9e	0.35458845
234	0x3eaa028d	0.3320507
235	0x3e8f2461	0.27957442
236	0x3d36ad52	0.044598885
237	0x3e319157	0.17340599
238	0xbb6ff1e3	-0.0036612682
239	0xbe17448e	-0.14772245
240	0xbecc728c	-0.39931142
241	0xbe41cd6a	-0.18926015
242	0xbdbdf066	-0.09274368
243	0xbd916d04	-0.07100871
244	0x3e063bd4	0.1310876
245	0xbdc886f7	-0.097913675
246	0x3eb9f9d3	0.36323413
247	0xbd917dcb	-0.07104071
248	0x3f0b8e8e	0.54514396
249	0xbe469f26	-0.19396648
250	0x3ce685b3	0.028139925
251	0x3eb9a4ec	0.36258638
252	0x3ea82bf5	0.32846037
253	0xbc413c2c	-0.011794131
254	0x3ec11ef2	0.37718922
255	0xbdc65ade	-0.096853

actor.2.bias f4 [64]
0	0x3cbcabca	0.023031134
1	0x3edbb5ff	0.4291229
2	0xbe8af846	-0.27142543
3	0x3e8bc287	0.2729685
4	0xbe58db5d	-0.2117743
5	0xbdc96c38	-0.09835094
6	0xbed3130e	-0.41225475
7	0xbe8aa9aa	-0.27082568
8	0x3e55a8d5	0.20865186
9	0x3dda1271	0.10648049
10	0xbe8fb727	-0.28069422
11	0xbe644e82	-0.22295573
12	0xbe35661f	-0.17714737
13	0xbe5a4267	-0.21314393
14	0x3e381d05	0.1797982
15	0x3e8b7b89	0.27242687
16	0xbecb86bb	-0.3975123
17	0x3e38d6bb	0.18050663
18	0x3c57e0f9	0.013176196
19	0x3cfed324	0.03110654
20	0xbdc74716	-0.097303554
21	0x3e2a16c5	0.16610248
22	0xbf24714a	-0.64235365
23	0xbd95f9d0	-0.073230386
24	0xbeb59640	-0.35466194
25	0xbc5ee4dd	-0.01360437
26	0xbe0ffdd7	-0.14061676
27	0x3e0eb18e	0.13934919
28	0x3db6eeb5	0.089322485
29	0xbde2e369	-0.11078531
30	0x3e370f2c	0.17876881
31	0xbcd9d0b7	-0.02658878
32	0xbde3d7b5	-0.11125127
33	0xbdc1f45e	-0.094704375
34	0x3e70c5de	0.2351298
35	0xbec30035	-0.38086095
36	0x3ec120e5	0.3772041
37	0x3e5da9df	0.21646832
38	0xbcd60947	-0.02612747
39	0x3d9e5bdf	0.07732367
40	0x3e3edbd1	0.18638541
41	0xbd716147	-0.05893066
42	0xbeeb6572	-0.45975834
43	0x3d84bca1	0.064812906
44	0x3e87c546	0.26517695
45	0xbe47d110	-0.19513345
46	0x3ef345ff	0.4751434
47	0x3e6ba7fd	0.23013301
48	0xbe2f8eee	-0.17144367
49	0xbe482b64	-0.19547802
50	0xbd88ff21	-0.06689287
51	0x3e589f68	0.21154559
52	0x3c350eb4	0.011050869
53	0x3eb9d6e9	0.36296776
54	0xbe5740bb	-0.21020786
55	0xbe103c9f	-0.14085625
56	0x3dac00a7	0.08398562
57	0x3cbed13e	0.023293134
58	0xbdef64b1	-0.11689127
59	0xbe97e795	-0.2966887
60	0x3e80d7b5	0.2516457
61	0x3ea30b08	0.31844354
62	0x3e306296	0.17225108
63	0xbea0ec28	-0.31430173

actor.4.weight f4 [122, 64]
0	0x3c313955	0.010816892
1	0xbf82ea4e	-1.0227754
2	0xbe59921b	-0.21247141
3	0xbeff6a71	-0.49885896
4	0xbf0c706c	-0.5485904
5	0xbe830fcf	-0.25597998
6	0x3f71b209	0.94412285
7	0xbe6d0c18	-0.23149145
8	0xbc984c01	-0.018590929
9	0xbe935500	-0.28775787
10	0x3f9321c3	1.1494678
11	0xbeebe157	-0.46070358
12	0xbe28b35b	-0.16474669
13	0x3f0ce477	0.5503611
14	0x3db5f91d	0.08885405
15	0xbf9e36d8	-1.2360487
16	0x3f1ea2fd	0.6196745
17	0xbeb57c0c	-0.35446203
18	0xbf00de17	-0.5033888
19	0xbeee9c89	-0.46603802
20	0xbcfc76bb	-0.030818334
21	0xbeb505cf	-0.35355994
22	0x3f0501c2	0.5195581
23	0xbcb5b342	-0.022180203
24	0x3f0923e8	0.53570414
25	0x3be9d991	0.0071365316
26	0xbee00cb2	-0.43759686
27	0x3e6def0f	0.23235725
28	0xbf21e90b	-0.6324622
29	0xbe04776b	-0.1293618
30	0xbf1b2535	-0.6060365
31	0x3f4fcef2	0.8117515
32	0x3f816566	1.0109069
33	0x3eefe7d5	0.4685656
34	0xbf5da9ff	-0.8658752
35	0x3f0967f1	0.53674227
36	0x3de5eccf	0.11226808
37	0x3dd243c8	0.102668345
38	0x3e9dc963	0.30817708
39	0x3ebaea60	0.3650694
40	0xbee55fe4	-0.4479972
41	0x3eb06e3d	0.34459105
42	0x3f779482	0.9671098
43	0xbeec47be	-0.46148485
44	0x3f0dc150	0.55373096
45	0xbeed0191	-0.46290258
46	0xbf037d71	-0.51363283
47	0x3ddaee5e	0.10689996
48	0x3f3de30f	0.7417459
49	0x3ec61a29	0.38691834
50	0x3ef0f490	0.47061586
51	0x3e97128e	0.29506344
52	0x3e6fea81	0.234293
53	0xbe6e6649	-0.23281206
54	0x3e283398	0.16425931
55	0xbe891350	-0.26772547
56	0x3f0c2b24	0.5475333
57	0x3ed0965e	0.4073972
58	0xbf4e2571	-0.8052588
59	0xbe7da72b	-0.24770801
60	0x3ce16463	0.027513688
61	0xbed71fe6	-0.42016524
62	0xbdc1ec74	-0.09468928
63	0x3f3b4268	0.731482
64	0x3e8a493d	0.27009
65	0xbe6f6d77	-0.23381601
66	0xbed567f0	-0.4168086
67	0xbedb6b25	-0.42855182
68	0x3e1bc09d	0.15210195
69	0x3f0a3453	0.5398609
70	0x3e7be38c	0.24598521
71	0xbe5d6d38	-0.21623695
72	0xbef35e86	-0.47533053
73	0xbe02d893	-0.12777929
74	0x3ecdbd55	0.4018351
75	0x3f1caed0	0.6120424
76	0xbf13c60c	-0.5772407
77	0x3e98e923	0.2986537
78	0xbdae1471	-0.08499993
79	0xbed4f7ed	-0.41595402
80	0x3e9df090	0.30847597
81	0x3eaf88cf	0.34284064
82	0xbc905bae	-0.017621841
83	0xbea88878	-0.32916617
84	0x3e814164	0.25245202
85	0xbe582e87	-0.21111499
86	0x3ee5427e	0.44777292
87	0xbe066f1e	-0.13128325
88	0x3eba24e1	0.3635626
89	0x3e3835fb	0.17989342
90	0x3de01872	0.109421626
91	0xbf2c1586	-0.6722034
92	0xbea2a044	-0.31762898
93	0xbe882785	-0.2659265
94	0xbefdfd01	-0.4960709
95	0x3f551db9	0.8324848
96	0x3e926f1b	0.28600392
97	0x3eb104bf	0.34573933
98	0xbe95a927	-0.29230615
99	0x3e02763c	0.12740415
100	0xbed7cba4	-0.42147553
101	0xbf1148b2	-0.5675155
102	0x3eb947a2	0.36187464
103	0xbd461667	-0.04836121
104	0xbeae4ae7	-0.3404152
105	0xbf086b68	-0.5328889
106	0x3ebb1ffe	0.36547846
107	0xbf3044f2	-0.688552
108	0x3e26703e	0.16253754
109	0x3cebc71d	0.028781468
110	0xbf01d463	-0.507147
111	0xbd54e73a	-0.051978327
112	0x3e234505	0.15944298
113	0x3e092056	0.13391241
114	0x3eafae75	0.34312788
115	0xbd293704	-0.041312233
116	0x3f38ed09	0.72236687
117	0xbf1742fa	-0.59086573
118	0x3f154270	0.583045
119	0xbd298dbd	-0.041394938
120	0xbdcd989c	-0.100388736
121	0xbcf815aa	-0.030283768
122	0x3ea82901	0.32843783
123	0x3d9073da	0.07053347
124	0x3e10e15a	0.14148465
125	0xbe8b6339	-0.27224138
126	0xbdf70fcb	-0.12063559
127	0x3ebe2a44	0.3714162
128	0x3e004c42	0.1252909
129	0xbeca0977	-0.39460346
130	0xbe371e63	-0.17882685
131	0xbe584a4f	-0.21122096
132	0xbdc3bc20	-0.09557366
133	0x3d8962fc	0.06708333
134	0x3eb88b62	0.3604384
135	0xbc28d3bc	-0.010304388
136	0x3dd86465	0.10566024
137	0x3d997004	0.074920684
138	0x3f0ea7f8	0.5572505
139	0x3d56ed29	0.052472267
140	0x3ea86332	0.3288818
141	0x3e9640c2	0.2934628
142	0x3e39bb8e	0.18137953
143	0xbd4e5672	-0.05037541
144	0x3ea23924	0.3168422
145	0xbec8103a	-0.3907488
146	0xbddf0a7f	-0.10890674
147	0xbe6673b4	-0.22505075
148	0x3e91a1a8	0.28443646
149	0xbf1e44fe	-0.61824024
150	0x3e30072e	0.17190239
151	0x3dc1ec7a	0.094689324
152	0x3e437279	0.19086637
153	0x3d921f06	0.071348235
154	0x3e92d35f	0.28676888
155	0xbe8b9f76	-0.27270097
156	0xbe24268d	-0.16030331
157	0xbddae489	-0.10688121
158	0xbefc8900	-0.49323273
159	0x3eb7bd98	0.35886836
160	0x3e34bf95	0.17651208
161	0x3ed0e534	0.40799868
162	0xbe9a47d3	-0.30132923
163	0x3eb63820	0.35589695
164	0x3cb8dde5	0.022566745
165	0xbcf6661c	-0.030077986
166	0x3ebb185c	0.36542022
167	0xbdd909d1	-0.105975755
168	0xbee66d35	-0.45005193
169	0x3e513234	0.20429307
170	0x3ec38611	0.38188222
171	0xbea8e32b	-0.32985815
172	0xbe960112	-0.29297692
173	0xbeb686e5	-0.3564979
174	0xbea218d7	-0.31659576
175	0xbf079c72	-0.5297309
176	0x3e588616	0.211449
177	0x3edd9667	0.4327881
178	0x3e298dc8	0.16557992
179	0x3d8f87d6	0.070083305
180	0x3e5462fd	0.20740886
181	0xbe570adf	-0.2100024
182	0x3e3fbb50	0.18723798
183	0xbe64b062	-0.2233291
184	0xbd639497	-0.05556163
185	0x3de14949	0.11000306
186	0x3dc99a85	0.098439254
187	0xbe2bc631	-0.16774823
188	0x3dec9ef7	0.11553758
189	0xbeb8bacb	-0.36080012
190	0xbecb6831	-0.3972793
191	0x3e87b3fc	0.26504505
192	0x3eb4cb3a	0.353113
193	0xbebb99ec	-0.3664087
194	0xbee4febd	-0.447256
195	0xbeaf9d78	-0.34299827
196	0x3e381663	0.1797729
197	0x3f1af10f	0.60524076
198	0x3d34066b	0.043951433
199	0xbe048009	-0.12939467
200	0xbeaeb95f	-0.34125802
201	0xb953a303	-0.00020183255
202	0x3e2f05c5	0.17092045
203	0x3f289fbf	0.65868753
204	0xbee5b165	-0.44861904
205	0x3dd4b770	0.103865504
206	0xbe7bf842	-0.24606422
207	0xbe9e4aaf	-0.30916354
208	0x3e92a626	0.28642386
209	0x3e9d6346	0.30739802
210	0x3d97759b	0.07395478
211	0xbf402497	-0.7505583
212	0x3e139f1a	0.14416161
213	0xbc23184a	-0.009954521
214	0x3ddcce1c	0.107815
215	0x3d7db36a	0.06193868
216	0x3e83ac6d	0.25717488
217	0xbe90140e	-0.281403
218	0x3e8eedcc	0.279158
219	0xbecba7a6	-0.39776343
220	0xbef24c1f	-0.473237
221	0xbe7d2ebf	-0.24724863
222	0xbe94e5c6	-0.29081553
223	0x3ea43eb2	0.32079083
224	0x3e944108	0.28955865
225	0x3ecb605e	0.3972196
226	0xbe6e7855	-0.2328809
227	0x3e58cf07	0.21172725
228	0xbeee868a	-0.4658702
229	0xbef333b0	-0.47500372
230	0x3e9af599	0.302655
231	0xbdad66c3	-0.08466866
232	0xbe44b6d8	-0.19210374
233	0xbeb7425a	-0.3579281
234	0x3ec192b5	0.3780724
235	0xbf18d8f5	-0.5970605
236	0xbd94ab5d	-0.072592475
237	0xbe0532a2	-0.13007596
238	0xbf2375e6	-0.63851774
239	0xbe1ef508	-0.1552316
240	0x3e0f680e	0.14004537
241	0x3de2e541	0.11078883
242	0x3eeda24c	0.46412885
243	0xbe51c842	-0.20486549
244	0x3e7a8496	0.2446464
245	0xbf07079f	-0.52746004
246	0x3f24c60a	0.64364684
247	0xbc82cbc0	-0.015966296
248	0xbf15d942	-0.58534634
249	0xbee2273a	-0.44170552
250	0x3f1dc5a3	0.61629695
251	0x3dd10eb0	0.102078795
252	0x3eaa4968	0.3325913
253	0xbf000280	-0.50003815
254	0xbd513106	-0.051072143
255	0x3de009dc	0.109393805

actor.4.bias f4 [122]
0	0xbf52f58a	-0.8240591
1	0xbecb11a5	-0.396619
2	0xbeeff214	-0.46864378
3	0xbe046f5b	-0.12933104
4	0xbf84b7d8	-1.0368605
5	0xbee56e49	-0.44810703
6	0xbf139d22	-0.5766164
7	0x3eb6fa31	0.35737756
8	0xbeddb789	-0.4330409
9	0x3eba527e	0.36391062
10	0x3ec3de7e	0.38255686
11	0x3e9b3019	0.30310133
12	0xbfe3d7d9	-1.7800246
13	0xbf4d7678	-0.80258894
14	0xbe5bbd5b	-0.21458952
15	0xbef0d8bb	-0.47040352
16	0xbf2f6b60	-0.68523216
17	0xbeff6746	-0.4988348
18	0xbe7de925	-0.24795969
19	0x3eb8c852	0.36090332
20	0xbf8ace6c	-1.0844245
21	0x3f0fc371	0.56157595
22	0x3d6e7dce	0.058225445
23	0xbf62d32d	-0.8860348
24	0xbe5433da	-0.20722905
25	0xbe7ea353	-0.24866991
26	0xbdc36db3	-0.09542408
27	0xbf6962d7	-0.9116644
28	0xbf1d7b98	-0.61516714
29	0xbf8d9bef	-1.1063212
30	0xbfc8651a	-1.5655854
31	0xbf25e3b6	-0.64800584
32	0xbeab8aaa	-0.3350423
33	0xbf7887ae	-0.9708203
34	0xbf045930	-0.5169859
35	0xbf8055b4	-1.0026155
36	0x3ea2ed0b	0.31821474
37	0xbfb7fa65	-1.4373289
38	0xbfd05209	-1.6275035
39	0xbf754edd	-0.9582346
40	0xbe48c540	-0.19606495
41	0xbfe2aab2	-1.7708342
42	0xbf399547	-0.72493404
43	0xbf7b457d	-0.98152906
44	0xbf6e17fb	-0.9300534
45	0xbeb1ac4a	-0.3470176
46	0xbf7f60d3	-0.9975712
47	0xbe3fb1bc	-0.18720144
48	0xbe8868e3	-0.26642522
49	0xbf179a5d	-0.59219915
50	0xbf8c8c20	-1.0980263
51	0x3edf2fc3	0.43591127
52	0x3c9925a2	0.018694703
53	0xbf2c38a7	-0.67273945
54	0xbeccc1b0	-0.39991522
55	0xbe8d5b0f	-0.27608535
56	0xbf123116	-0.5710615
57	0xbf3865a3	-0.72030085
58	0x3e94991f	0.29023072
59	0xbea4b790	-0.32171297
60	0xbfdddd9b	-1.7333254
61	0xbff2352a	-1.8922474
62	0xbf20b5ca	-0.6277739
63	0xbfced87e	-1.6159818
64	0xbf93e0ea	-1.1553013
65	0xbf9e9d47	-1.2391747
66	0x3e57ffdc	0.21093696
67	0xbe7af23d	-0.24506469
68	0xbf2989ed	-0.66226083
69	0xbeaabf11	-0.33348897
70	0xbed70565	-0.41996303
71	0x3efc58fd	0.49286643
72	0xbfb0bf0b	-1.3808302
73	0xbf064a7d	-0.5245741
74	0xbf69407f	-0.9111404
75	0xbf29399f	-0.6610355
76	0xbf884584	-1.0646214
77	0xbf953aa4	-1.1658521
78	0x3e3e31d3	0.18573694
79	0x3e9058ac	0.2819265
80	0x3ecab09a	0.3958786
81	0xbf89350d	-1.0719315
82	0xbf616268	-0.8804078
83	0xbc937a79	-0.018002735
84	0xbf8e40d3	-1.1113533
85	0xbf277350	-0.6541033
86	0xbf5818ae	-0.8441266
87	0x3ef03e7b	0.4692267
88	0xbf8a0c13	-1.0784935
89	0xbe9a9c01	-0.30197147
90	0xbe8f0e6c	-0.2794069
91	0xbf335d9f	-0.7006473
92	0xbecb11a2	-0.3966189
93	0xbf38882b	-0.72082776
94	0x3f1384ec	0.576247
95	0xbf3ef1a5	-0.7458747
96	0xbf042cff	-0.5163116
97	0xbfbfbded	-1.4979836
98	0xbe800044	-0.25000203
99	0xbe6d7162	-0.23187783
100	0xbe978a92	-0.29597908
101	0xbeaf3849	-0.3422263
102	0xbfc56a6e	-1.5423105
103	0xbfab798a	-1.3396466
104	0xbfd322e6	-1.6495025
105	0xbf687023	-0.9079611
106	0x3e08cc12	0.13359097
107	0xbf665dc8	-0.8998685
108	0xbfa08164	-1.2539487
109	0xbf988b3e	-1.1917493
110	0xbe904790	-0.28179598
111	0x3ecc189e	0.3986253
112	0x3ee049e5	0.43806377
113	0xc00320ea	-2.048884
114	0xbf7fcebf	-0.99924845
115	0xbf96e2de	-1.1787984
116	0xbfa5f581	-1.2965547
117	0xbfd8ca1e	-1.6936681
118	0xbeb14b00	-0.34627533
119	0xbf213dc8	-0.62984896
120	0xbefac3eb	-0.489776
121	0xc0150abd	-2.3287804

critic.0.weight f4 [64, 121]
0	0xbdd3066e	-0.10303961
1	0xbe118eec	-0.14214677
2	0xbe34c641	-0.17653753
3	0x3ea6735b	0.32509884
4	0x3eee384c	0.46527326
5	0x3eca6b50	0.39534998
6	0x3e449b61	0.19199897
7	0xbeb8fc60	-0.36130047
8	0xbf267816	-0.65026987
9	0x3f614856	0.88001
10	0x3e4d5429	0.20051636
11	0x3ed87ad2	0.42281204
12	0xbe67e92d	-0.22647543
13	0x3ef28452	0.47366577
14	0xbe860c29	-0.26181152
15	0xbbf57d30	-0.00749173
16	0xbd80c61c	-0.06287786
17	0xbeff5689	-0.4987071
18	0x3dd702c9	0.10498578
19	0x3e80efa9	0.25182846
20	0xbf19a2af	-0.6001386
21	0xbd04b8b5	-0.032402713
22	0xbc50a2f5	-0.0127341645
23	0xbe3d5d35	-0.18492587
24	0x3f0a8696	0.5411161
25	0x3db4ddac	0.08831343
26	0xbad3c7ae	-0.0016157532
27	0x3eff12f5	0.4981915
28	0xbf5d7d4a	-0.865193
29	0x3e2caa18	0.1686176
30	0xbd8a7c78	-0.06762022
31	0xbf04208d	-0.5161217
32	0x3e86b528	0.26310086
33	0x3dda1fee	0.10650621
34	0xbf78982b	-0.9710719
35	0x3dddd20f	0.10831081
36	0x3db393ea	0.08768447
37	0x3e60d767	0.2195717
38	0x3e831b4c	0.25606763
39	0xbe08380a	-0.13302627
40	0x3e3a6813	0.18203764
41	0x3f298848	0.66223574
42	0xbe0ec896	-0.13943705
43	0x3ea9165b	0.33024868
44	0xbee813a9	-0.453275
45	0xbe250779	-0.16116132
46	0x3f13d74e	0.57750404
47	0x3da831c8	0.0821262
48	0x3db7c18b	0.08972462
49	0x3f157b46	0.58391225
50	0x3eb6f894	0.35736525
51	0x3ee6d4fb	0.45084366
52	0xbeb8d4dc	-0.360999
53	0xbec035cb	-0.3754104
54	0x3e9e0cda	0.3086918
55	0x3ead2015	0.3381354
56	0xbe450618	-0.19240606
57	0xbec9dd9b	-0.39426884
58	0x3f8f94df	1.1217307
59	0x3dc8746c	0.09787831
60	0x3d77fb78	0.060542554
61	0x3eda12aa	0.42592365
62	0x3c32cc9b	0.01091304
63	0x3e9e3e06	0.30906695
64	0x3ea1bc15	0.31588808
65	0xbebab89f	-0.3646898
66	0x3eeb60a1	0.4597216
67	0xbc774d43	-0.015094104
68	0xbde6dc50	-0.1127249
69	0x3e075e4f	0.1321957
70	0x3cd48787	0.02594353
71	0xbd806843	-0.06269886
72	0x3f1394ab	0.57648724
73	0xbdd1d2a5	-0.102452554
74	0x3e97aa6f	0.29622218
75	0xbf40b6f5	-0.7527917
76	0x3efee432	0.49783474
77	0x3e2dd5ca	0.16976085
78	0x3e9e9238	0.3097093
79	0x3ea6ae96	0.32555073
80	0x3f0c7da0	0.5487919
81	0x3f5329d0	0.82485676
82	0x3de4dca8	0.11174899
83	0xbe2a8aae	-0.16654465
84	0xbe7d2bc9	-0.24723734
85	0x3ea17456	0.3153407
86	0xbea23c3b	-0.31686577
87	0xbcdf5b75	-0.02726529
88	0x3e613940	0.21994495
89	0xbe5d812b	-0.21631305
90	0x3eb7ed5f	0.35923287
91	0xbed3072e	-0.41216415
92	0x3db5fb44	0.08885816
93	0x3f315312	0.6926738
94	0xbe4e1881	-0.20126535
95	0x3ec02354	0.37526953
96	0x3e65256f	0.22377561
97	0xbea28874	-0.3174473
98	0x3df41358	0.11917752
99	0xbe3d672f	-0.18496393
100	0xbe15035f	-0.14552067
101	0x3ef12210	0.470963
102	0xbc7c9db1	-0.015418456
103	0xbf41541e	-0.7551898
104	0x3ea85acb	0.3288177
105	0xbf53b8e3	-0.8270399
106	0xbdb45916	-0.08806054
107	0xbf64b605	-0.8934024
108	0x3ef5dead	0.4802145
109	0x3e2c4de9	0.16826595
110	0x3cd33def	0.025786368
111	0x3e98766d	0.29777852
112	0xbdb25231	-0.08707083
113	0x3ec87ec2	0.3915921
114	0xbef8aa25	-0.4856731
115	0x3f0a87bb	0.5411336
116	0x3ebf58bc	0.37372386
117	0x3f161613	0.5862743
118	0x3dbecb59	0.09316129
119	0x3e181099	0.14850082
120	0x3e0a1001	0.13482668
121	0xbe24b344	-0.1608401
122	0xbddefdf3	-0.10888281
123	0xbc7a78f2	-0.015287625
124	0x3df5877d	0.11988733
125	0xbe4c7d8c	-0.19969767
126	0x3d901a90	0.070363164
127	0x3f2fca8d	0.6866844
128	0x3e144df3	0.1448286
129	0x3e158157	0.1460012
130	0xbe83f924	-0.25776017
131	0xbe2ef499	-0.17085494
132	0x3cdb462f	0.026766865
133	0x3dc78065	0.09741286
134	0x3e922098	0.28540492
135	0x3e0783ae	0.13233826
136	0x3ecc3be1	0.39889434
137	0xbe9096c1	-0.28240016
138	0x3e893f04	0.2680589
139	0xbed1799d	-0.40913096
140	0x3ec7f29f	0.39052293
141	0xbb8df42f	-0.0043320875
142	0x3f476b44	0.7789805
143	0xbe821d87	-0.25413153
144	0x3e397d3f	0.18114184
145	0x3e77e432	0.24208143
146	0xbe870d88	-0.2637751
147	0x3e9ddd77	0.30833027
148	0xbf331789	-0.69957787
149	0xbdc43c87	-0.09581857
150	0xbd11606f	-0.035492357
151	0x3f02bde6	0.5107101
152	0xbd5415e5	-0.051778693
153	0x3e55914f	0.20856212
154	0x3e856709	0.26055172
155	0xbedc4a9e	-0.43025678
156	0x3ed2c8ab	0.41168723
157	0x3ef8b005	0.48571792
158	0xbbe6cc2c	-0.007043382
159	0x3e92c35f	0.2866468
160	0xbe9a608b	-0.3015178
161	0x3f3fd317	0.7493147
162	0xbe97fabc	-0.29683483
163	0xbeed51bc	-0.4635142
164	0x3f177e84	0.5917742
165	0x3edbdfca	0.42944175
166	0x3f092aad	0.53580743
167	0xbe0b7dc2	-0.13622192
168	0xbdc3d2c5	-0.095616855
169	0x3e153b26	0.14573345
170	0x3e34d617	0.17659794
171	0x3ec71fb4	0.38891375
172	0x3ea8509e	0.32874006
173	0xbd959e9c	-0.07305643
174	0x3daa43ba	0.08313699
175	0x3e582163	0.21106486
176	0x3edb3c62	0.42819506
177	0x3e9c7528	0.30558133
178	0xbec6ca33	-0.3882614
179	0xbe04304e	-0.12909052
180	0x3ed3c307	0.41359732
181	0x3e9ec01c	0.31005943
182	0x3e8656ae	0.26238006
183	0xbebe3a45	-0.3715383
184	0x3d6ef948	0.058343202
185	0xbe0e74c3	-0.13911729
186	0xbee4723c	-0.44618404
187	0x3c70d30b	0.014698754
188	0xbe6f8149	-0.23389162
189	0xbe530ec6	-0.20611104
190	0x3daf48e4	0.08558825
191	0xbe8a5e3c	-0.2702502
192	0x3f24b067	0.6433167
193	0x3f4c8f15	0.79905826
194	0xbd1eadbf	-0.038739916
195	0xbe606732	-0.21914366
196	0xbe83b0a9	-0.25720719
197	0x3e299870	0.16562057
198	0xbeceff4f	-0.4042916
199	0x3eef4c55	0.46737924
200	0x3ed56c2e	0.41684097
201	0xbeaee694	-0.34160292
202	0x3f6f368f	0.93442625
203	0xbe6d6d87	-0.23186313
204	0xbd129170	-0.03578323
205	0xbd56a071	-0.052399103
206	0x3ea59ed7	0.32347748
207	0xbee4806e	-0.44629234
208	0x3df3f36a	0.11911662
209	0xbd985f62	-0.07440068
210	0x3e203d49	0.15648378
211	0x3d76231a	0.06009207
212	0xbe2f8a11	-0.17142512
213	0x3d552627	0.052038338
214	0x3ea09744	0.31365407
215	0x3de158c5	0.110032596
216	0x3df1966f	0.11796271
217	0xbde8e89f	-0.11372494
218	0xbe2eccd4	-0.17070323
219	0x3e393b7e	0.180891
220	0xbe0ac266	-0.1355072
221	0xbe8b1c41	-0.27169994
222	0xbdef16ee	-0.11674295
223	0xbf76207d	-0.96143323
224	0x3f05c795	0.52257663
225	0xbedc36ab	-0.43010458
226	0x3f1183f0	0.56841946
227	0xbf0c70f2	-0.5485984
228	0x3e9fa333	0.311792
229	0xbee3c5a2	-0.4448672
230	0x3f208906	0.6270908
231	0x3efe9b5d	0.49727908
232	0xbee6e6d8	-0.45097995
233	0x3d6f0f74	0.058364347
234	0xbe277625	-0.16353662
235	0xbc5b6c40	-0.013392508
236	0x3e61f7c7	0.22067176
237	0x3efae799	0.4900482
238	0x3e2d0399	0.16895904
239	0x3e1d8f18	0.15386617
240	0x3e3b0afc	0.18265909
241	0xbe23470d	-0.15945072
242	0x3ebc24e6	0.367469
243	0x3f10bddc	0.565397
244	0xbddbd028	-0.10733062
245	0x3f094ba2	0.5363103
246	0xbe4e11e7	-0.20124017
247	0x3f4df122	0.80446064
248	0xbf0ceb0f	-0.5504617
249	0xbd433896	-0.047661386
250	0xbe87aa3c	-0.26497066
251	0x3c96686e	0.018360343
252	0x3e2d0877	0.1689776
253	0x3eba7116	0.36414403
254	0x3e241efe	0.16027448
255	0x3edfb385	0.4369165

critic.0.bias f4 [64]
0	0x3fbfa34c	1.4971709
1	0x3f0282dd	0.5098093
2	0x4023923b	2.5558002
3	0x3e582720	0.21108675
4	0x3e42120c	0.18952197
5	0xbef5b543	-0.47989854
6	0x3e67633b	0.22596447
7	0xbf59bd81	-0.85054785
8	0x3f001459	0.5003105
9	0x3fa3725c	1.2769275
10	0x3f3b8540	0.732502
11	0x3f07f2fe	0.5310515
12	0xbfd0592f	-1.6277217
13	0xbf2f4132	-0.68458855
14	0xbffaa676	-1.958205
15	0xbf78c4f1	-0.9717551
16	0x3f710f02	0.94163525
17	0xbdf9f297	-0.122044735
18	0x3e1da612	0.15395382
19	0x3ee616ad	0.44939175
20	0xbe7923ca	-0.24330059
21	0xbf311b27	-0.69182056
22	0xbea0b5ae	-0.3138861
23	0x3f8500e5	1.0390898
24	0xbf99e335	-1.2022463
25	0xbfa676f7	-1.3005055
26	0xbe661320	-0.22468233
27	0x3fd99a8b	1.7000288
28	0x3fb2ff36	1.3984134
29	0xc00477a2	-2.0698018
30	0xbfe49027	-1.7856492
31	0x3e9f0e21	0.31065467
32	0x3fe7de9a	1.8114808
33	0x3f9a16ee	1.2038248
34	0xbf18b8b9	-0.59656864
35	0xbfe476b3	-1.7848724
36	0xbe93c2e2	-0.2885962
37	0xbf9151b9	-1.1353065
38	0xbf3ba929	-0.7330499
39	0xbfd76bdb	-1.682979
40	0x3d9700e4	0.07373217
41	0xbe3413ee	-0.17585728
42	0xbfb1d4c6	-1.3893058
43	0xbfd3b6ed	-1.65402
44	0xbfd1c6f9	-1.6388847
45	0x3f299c67	0.66254276
46	0xbe53d372	-0.20686129
47	0xbfb11527	-1.383458
48	0x3fe2e29f	1.7725409
49	0xc04aab86	-3.166719
50	0x3ffe3f06	1.9862983
51	0x3da7422f	0.081669204
52	0x3f7c49f8	0.9855037
53	0x3efe464b	0.49663004
54	0x3f8411fd	1.031799
55	0x3f087eb6	0.53318346
56	0x3ff34b3b	1.9007334
57	0xbe84a1e2	-0.25904757
58	0xbfac268c	-1.3449264
59	0x3df87bc1	0.12132979
60	0xbf288ef8	-0.65843153
61	0xbe54797f	-0.20749472
62	0x3feab938	1.8337774
63	0xbf9d60d8	-1.2295179

critic.2.weight f4 [64, 64]
0	0xbe08baf1	-0.13352562
1	0xbf87e1b0	-1.0615749
2	0x3e3088c0	0.17239666
3	0x3ea9bff9	0.33154276
4	0x3e9a725c	0.30165374
5	0x3e0f2083	0.13977246
6	0x3e1c2265	0.15247495
7	0x3e8d21cd	0.2756485
8	0xbf1e7cf7	-0.6190943
9	0x3e8f1af4	0.2795025
10	0xbe79640a	-0.24354568
11	0xbe6e3288	-0.23261464
12	0xbe1d5fd1	-0.15368582
13	0xbf26168a	-0.6487814
14	0xbecfa5dc	-0.40556228
15	0x3f66a4ad	0.90095025
16	0xbf4d3d12	-0.8017131
17	0xbd299320	-0.041400075
18	0x3f39fa90	0.72647953
19	0xbe6c56bd	-0.23079963
20	0xbd554dcf	-0.052076157
21	0x3e27d868	0.16391146
22	0xbbc8959c	-0.0061213505
23	0x3d9b5ba7	0.07585841
24	0x3e6b5aad	0.22983809
25	0xbef02dfb	-0.4691008
26	0x3de368a2	0.111039415
27	0x3e9ee4ae	0.31033844
28	0x3f0bed0f	0.546586
29	0xbe9aa79b	-0.30205998
30	0xbf6a4267	-0.9150757
31	0x3f48d0a2	0.7844335
32	0xbc2ccba9	-0.010546603
33	0x3e5e2348	0.21693146
34	0xbd81c5ff	-0.06336593
35	0x3f2493b9	0.64287907
36	0xbe2dc870	-0.16970992
37	0x3f173c29	0.5907617
38	0x3e2d1d1a	0.16905633
39	0xbdbbba06	-0.091663405
40	0xbea84125	-0.328622
41	0xbe62dbba	-0.22154132
42	0x3fa4d56d	1.2877632
43	0x3d4c831a	0.049929716
44	0x3e9e9ef4	0.30980647
45	0x3f65119c	0.89479995
46	0xbdc4a02a	-0.09600861
47	0x3dd9b2d9	0.106298156
48	0xbea83c03	-0.32858285
49	0x3f51babf	0.81925577
50	0xbecc1def	-0.39866588
51	0xbd544d8a	-0.05183176
52	0xbaf80042	-0.0018920975
53	0x3dda9be7	0.10674267
54	0x3e098810	0.1343081
55	0x3f03511f	0.51295656
56	0xbfa5ca56	-1.2952373
57	0xbdf28e60	-0.11843562
58	0x3dc175a7	0.094462685
59	0xbe0c456e	-0.1369836
60	0x3d5ccb02	0.05390454
61	0xbe19a6e6	-0.15005073
62	0x3da3b731	0.07993925
63	0x3d4f01d4	0.050538853
64	0xbdbbaf6e	-0.0916432
65	0x3f0eb1e1	0.5574017
66	0xbd958b92	-0.073020115
67	0x3ee35107	0.44397756
68	0xbe79bbab	-0.24387996
69	0x3e119802	0.14218143
70	0xbe3e18f3	-0.18564205
71	0x3d23e32d	0.040011574
72	0x3eb42980	0.35187912
73	0xbf30dd4d	-0.6908768
74	0x3d32ef64	0.043685332
75	0x3d9233d9	0.071387954
76	0x3e8ce3f2	0.27517658
77	0xbc90c515	-0.017672101
78	0x3fae21f5	1.3604113
79	0xbe89a4e0	-0.26883602
80	0xbfb68e62	-1.4262202
81	0x3e719ea5	0.23595674
82	0xbe33e123	-0.17566352
83	0xbedb868e	-0.42876095
84	0xbd3b68a3	-0.045754086
85	0x3e1a7f17	0.15087543
86	0x3db75f55	0.0895373
87	0x3e00ce37	0.12578665
88	0x3e7b5a06	0.2454606
89	0x3ef01ddd	0.46897784
90	0x3efef677	0.49797413
91	0xbf5547e1	-0.83312804
92	0xbc2b14ac	-0.01044194
93	0xbe84bbdf	-0.25924584
94	0x3ff3cd8e	1.9047105
95	0xbe8f053c	-0.2793368
96	0x3c2da5c4	0.010598604
97	0xbf259c7a	-0.6469189
98	0xbe6e0051	-0.23242308
99	0xbd1935c6	-0.037404798
100	0x3f0401a5	0.5156501
101	0xbef62647	-0.48076078
102	0xbe853ace	-0.26021427
103	0xbc8f43f0	-0.01748845
104	0xbe98cb81	-0.2984276
105	0xbe1b2480	-0.15150642
106	0xbe7ecaf6	-0.24882111
107	0xbda38b62	-0.079855695
108	0x3ec7400b	0.38916048
109	0xbe9e064d	-0.30864182
110	0xbe95576f	-0.2916827
111	0xbe0d90e4	-0.13824803
112	0x3d86beb2	0.06579341
113	0x3e5efb31	0.2177551
114	0xbf8a1a4d	-1.0789276
115	0x3f0179c4	0.50576425
116	0x3d6fb155	0.058518726
117	0xbd2bcb9f	-0.041942235
118	0xbed74a4b	-0.4204887
119	0xbe9e3a33	-0.30903777
120	0x3ddf5bff	0.10906219
121	0xbe2b0f9f	-0.16705178
122	0xbe70a038	-0.23498619
123	0xbdb18f62	-0.08669926
124	0xbdaf4efb	-0.08559986
125	0x3ea444d2	0.32083756
126	0xbf388295	-0.7207425
127	0xbeb63db8	-0.35593963
128	0x3f208158	0.6269736
129	0x3ebc051e	0.36722654
130	0x3f0cbe77	0.54978126
131	0x3d1224a7	0.035679486
132	0x3eafd278	0.34340262
133	0xbdaee0cd	-0.08538971
134	0x3e9dcb3c	0.30819118
135	0xbe557744	-0.20846277
136	0x3f708756	0.93956506
137	0xbe919120	-0.28431034
138	0xbe778684	-0.24172407
139	0x3e100b69	0.14066853
140	0x3df847ba	0.12123056
141	0xbe9b39cc	-0.30317533
142	0xbdfec9e0	-0.12440848
143	0x3ef8d39b	0.48598942
144	0xbd3be202	-0.045869835
145	0x3e6ad932	0.22934416
146	0x3ee244d7	0.44193146
147	0x3e91191e	0.28339475
148	0xbefac5ea	-0.4897912
149	0xbf3c3009	-0.73510796
150	0x3f0594a4	0.5217993
151	0xbeb6a83c	-0.35675228
152	0x3db0b809	0.08628852
153	0xbf023fb1	-0.50878435
154	0xbeba3404	-0.3636781
155	0x3f6fd636	0.93686235
156	0x3e1e681b	0.154694
157	0xbe0a3d98	-0.13500059
158	0x3e6f35a0	0.233603
159	0xbea0ace2	-0.313819
160	0x3ec73259	0.389056
161	0xbe8d09b5	-0.27546468
162	0xbe6eb46f	-0.23311017
163	0xbe7fda8b	-0.24985711
164	0xbe075ffa	-0.13220206
165	0xbecb59a0	-0.39716816
166	0xbe5a3903	-0.2131081
167	0xbf06963e	-0.52573
168	0x3e81344e	0.25235218
169	0xbef97a64	-0.4872619
170	0xbd6e0686	-0.05811169
171	0xbe141e26	-0.14464626
172	0xbeb7bab2	-0.35884625
173	0xbefcebd3	-0.4939867
174	0xbe19b924	-0.15012032
175	0xbe8061b3	-0.2507454
176	0x3f4ee652	0.8082019
177	0xbf0c1982	-0.5472642
178	0x3d9a1bd8	0.07524842
179	0xbeda5a19	-0.42646864
180	0xbefde11d	-0.4958581
181	0xbe230779	-0.1592082
182	0xbef9c4b4	-0.48782885
183	0xbe51556c	-0.20442742
184	0x3f386671	0.72031313
185	0xbd42a2d0	-0.04751855
186	0xbeb4aa69	-0.35286263
187	0xbc494a56	-0.0122857895
188	0xbf94b313	-1.1617149
189	0x3de0c4b8	0.10975021
190	0x3e02e7ca	0.12783733
191	0xbdd23472	-0.102639094
192	0xbe75435c	-0.23951477
193	0xbe469f1f	-0.19396637
194	0xbe682c64	-0.22673184
195	0x3aea153a	0.0017859109
196	0x3f457d2e	0.77144134
197	0x3e79cd2c	0.24394673
198	0xbf2432d9	-0.6414009
199	0x3f879d60	1.0594902
200	0xbda13de7	-0.07873135
201	0x3f02c0c9	0.51075417
202	0x3f2d5f32	0.6772338
203	0x3e0e60d4	0.13904124
204	0x3ec5d03a	0.38635427
205	0x3eb60ba8	0.35555768
206	0x3e1f3f44	0.15551478
207	0x3ed5159e	0.41618055
208	0xbf3beede	-0.7341136
209	0x3ed98759	0.42486075
210	0xbea928ab	-0.3303884
211	0x3eb3caa7	0.3511555
212	0xbe4cd56b	-0.20003287
213	0x3f24a023	0.6430685
214	0xbe77c5df	-0.24196576
215	0x3e26250f	0.16225074
216	0x3e2f1231	0.17096783
217	0xbe9a1d61	-0.3010054
218	0x3f065358	0.5247092
219	0x3f39629e	0.724161
220	0xbe9337d7	-0.2875354
221	0x3e435ae2	0.19077638
222	0x3e9f6eed	0.31139317
223	0xbf9021ec	-1.1260352
224	0xbde8d526	-0.1136878
225	0x3d8d7e7a	0.06908889
226	0x3ed267fd	0.41094962
227	0xbdba25a8	-0.090892136
228	0xbe79e5fe	-0.24404141
229	0x3ea363f9	0.3191221
230	0x3da9b6fc	0.082868546
231	0x3f0093fa	0.50225794
232	0xbbccd3ac	-0.006250819
233	0xbe17be31	-0.14818646
234	0x3ee06d6f	0.4383349
235	0x3eaa9084	0.33313382
236	0x3eac383e	0.3363666
237	0x3e6b30a3	0.22967772
238	0x3e23b24d	0.15985985
239	0xbdd7e392	-0.105414525
240	0xbf0c9d7a	-0.5492779
241	0x3de5d43c	0.11222121
242	0xbfa0e124	-1.2568707
243	0x3bd72f5a	0.006566924
244	0x3f0fc21c	0.5615556
245	0x3dad1d92	0.08452906
246	0xbb7bffd4	-0.0038452046
247	0xbdb7f2de	-0.0898187
248	0xbe4669e4	-0.19376332
249	0x3ec902c2	0.39259917
250	0x3e5d9210	0.2163775
251	0xbf01d745	-0.507191
252	0x3f504eed	0.8137043
253	0xbeacd074	-0.33752787
254	0xbe98d4e6	-0.2984993
255	0xbf22ee17	-0.63644546

critic.2.bias f4 [64]
0	0xbdf154f0	-0.11783779
1	0x3d4585f9	0.04822347
2	0x3e3cf5d8	0.18453157
3	0xbedff74b	-0.43743357
4	0xbf557b19	-0.8339096
5	0xbe9f394f	-0.3109841
6	0xbdd4d4bd	-0.10392139
7	0xbf0f81bc	-0.56057334
8	0xbd70828f	-0.05871826
9	0x3f49063c	0.7852514
10	0x3da80d85	0.08205704
11	0x3ec611e5	0.38685527
12	0x3ce24aee	0.02762362
13	0x3e86ed34	0.26352847
14	0x3ba31f1b	0.0049780733
15	0xbf0fb7b6	-0.56139696
16	0x3d667597	0.056264486
17	0xbea329fa	-0.31867963
18	0x3dcc249a	0.09967919
19	0x3da3e6b4	0.080029875
20	0x3f1b32ee	0.6062459
21	0xbe7dfc00	-0.24803162
22	0x3ef6e3ba	0.48220617
23	0x3defed50	0.11715186
24	0x3eea7bc5	0.45797554
25	0x3e4f8e65	0.20269163
26	0x3ea72fd6	0.32653683
27	0xbdd81845	-0.10551504
28	0x3e12599e	0.14291999
29	0x3ed5770a	0.41692382
30	0x3f519bd8	0.81878424
31	0x3ea02d7a	0.31284696
32	0xbde70eeb	-0.11282142
33	0x3ea431ab	0.32069144
34	0xbe98c9bb	-0.29841408
35	0x3eb4b69d	0.35295573
36	0x3dc57ac5	0.09642557
37	0x3f310953	0.6915485
38	0x3e9a7301	0.30165866
39	0xbea91f2c	-0.33031595
40	0x3e0522c0	0.13001537
41	0xbd988c99	-0.07448692
42	0x3e9578f3	0.2919384
43	0x3ec109f9	0.3770292
44	0x3eea1ac8	0.45723557
45	0x3e5ef88e	0.21774504
46	0xbee25e6c	-0.44212663
47	0xbebf1623	-0.37321576
48	0x3f694ea2	0.9113561
49	0xbec6171d	-0.3868951
50	0x3f5d8c5a	0.86542284
51	0xbf064f72	-0.52464974
52	0xbef4cf47	-0.4781439
53	0xbd621a9f	-0.05520117
54	0x3e7445a1	0.23854686
55	0x3f4c9adb	0.7992379
56	0x3ef2efd1	0.4744859
57	0xbd94ab67	-0.07259255
58	0xbecd0c96	-0.40048665
59	0x3eb8bc4e	0.36081165
60	0xbcb21c37	-0.02174197
61	0x3ec17518	0.37784648
62	0x3f26daa9	0.651774
63	0xbd3ddd47	-0.046353605

critic.4.weight f4 [1, 64]
0	0x3f0c392c	0.5477474
1	0x3f1e0745	0.6172984
2	0x3df8102a	0.12112458
3	0xbeff885f	-0.4990873
4	0xc0005217	-2.0050104
5	0xbe4a9631	-0.19783856
6	0xbecd8db4	-0.40147173
7	0xbf197629	-0.59945923
8	0xbf7bd232	-0.9836761
9	0x3f96ae4b	1.177194
10	0x3efdb786	0.4955408
11	0x3f41947d	0.756172
12	0xbe0bce08	-0.13652813
13	0x3e6352f0	0.22199607
14	0xbeffae35	-0.49937597
15	0xbf986c94	-1.1908135
16	0x3ef3b193	0.47596416
17	0xbd6452ee	-0.05574315
18	0x3e245911	0.16049601
19	0x3f019a33	0.50625914
20	0x3f446620	0.7671833
21	0xbf1e0389	-0.61724144
22	0xbec1d11a	-0.37854844
23	0x3f45ac74	0.7721627
24	0x3f5cbd6d	0.8622654
25	0x3f2141c6	0.6299099
26	0x3e99add7	0.30015442
27	0x3f267111	0.65016276
28	0x3e91b2f3	0.2845684
29	0x3eb5f7db	0.3554066
30	0x3fbabb22	1.4588358
31	0x3f5761df	0.84133714
32	0xbf6fefba	-0.9372517
33	0x3d2e1949	0.042504583
34	0xbf1edb65	-0.6205352
35	0x3f118680	0.56845856
36	0x3f88bde1	1.0682946
37	0x3f661a99	0.89884335
38	0x3f82f577	1.023116
39	0xbf0b8379	-0.54497486
40	0x3f0bfe3a	0.54684794
41	0xbf423c31	-0.75873095
42	0x3ea5c196	0.32374257
43	0x3e32c391	0.17457415
44	0x3f3da4fa	0.7407986
45	0x3f665bb1	0.8998366
46	0xbfa94fca	-1.3227475
47	0xbf7930e5	-0.9734023
48	0x3fcdf4b1	1.6090299
49	0xbced284b	-0.028949877
50	0x3fef42b0	1.8692226
51	0xbf9f9e47	-1.2470177
52	0xbf670802	-0.90246594
53	0xbf1b84d2	-0.6074954
54	0x3e5bcbee	0.21464512
55	0x3f96a0a8	1.1767778
56	0x3e1effa7	0.15527211
57	0xbf17859b	-0.5918824
58	0xbfb397eb	-1.4030737
59	0xbcd75cf7	-0.026289446
60	0x3e230946	0.15921506
61	0x3f7a042d	0.9766262
62	0x3fe05a96	1.7527645
63	0x3eb0bcbb	0.3451899
